Assets/ML-Agents/Models/BattleSystem_poca 1.onnx (onnx, 369129 bytes, 20 tensors)

discrete_act_size_vector f4 [1, 7]
000000 00 00 a0 40 00 00 00 40 00 00 a0 40 00 00 50 41
       5.0 2.0 5.0 13.0
000010 00 00 80 3f 00 00 80 40 00 00 80 40
       1.0 4.0 4.0

network_body.observation_encoder.processors.0.normalizer.running_mean f4 [49]
000000 01 a2 54 3f e8 7e 5a 3f 50 7a 60 3f cc c3 62 3f
       0.830597 0.85349894 0.87686634 0.8858001
000010 f5 2a 2a 3f ad cf 1d 3f 83 d8 2c 3f 24 49 03 3f
       0.664718 0.61645013 0.6751787 0.5128348
000020 75 d4 62 43 e9 c7 65 43 89 a8 5f 43 53 aa 67 43
       226.82991 229.7809 223.65834 231.66533
000030 b6 17 00 43 52 89 5a 43 4e 4b 6e 43 8e 9e 68 43
       128.09262 218.5364 238.29416 232.61935
000040 d6 15 58 43 08 f9 65 43 f3 2e 6c 43 2a fc 4f 43
       216.0853 229.97278 236.1834 207.98502
000050 85 3e 65 43 3a 02 60 43 f1 6a 53 43 1e 23 73 43
       229.24422 224.0087 211.41774 243.13718
000060 09 74 6d 43 a8 91 01 43 42 b4 f8 42 6d 9d fd 42
       237.45326 129.56897 124.352066 126.80747
000070 90 a9 ea ba ab e8 95 3c b6 32 07 3d cb 38 46 3d
       -0.0017903317 0.018299421 0.033007346 0.048394006
000080 31 e1 a3 ba 48 0b 8f bb 94 a6 03 ba 22 6f b3 ba
       -0.0012503025 -0.0043653585 -0.00050220755 -0.0013689736
000090 20 0f 96 3c 37 3a 9b 3c f6 52 8a 3c 64 b1 e8 3c
       0.018317759 0.018948657 0.016885262 0.028404899
0000a0 67 ba 03 3d a8 40 33 3d 88 05 3b 3d 1c 12 3f 3d
       0.03216019 0.043762833 0.045659572 0.04664813
0000b0 db 59 6f 3d ff 0f 69 bb 10 24 f1 ba 3e a3 06 bb
       0.058435302 -0.0035562513 -0.0018397588 -0.0020544077
0000c0 00 00 00 00
       0.0

network_body._body_endoder.seq_layers.0.weight f4 [256, 49]
000000 e0 61 e4 be 52 9b 3d be f4 81 03 3f cb b3 c7 3c
       -0.44605923 -0.18516281 0.5137017 0.024377724
000010 ec 06 83 be 7b a7 9a bd 30 f6 be 3e 4b 35 d5 3d
       -0.25591218 -0.075514756 0.372972 0.104105555
000020 ef 85 70 be 5c 15 1e be 81 05 2f bd d0 1b a2 bd
       -0.23488592 -0.15437835 -0.04272986 -0.07915461
000030 c2 1e cb 3d 7d 66 a1 bd aa af c9 3d 6d f7 f6 3c
       0.09917976 -0.07880876 0.098479584 0.030147279
000040 b7 a2 68 3e 46 ca da 3d 77 a1 d9 3d c2 88 e1 3c
       0.22718321 0.10683112 0.106265 0.027531032
000050 76 30 11 be 0d 3b 7c be b3 81 e2 3d 41 08 11 be
       -0.14178643 -0.24631901 0.110598944 -0.14163305
000060 54 af 28 3d 14 62 8b bd 3f a9 9e bd bf 5c b9 3e
       0.04118283 -0.06805816 -0.07747125 0.36203572
000070 9f 9e ba 3b ae b4 9f 3d 27 c8 86 3d cd 0c 99 3d
       0.0056951786 0.07798134 0.06581145 0.07473145
000080 21 b8 f3 3b d1 61 c7 3e 05 89 10 be 21 8c 75 3e
       0.0074377214 0.38941815 -0.14114769 0.23979236
000090 a5 ab 63 be 7e 87 91 3e f4 79 f7 bd ac 1f cb bd
       -0.22233446 0.28423685 -0.120838076 -0.0991815
0000a0 a0 26 46 3e f9 19 a4 be 95 b8 cb 3c cc b0 3e 3e
       0.19350672 -0.32051066 0.024868289 0.1862213
0000b0 08 06 ef bc 73 76 05 be 27 af c4 3d 30 e2 f9 3d
       -0.02917768 -0.13033466 0.0960372 0.12201345
0000c0 2f a3 56 be 78 95 af 3e f4 a1 96 3e cf f1 50 3c
       -0.20960687 0.34293723 0.29420435 0.012752964
0000d0 dd 76 3f 3c bb 57 fc 3c 22 a7 e6 bc a7 73 17 be
       0.011686054 0.030803552 -0.028155867 -0.14790212
0000e0 14 67 d4 bd f0 b6 f2 3e 79 42 5f 3e b2 22 ab 3e
       -0.10371223 0.47405195 0.21802701 0.33424908
0000f0 a7 b7 86 3e 13 4a aa 3e de ac dc 3c 68 9e 10 be
       0.2631199 0.3325964 0.026937898 -0.14122927
000100 d0 df bc 3d 43 e1 29 bc 34 db 0c 3e 5c d3 c8 3c
       0.09222376 -0.010368648 0.13755494 0.024514847
000110 bd e2 99 3d b4 e0 09 3e d0 97 af 3e b0 2a 68 3c
       0.0751395 0.13464624 0.3429551 0.014170334
000120 ad f1 8e 3c 6b 72 0d 3e 9f b5 cb 3d 0b 1a ac be
       0.017449224 0.13813178 0.09946751 -0.3361362
000130 af ab d1 bb e1 e1 91 be 5f bb 99 3d d9 6a bc be
       -0.00639864 -0.28492644 0.07506441 -0.36800268
000140 7c fb c8 be ac fa 31 3e 8c fb 1c 3e 34 eb 07 3e
       -0.39254367 0.1738078 0.15330333 0.13273317
000150 dd 39 30 bd e3 46 28 be f9 78 24 3d 7a e1 7d bd
       -0.043023933 -0.16433291 0.04015443 -0.06198261
000160 ac a1 27 3c 7d b9 9a be fe 6d cd 3d 70 48 40 3e
       0.010231417 -0.3021964 0.10030745 0.18777633
000170 43 8c b0 bc 98 28 52 3e a8 a6 85 be 72 a3 77 be
       -0.021551257 0.20523298 -0.2610371 -0.24183443
000180 49 70 0d 3e 7f dc 2b 3d cd 4b b3 bd 4a 2f df be
       0.13812365 0.04195833 -0.08754692 -0.43590766
000190 26 55 f6 3e f8 c0 49 be 31 82 3a be ad c6 03 3e
       0.48111838 -0.19702518 -0.18213727 0.12868758
0001a0 d8 ec 9a 3e d1 f8 91 3e 29 53 ca bd 11 14 8b be
       0.30258822 0.28510144 -0.09879143 -0.27163747
0001b0 ad 6d 53 3e 36 96 18 3f 98 21 b7 3e 97 d3 d7 bd
       0.20647307 0.59604204 0.35767817 -0.105384044
0001c0 3c 2b 97 3d 06 0f fb 3d 31 47 6a bd 08 07 1c bb
       0.07381293 0.12258725 -0.0571968 -0.0023807902
0001d0 bf 08 44 3e 17 ff e7 3c 68 dd 00 be 7d d1 82 be
       0.19143961 0.028319879 -0.1258446 -0.25550452
0001e0 fb 54 82 bc 3d 9b 8e bd 86 f0 3b bd 92 92 9a 3c
       -0.015909662 -0.06963203 -0.045883678 0.018868718
0001f0 09 56 8c be e7 7f 48 be 64 8e 98 3d 1e 83 7a bc
       -0.2740939 -0.19580041 0.07449034 -0.01529005
000200 42 eb 43 be 60 98 4e 3e fc 55 a8 3c 95 e4 a4 3e
       -0.19132712 0.20175314 0.020548813 0.32205644
000210 e6 d1 73 bd 86 ee 09 be 0b 08 78 3e 55 36 3d bd
       -0.059526347 -0.13469896 0.24221818 -0.046194393
000220 ad 59 9b be 1e b4 64 be 3c 87 ae 3e 10 2b 94 3e
       -0.30341855 -0.22334334 0.3408755 0.28939104
000230 b9 c3 d5 3e d8 e6 2f 3e 84 87 f6 bd 2f 64 b5 3d
       0.41750887 0.17177904 -0.12037566 0.08856999
000240 75 65 d8 bd 98 98 e0 3e 86 b0 37 be d8 be 19 bf
       -0.105662264 0.4386642 -0.17938432 -0.6005683
000250 5b b1 a1 bd b6 ef 5e bd c3 67 a1 3d d8 8e 8a be
       -0.07895156 -0.054427825 0.07881119 -0.27062106
000260 ce d9 bf bc 7c e7 e7 bc a8 47 21 3f 38 58 df be
       -0.023419287 -0.028308623 0.62999964 -0.43621993
000270 56 41 00 3f c4 6d 64 3e 63 db 19 3d 00 7b 04 bf
       0.50099695 0.22307497 0.03756274 -0.51750183
000280 13 5d 72 3e b8 1f 09 be a3 07 43 bd bf 30 f4 3d
       0.23668317 -0.13391006 -0.047614705 0.1192336
000290 c6 f3 9a bc 4f f0 fb 3d e9 85 f4 3b 78 93 c4 3b
       -0.018915068 0.123016946 0.0074622524 0.005999025
0002a0 2d 9a 3a 3d 35 a1 f4 3d ed 32 a4 be 3f a7 1e 3e
       0.04555719 0.1194481 -0.32070103 0.15493487
0002b0 94 b5 99 be 76 f3 94 be 95 f2 a4 be ec 83 80 bd
       -0.30021346 -0.29091996 -0.32216325 -0.06275162
0002c0 52 9c 6a 3e 36 e1 58 3e ee 6c 66 bc 87 c7 27 3e
       0.22911194 0.21179661 -0.014064057 0.16384707
0002d0 91 14 4d 3e 1f 00 0d 3e 12 6d c7 be 33 0f 16 3e
       0.20027377 0.13769577 -0.38950402 0.14654236
0002e0 93 ed ed bd ac 44 29 3e 33 3a 8e 3e 41 e4 8c be
       -0.11617579 0.16530102 0.27778777 -0.27517894
0002f0 1e bf 5d 3d f9 4c 68 be ea aa 3f 3e 93 10 00 be
       0.05413734 -0.22685613 0.18717542 -0.12506323
000300 7f 0e 5c bd bc 7b 48 be 1c ac 0f be 89 92 37 be
       -0.053724762 -0.19578451 -0.14030498 -0.17926992
000310 44 39 1e 3f ff 06 5d 3e 3e f1 82 3e 5a 2f d1 3d
       0.6180613 0.215847 0.25574678 0.1021411
000320 77 6e 8b 3d dc 3e af be 93 e4 ed 3d af 0c 3b bc
       0.06808179 -0.34227645 0.11615863 -0.011416598
000330 90 05 22 3e a5 58 e5 3c 98 15 24 bd 4a 84 30 3e
       0.15822434 0.02799637 -0.040059656 0.17237964
000340 6e 80 72 be 59 4a e6 bd 4e 98 00 be 0a a7 5e 3d
       -0.23681805 -0.112446494 -0.125581 0.05435852
000350 4f 2c 5a 3e 34 85 25 bd 47 ff 24 3e 1d a6 22 3c
       0.21305965 -0.040410236 0.16113006 0.0099273
000360 52 0d cd 3d 8a cf ee 3d 27 48 f4 bc 48 c1 09 3e
       0.10012306 0.11660679 -0.029819561 0.13452637
000370 3c 47 f5 3d b9 79 20 be 04 c7 bf 3c a3 cb bd be
       0.119764775 -0.15671434 0.023410328 -0.37069425
000380 9b 65 90 3b bb 07 e0 bd db d1 af bd cd 51 c9 3d
       0.0044066436 -0.109389745 -0.08584949 0.098300554
000390 3b 10 ba be 86 c0 ad 3d d6 54 74 3e e1 95 0f bd
       -0.36340508 0.084839866 0.23860487 -0.035055045
0003a0 3d ef 0d 3c 1b e2 b0 3d 7e aa 19 3e fa a5 e7 3c
       0.008662996 0.08636876 0.15006444 0.028277386
0003b0 2f 07 de 3e 61 e6 9c bd f3 00 3d bd 4d 0c ce bd
       0.43364856 -0.07661129 -0.046143483 -0.1006094
0003c0 5a 7f 91 3e b5 be 63 3e bb 23 b3 bd 93 cf 34 bd
       0.28417474 0.22240718 -0.087470494 -0.04414327
0003d0 9e f8 3c bd c8 67 14 be 9b 8f 6f be 43 5e a4 3d
       -0.046135537 -0.14492714 -0.23394625 0.080257915
0003e0 1b 0a 13 be db 98 03 3c 91 cd 55 be 64 ad f6 3d
       -0.14359324 0.008032049 -0.20879199 0.120447904
0003f0 01 f4 fe be 76 29 af be 38 1e a2 3e e2 81 a3 bc
       -0.49795535 -0.3421132 0.3166368 -0.019959394

network_body._body_endoder.seq_layers.0.bias f4 [256]
000000 c7 e3 ce 3d 16 11 58 bd 09 6b d9 3d ce bb fe 3d
       0.10102039 -0.05275067 0.106161185 0.12438165
000010 d6 68 79 bd 86 a5 94 3d 5b 85 23 3d 05 c3 0a 3e
       -0.060890995 0.072581336 0.0399221 0.13550957
000020 45 95 25 bb 19 b9 fd 3d e9 3f 39 3d 55 ce d9 3d
       -0.0025265974 0.1238882 0.045226965 0.10635058
000030 7f 51 fc 3a bf a6 db bd 5b a5 c9 3d cf cf bc 3d
       0.0019250362 -0.10725164 0.09845992 0.09219324
000040 fc 68 76 3d 8d ef 39 bc 74 69 9e bc 31 b1 f4 3d
       0.060158715 -0.011348617 -0.019337393 0.11947859
000050 64 02 36 bd 3a 3f 6d 3c e4 bd d8 bc 90 7b 67 3d
       -0.044435874 0.014480406 -0.026457734 0.056514323
000060 1f 65 8f bc f1 f2 d1 3d c8 a6 1e bd 3a 8a a2 bc
       -0.017504273 0.102514155 -0.038733274 -0.019841302
000070 7d 8b 14 3a 3d ce 3e 3e 03 55 b1 3d 0a 64 8f 3d
       0.00056665373 0.18633361 0.08658793 0.07001503
000080 65 3c 2e bd 4b 76 cc bc 84 14 ee 3d 05 48 f4 3d
       -0.042538065 -0.02495875 0.11625007 0.11927799
000090 bb ae bd 3d 75 37 3d bd 73 5c bf 3d 59 63 85 3d
       0.09261843 -0.046195466 0.09343805 0.0651309
0000a0 2f b9 6d 3d ec d9 9a bd 48 8d 12 3d 17 f3 c1 bd
       0.058037933 -0.075610965 0.035779268 -0.09470194
0000b0 7e 47 f2 3d 2d 35 80 3c 49 3d 48 3d 69 61 a0 bd
       0.11830042 0.015650356 0.04888657 -0.078310795
0000c0 2a 34 74 3e 17 fb 4d 3e 50 1d 74 3e ec 73 65 3d
       0.23848024 0.20115314 0.23839307 0.056018755
0000d0 7c b9 96 3d f2 bf 39 3e ba d6 c9 3b a2 97 e6 3d
       0.07359597 0.18139628 0.0061596306 0.112593904
0000e0 38 03 69 3b 57 dd a4 3d 77 29 65 3d a5 db 16 bb
       0.0035554897 0.0805003 0.055947747 -0.0023019102
0000f0 31 3b a1 3d db 62 c5 3c f7 28 83 3d 08 08 bb 3d
       0.07872618 0.02409499 0.06404298 0.09132391
000100 23 c0 55 3c 0e 09 dc 3c 89 75 d8 bc 6d 7d c8 bd
       0.013046297 0.026859786 -0.026423233 -0.09789548
000110 4b 58 f0 3d 91 e8 b5 3d bf ac 97 3d 9d 64 9d 3d
       0.117355905 0.08882249 0.074059956 0.07685206
000120 4c 4c 3a 3d 1c 32 de 3c 53 b7 92 bd ed 0e 08 3e
       0.04548292 0.027123503 -0.071638726 0.13286944
000130 8a 35 90 bd 09 a4 72 bd a0 91 26 3e ba 1f 1f 3e
       -0.07041462 -0.059238467 0.16266489 0.15539446
000140 d8 a7 78 3d d2 34 e2 3d 3b 5a 1f bd 74 ca 50 3d
       0.060706943 0.11045231 -0.03890441 0.050974324
000150 15 f7 a7 3c 41 a9 1f be 3b 38 58 3e 4d 4e ab 3d
       0.02050356 -0.15591909 0.211152 0.08364544
000160 de ef 08 bd 27 2c 56 3d 79 13 0f 3e 0a 0b e0 3d
       -0.03343188 0.0522882 0.13972272 0.109396055
000170 a9 f4 5a bd 2a 8c 4e 3d 7c 03 df bb bf 2a 7a bd
       -0.053455982 0.05042664 -0.0068058353 -0.061075922
000180 9f 90 8d bd ff 61 8a bd be 26 a7 3d dc ce b5 3d
       -0.0691235 -0.067569725 0.08161686 0.08877346
000190 15 c6 0a bd 3e 89 03 bd 0d f2 1c 3e 47 d3 9f bc
       -0.033880312 -0.032113306 0.1532671 -0.019509925
0001a0 2a e4 02 be 92 2d 06 bd 7d 66 e7 3d 12 2d fb 3d
       -0.1278235 -0.032758303 0.11298845 0.12264456
0001b0 8a cc 2e 3d e8 b6 d8 3d 65 4e c5 bd d0 e8 55 bd
       0.042675532 0.105817616 -0.09634093 -0.05222398
0001c0 c9 c9 a0 3c f1 27 ad 3d 9a 68 04 3c d9 d2 2e 3c
       0.019627469 0.08454884 0.00808158 0.010670387
0001d0 d3 96 1e be 76 1a 20 3e dc a8 1c 3c 95 b1 1e 3e
       -0.15487222 0.15635094 0.009561744 0.1549743
0001e0 eb df a4 bd 1e fb 40 bd 13 bd da bb 42 ee 56 bd
       -0.080505215 -0.047114484 -0.0066753714 -0.052473314
0001f0 50 73 64 bd 12 2f ec 3c fd 82 a4 3d 8e 84 8f bc
       -0.055774033 0.028831039 0.080327965 -0.017519262
000200 a2 2b 6e bc f1 47 1b bd 7e 48 83 3d cd 00 18 bc
       -0.01453677 -0.037910406 0.06410311 -0.009277535
000210 8d cb c5 bc dc 9b 22 bc 0b 6f 7e 3d 53 1e ab 3c
       -0.024144912 -0.009924855 0.062117618 0.020888483
000220 4d b4 67 3d af 33 f5 3b 7b 1e bc 3d c6 93 4a bd
       0.056568433 0.007482968 0.09185501 -0.049457334
000230 06 9b 3e 3e e0 80 07 3e 73 0a ef 3c 77 c0 08 bd
       0.18613824 0.13232756 0.029179787 -0.033386674
000240 b1 d4 ed 3c 1a 28 bc bc 32 2b 24 3e d9 dc 3f 3b
       0.029032083 -0.02296834 0.16032103 0.0029275923
000250 27 5b 20 bd 74 30 2b 3d 0e 3a 62 3d 0b 24 f8 bb
       -0.03914943 0.041794255 0.055231147 -0.007572656
000260 67 90 c8 3d 54 ad 70 bd 8e eb 50 bd ed bf ce 3d
       0.097931676 -0.05875905 -0.051005892 0.10095201
000270 b7 80 10 bd de 2c 1a 3b e3 e1 f0 3d c8 25 29 3c
       -0.035279002 0.0023525278 0.117618345 0.010323949
000280 5c 59 0f 3e cc 29 8c 3d 72 2a a4 3d aa 32 19 3e
       0.13998932 0.068439096 0.08015908 0.14960733
000290 62 78 8a 3d 40 3d f8 bc d4 2c 31 bc 14 c6 12 3e
       0.067612424 -0.030302644 -0.0108139105 0.14333373
0002a0 13 11 66 3d 73 38 05 be d8 d1 2c 3e a8 65 a7 3c
       0.056168627 -0.13009815 0.16876924 0.020434216
0002b0 23 e9 4e bd df c6 6d 3d e9 55 79 3d 4d ba f5 3d
       -0.050515305 0.058050986 0.060872946 0.11998425
0002c0 39 67 68 3c e1 4a 3e 3d 57 6c 2b 3d d2 97 fc 3d
       0.014184766 0.04645813 0.041851368 0.12333645
0002d0 ab 1f 6f bd c2 0e 78 3d 27 01 6d 3d e8 af 0a be
       -0.05837981 0.06056095 0.057862427 -0.13543665
0002e0 9d f1 d1 3c c0 26 e3 3c 18 de aa bc 7f 7b 93 3c
       0.025627906 0.027728438 -0.020857856 0.018003223
0002f0 69 fc a2 3d 95 8e 88 bd fe 19 11 3d e8 76 97 3c
       0.079583 -0.0666782 0.03542518 0.018489316
000300 e5 08 00 3d af 17 f6 3d 63 1a 11 3e 23 69 be 3d
       0.031258482 0.12016236 0.14170222 0.09297397
000310 58 93 24 bc bb 40 a4 bd 67 2a 9f 3c f0 e5 00 3d
       -0.010044895 -0.08020159 0.019429399 0.031469285
000320 1b f4 d7 3c b8 52 14 ba 2e 78 b2 3d 28 94 82 3e
       0.026361516 -0.0005658078 0.08714329 0.2550366
000330 e5 9b f3 3d 9d 4f 5a bd 33 cf 0a 3e 12 d5 18 be
       0.11894969 -0.05329858 0.13555603 -0.1492503
000340 d1 c9 cb 3c 3f a5 64 3e 34 19 c7 3d d9 e3 b2 3d
       0.024876507 0.22328661 0.09721604 0.08734865
000350 ff cc 95 3c 38 c3 43 3d e2 85 58 3c 6d 40 e9 bd
       0.018286226 0.047793597 0.013215514 -0.11389241
000360 2d a6 07 3c 71 67 34 bd a0 8d 21 be b8 76 10 bd
       0.0082793655 -0.044043962 -0.15776682 -0.03526947
000370 5c 3f eb bd 7e b1 19 3e 78 69 d6 3d 14 41 25 3d
       -0.11486694 0.15009114 0.10469335 0.040345266
000380 12 d2 8f 3d 11 9c 9e 3b 83 bd 31 3e d9 95 91 3d
       0.070224896 0.004840382 0.17357449 0.07108659
000390 78 a3 19 3e e1 da 98 bd bb 0f b3 3d 62 7f b6 3d
       0.15003765 -0.07463623 0.08743235 0.08911015
0003a0 82 54 92 3d b8 f6 48 be 05 d8 95 3d d1 e8 96 3e
       0.07145025 -0.19625366 0.07316593 0.294745
0003b0 65 07 93 3d 0e 1b 38 bc c7 4c 3c 3e 86 9e 01 be
       0.07179145 -0.011236919 0.18388663 -0.12658128
0003c0 4d ac 9b 3d 7a 5b 85 bd db 17 dd bc e2 ac ff bc
       0.07601223 -0.065115884 -0.026988914 -0.031210367
0003d0 a5 1f d2 bb ef 15 52 3b 54 ed 59 bb b6 e8 42 3d
       -0.0064124637 0.003205653 -0.003325303 0.04758521
0003e0 0c 0f 06 3e ce c4 b6 3d 02 36 41 3d 6c 4e e8 3c
       0.13091677 0.08924256 0.047170646 0.028357707
0003f0 c1 65 8c bc 7f 63 b1 3d de d3 11 3d c2 2a 21 3e
       -0.017138364 0.086615555 0.035602443 0.15738967

network_body._body_endoder.seq_layers.2.weight f4 [256, 256]
000000 fc 03 be 3c 0f 4c cf 3d 43 9c 1f 3d 02 58 96 3c
       0.02319526 0.10121929 0.038967382 0.018352512
000010 21 23 3e bc 3c e1 26 be ef 9b 8f be 27 ad 83 bd
       -0.011605055 -0.16296858 -0.28048655 -0.064295106
000020 29 0f 6c 3d ae f2 6b 3c 18 e6 71 be b4 60 c7 bd
       0.057631645 0.014401121 -0.2362293 -0.097352415
000030 2b 2b 0b 3d 8b c7 3d bd cb 60 c3 bd c5 f9 fc bc
       0.033976715 -0.046332877 -0.09539946 -0.030880818
000040 c6 6d 4a bc 64 33 db bd 32 43 bd 3d c5 a5 92 bd
       -0.012355274 -0.10703161 0.09241332 -0.07160524
000050 0c 59 b4 bd 95 cc 3a bd cf 34 2d bc 06 41 6e 3d
       -0.08806047 -0.04560526 -0.010571673 0.05816748
000060 59 ae 62 be fd a5 49 3d 44 b4 38 ba 82 6e 3a bd
       -0.22136821 0.049230564 -0.00070459046 -0.045515545
000070 24 f7 b0 3d 2a ea 3a bd 3c ca a4 3d 88 77 93 bd
       0.08640888 -0.045633473 0.08046386 -0.07200533
000080 87 d1 6f be 72 56 d0 3d b2 2b 9c bc f4 18 9e 3c
       -0.23419772 0.10172738 -0.019063804 0.019299008
000090 d4 60 5e bd 70 c6 75 3b b9 6a f9 bd 2d 35 83 3c
       -0.05429156 0.0037502311 -0.12178559 0.016016567
0000a0 45 8b 5c bd d5 31 9c bc b5 07 82 bc 1d 04 af 3d
       -0.053843755 -0.01906673 -0.015872816 0.085457064
0000b0 6a e5 7e 3e d0 15 b7 bd e8 25 b3 3c ed 13 02 be
       0.24892202 -0.08939707 0.021868661 -0.12702914
0000c0 32 2a 8b bc 00 93 9a be b3 eb f1 3d fa c2 e4 3d
       -0.016987894 -0.30190277 0.11812534 0.11170001
0000d0 27 f2 82 3d 63 99 9c bb 94 c8 99 bd 74 1d 5d bd
       0.06393843 -0.0047790273 -0.0750896 -0.053983167
0000e0 e5 fa cf 3c ab 83 13 3c 9d 0b de bd 15 57 c2 be
       0.02538819 0.00900356 -0.10842059 -0.37957063
0000f0 30 18 d2 3d 09 62 16 3d aa 38 9c 3d 5e b2 3b be
       0.1025852 0.036714587 0.07627995 -0.1832976
000100 20 43 a6 3b 55 05 14 be 6f fa 39 bd 47 8c 85 be
       0.00507392 -0.14455159 -0.045404848 -0.26083586
000110 f8 86 27 bd b2 19 3a be 0e 15 34 bd 47 45 83 3e
       -0.0409002 -0.18173864 -0.04396539 0.25638792
000120 eb 0f 81 be 71 6f 2a bd 29 a8 ae 3b 7e e6 2c 3d
       -0.25207457 -0.041610185 0.005330105 0.042212002
000130 d0 45 54 bc 7a 62 43 be d3 1a 45 be 9e ef 65 3c
       -0.012956098 -0.19080535 -0.19248514 0.01403418
000140 e7 d7 ab 3d d2 5e ab bc b0 73 1e 3a 93 a3 f6 bc
       0.083907895 -0.020919237 0.00060444605 -0.030107295
000150 f0 6b 74 be 04 0f 91 3d 16 aa af 3d d0 21 00 bd
       -0.238693 0.07082942 0.08577363 -0.031282246
000160 0a b6 63 3e 49 94 40 be ed eb 11 3e c1 5b bf bc
       0.22237411 -0.18806566 0.14250155 -0.023359181
000170 a5 44 9c bd e5 89 b8 3d 13 31 9d bd 46 c4 ed bd
       -0.076302804 0.09010676 -0.07675376 -0.11609702
000180 9e 74 3d ba fb 3d 22 3c 8d 84 62 3b 52 20 ac bd
       -0.0007227155 0.009902473 0.003456387 -0.08404602
000190 27 f4 64 3c 28 38 2e 3e b7 cc 46 be 19 2d 1a bc
       0.013974226 0.1701361 -0.1941403 -0.009410166
0001a0 26 8f 48 bd c7 a5 7d be 1b d5 13 3d 7a 8c a8 bc
       -0.048964642 -0.2477027 0.036091905 -0.020574797
0001b0 e7 ee 58 3e 41 9c 9d bd d5 e8 e8 bc 5f ee b3 bd
       0.21184884 -0.07695819 -0.028431335 -0.087857
0001c0 6c da 22 3e 62 d8 88 3d 8d bc e1 3c c7 d9 fb 3d
       0.15903634 0.06681897 0.027555728 0.12297397
0001d0 ea 5a 2e be ca ae 46 3e a7 59 69 be 7b 98 56 3d
       -0.17026868 0.19402614 -0.22788106 0.05239151
0001e0 ae 5d 5c bd 2c 1c 1b 3d a7 7b 1d be 50 e5 f8 bd
       -0.053800277 0.037868664 -0.15379201 -0.12153113
0001f0 ea f6 b8 bd 5e d4 03 be 46 62 f8 3d 43 00 f5 bd
       -0.0903147 -0.1287398 0.12128119 -0.119629405
000200 dc d0 b4 bd 0d ef 16 be 3d 3b 82 bd 22 9b 64 be
       -0.08828899 -0.14739628 -0.06358955 -0.22324803
000210 4c 00 f6 bd d8 51 27 3d ac 7d 04 bd 24 de d1 bd
       -0.120117754 0.040849537 -0.032346413 -0.10247448
000220 79 3f 79 3d 0c 9b 17 be 20 e3 aa 3d 51 c8 a1 bc
       0.060851548 -0.1480524 0.08344102 -0.019748839
000230 df 07 4e 3d c1 c5 1b be a9 16 3e 3d 08 58 5f 3c
       0.050300475 -0.15212156 0.04640833 0.013631828
000240 da 87 96 bd 15 f6 74 3c 80 75 c1 3d 22 c7 8d be
       -0.073501304 0.014951249 0.094462395 -0.2769099
000250 57 d8 9f 3c 46 55 e9 3d 69 82 8a bb 19 90 11 bd
       0.019512339 0.11393218 -0.004226972 -0.035537813
000260 73 38 99 3b 4c f4 29 bc 23 5e 8f be f7 39 31 3d
       0.0046759187 -0.010373186 -0.28001508 0.04326817
000270 77 94 8f 3c f2 1b 6a 3d 5e cf 7d bd 52 56 43 be
       0.017526848 0.057155557 -0.06196534 -0.19075897
000280 3a dd 86 bd 1f 18 22 be 83 fb 5d 3d 46 9f c2 bd
       -0.06585164 -0.15829514 0.05419494 -0.09503035
000290 a0 df 1a 3e eb 95 de 3d b4 0b e9 bc 1d e6 23 be
       0.15124369 0.10868438 -0.028447963 -0.1600575
0002a0 c0 db 2e 3c 25 d3 09 bd e4 29 1b be 82 04 e8 3d
       0.01067251 -0.03364863 -0.15152699 0.11328985
0002b0 14 6f 5c 3d 73 95 c6 3c 59 1f 3a bd 3d ec 36 be
       0.05381687 0.024241185 -0.04544005 -0.17863555
0002c0 27 1d 9c bc a4 d3 8c bb d5 85 8d bd ed 28 70 be
       -0.01905687 -0.0042976905 -0.06910292 -0.23453112
0002d0 52 12 a9 3b a6 d6 8b 3d c6 79 a9 bc f6 79 71 be
       0.0051596547 0.0682805 -0.020687949 -0.2358168
0002e0 62 f6 7e 3e 4d 64 41 3d f6 eb 44 be 43 68 8a 3d
       0.24898675 0.047214795 -0.19230637 0.067581676
0002f0 9f a0 cf bc d6 e3 8f 3d 9c b2 fa bd a5 07 fe bd
       -0.025345145 0.07025878 -0.12241098 -0.12403802
000300 a6 a2 21 be 0f 04 94 3d ef 08 bf bd 81 00 6f bd
       -0.15784702 0.072273366 -0.09327876 -0.05835009
000310 fd a9 3d 3b 2f e2 95 3d 6d 12 5f bd b7 75 43 be
       0.0028940432 0.07318532 -0.05446093 -0.19087873
000320 d1 b3 05 bd d7 da a7 bd 51 88 28 3e a7 12 13 3d
       -0.03264219 -0.08196037 0.1645825 0.03590646
000330 96 04 f3 3b 8f 50 2a bd 94 93 44 bd f3 9c 32 3e
       0.007416318 -0.041580733 -0.047992304 0.17442684
000340 ab d4 aa bc a3 72 ac bc 63 d3 da 3c 28 13 86 bc
       -0.020853361 -0.021050757 0.026712125 -0.016366556
000350 3d 71 f4 bd 44 c7 94 3c a3 e3 9d 3d 26 5e 76 3d
       -0.11935661 0.018161424 0.07709434 0.06014838
000360 73 71 5b be c7 6d 23 be 22 48 7e bd f1 64 69 be
       -0.21429996 -0.15959845 -0.06208051 -0.22792412
000370 75 bf 8b bd 85 d5 8f bd 72 99 c5 3d 13 d9 34 be
       -0.06823627 -0.070231475 0.09648408 -0.17660932
000380 21 d3 15 bc e6 71 5e 3e 2c 8a 07 be a7 41 40 bd
       -0.009144575 0.21723136 -0.13236302 -0.04693761
000390 8c ef 78 bd e5 a0 f0 bd f1 6e 3b 3d 56 d2 a4 3d
       -0.060775325 -0.11749438 0.0457601 0.08047931
0003a0 6e d7 60 be 5e 43 a6 3d b0 14 82 be 0c f7 41 3e
       -0.2195718 0.08118318 -0.25406408 0.18941897
0003b0 bd 60 28 3e b9 0a 26 be 33 78 35 3d 9b 27 a7 3b
       0.16443153 -0.16215028 0.044304084 0.005101157
0003c0 f1 9d bc 3d 02 a1 5f 3d 92 86 30 3e 49 e2 da 3c
       0.092098124 0.05459691 0.17238835 0.02671923
0003d0 67 9e 5e 3c 1c 4b 39 be 61 88 0a 3d 61 57 c5 bd
       0.013587571 -0.18095058 0.033821467 -0.09635807
0003e0 3c 3e 27 bd fa b3 18 be b1 11 a7 be a3 61 45 bd
       -0.040830836 -0.14912406 -0.32630685 -0.048188817
0003f0 9f fe 38 be 94 9e 33 3d b2 9c 28 bd 9e 57 16 3e
       -0.1806588 0.043852404 -0.04116506 0.14681861

network_body._body_endoder.seq_layers.2.bias f4 [256]
000000 e8 60 04 be 3f f1 a5 3d 0f fe bc bc 67 0d 8d 3d
       -0.12927592 0.08102655 -0.023070363 0.06887322
000010 a0 29 23 3c b7 a3 10 bc 5d ca 45 bd fe 04 87 bb
       0.009958655 -0.008828095 -0.04828869 -0.004120468
000020 92 d6 c0 3c b2 a6 d5 bd ac 8e 37 3c b3 7a 52 bd
       0.023539815 -0.10432185 0.011203449 -0.051386546
000030 e8 f1 3a bb 3e da b4 3c 01 f5 fc bd 61 cb 47 bd
       -0.0028525535 0.022076722 -0.12351418 -0.04877794
000040 6f 61 0c be d6 6c 34 bd 8b c2 0b 3d b5 da 25 bd
       -0.13709043 -0.044049107 0.034121078 -0.04049178
000050 71 2a 9c bd 2c 72 bd bd c1 6e 93 bd 97 82 07 be
       -0.076252826 -0.09250292 -0.07198859 -0.1323341
000060 65 1a 22 bd 2f 9c 90 bd 77 8f ad bd 1e ab 25 bd
       -0.039575953 -0.0706104 -0.08474629 -0.040446393
000070 b0 5a 14 bd 5e 0d a8 bd f6 88 98 bd 58 80 2d bc
       -0.0362193 -0.082056746 -0.07447998 -0.010589682
000080 b5 45 e0 bd 31 49 02 3c 12 d2 2e 3c 08 74 64 3c
       -0.109507956 0.0079520205 0.010670202 0.01394368
000090 80 2d 8a 3b bb db f0 bd 03 20 93 bd 42 69 de bd
       0.00421685 -0.1176066 -0.0718384 -0.1085992
0000a0 07 ac 63 3b d3 67 77 3d b7 23 2c 3d a1 05 a2 bd
       0.0034739987 0.06040175 0.042026248 -0.0791123
0000b0 89 51 cc 3c ec dd 79 3c a0 33 57 bd 4d 21 9f bd
       0.024941223 0.015250664 -0.052539468 -0.077700235
0000c0 fc 69 0d 3c 7b 4c 96 3c 50 e0 76 bc 62 10 59 bd
       0.008631226 0.018347016 -0.015068129 -0.05299414
0000d0 54 0d cc bd c2 4e f9 3c 5b 75 26 be 01 89 62 bd
       -0.0996348 0.030433062 -0.16255705 -0.05530644
0000e0 47 4f c6 bd 74 64 a1 bd 7b 64 f4 bd de 40 48 bd
       -0.0968309 -0.07880488 -0.11933228 -0.048889987
0000f0 82 fd 77 bd 8a fd 23 3d 2b 6f 0a bc ac d7 08 3d
       -0.0605445 0.040036716 -0.008449356 0.033408806
000100 55 ab 8f bd 3e c5 17 be 1a 28 92 bd dd 91 1b bd
       -0.07015101 -0.14821336 -0.07136555 -0.037980903
000110 d6 db da bc a6 d3 41 bd 25 af 0b bd 27 31 9c 3d
       -0.026716154 -0.047320984 -0.034102578 0.076265626
000120 61 29 2b bc d1 08 9e 3b ab c0 93 3d 4d ea 6a bc
       -0.010446877 0.0048228283 0.07214483 -0.014338088
000130 50 22 b8 bd 01 2d ab bc 93 d4 1f bd 1a a4 75 3d
       -0.089909196 -0.020895483 -0.039021086 0.059970953
000140 3d 88 89 bd b8 a6 17 3d 42 6d 6c ba 1c 38 e7 bd
       -0.067154385 0.03702423 -0.0009018966 -0.11289999
000150 cf c2 84 bc 96 59 48 3c d7 be 0c bc c9 22 52 3d
       -0.016206173 0.01222839 -0.008590422 0.051302705
000160 1d d2 90 bd ef 4f 44 3d a9 30 85 bd 4b f0 f2 3d
       -0.07071326 0.047927793 -0.06503422 0.118622385
000170 81 db a1 bd 64 da bf bd 24 52 56 3d 46 05 36 bd
       -0.07903195 -0.093678266 0.05232443 -0.044438623
000180 8f db 52 3d 70 49 82 bd aa bb a9 3d 5a bf 8b bd
       0.05147892 -0.06361663 0.08287747 -0.06823607
000190 90 86 b8 bd d3 38 7d 3d 3f 34 00 3d ab b3 e9 bd
       -0.09010041 0.06182177 0.031299826 -0.11411222
0001a0 4c 3c 9b bc 6f 8c b1 bd d6 4d 80 3d 7b 4f 68 bd
       -0.01894965 -0.08669364 0.06264846 -0.056716423
0001b0 dc 56 88 bd 58 9c a7 bd a8 9d 07 bc e5 72 95 3b
       -0.06657192 -0.08184117 -0.008277334 0.0045608156
0001c0 44 c6 62 bd 45 bc 8a bd 29 c3 5f b9 21 4d c4 bd
       -0.055364862 -0.06774191 -0.0002133964 -0.09585024
0001d0 d2 e2 b0 bc 10 9a f3 bc 2c 1a a2 bc 42 9a 00 bd
       -0.021592531 -0.029736549 -0.01978787 -0.03139711
0001e0 49 2a 28 bd 81 47 c1 bd f7 9f b8 bd 06 d5 af 3b
       -0.04105595 -0.094374664 -0.09014886 0.0053659705
0001f0 20 61 ab 3c 01 aa 32 3c ec 49 3c bd f6 48 e7 bb
       0.020920336 0.01090479 -0.045968935 -0.007058258
000200 ab e0 3f bc 73 b5 7e bc d1 fd 67 bb 19 a2 12 bd
       -0.01171128 -0.015546191 -0.003539909 -0.03579912
000210 5e 1f b3 bd 14 d2 bf bd 84 82 b2 3a 2e 44 b4 bc
       -0.08746217 -0.09366241 0.0013619219 -0.022005167
000220 af d6 86 3d 01 10 bd bc 51 17 4b bb e4 36 5f bc
       0.065839164 -0.02307892 -0.003098924 -0.013623927
000230 9b 39 c4 bb 8e b5 c5 bd 01 98 e0 bd 30 89 8e bc
       -0.0059883124 -0.096537694 -0.109664924 -0.0173994
000240 2d e1 5a bd c8 58 79 3d b5 b0 fc bc 84 99 b4 bd
       -0.0534374 0.060875684 -0.03084598 -0.08818343
000250 5d 3d 23 3c 96 92 ff bd 73 ba 01 bd f8 d4 a1 bd
       0.009963361 -0.12479131 -0.031671952 -0.07901949
000260 cd 8d d5 bc e7 83 c3 bd 4c 05 83 bd ff d8 9f 3d
       -0.026068592 -0.09546643 -0.06397495 0.078050606
000270 3a 12 f6 3d e7 9d 16 be 7f 84 1b bd 58 e5 df bb
       0.12015195 -0.14708672 -0.037968155 -0.00683276
000280 55 ca 28 3d 67 b6 a1 bd 72 56 10 bd 57 f3 fc bd
       0.041208584 -0.078961186 -0.03523869 -0.12351101
000290 58 27 25 bd f4 71 e2 bc f3 e0 43 bd 76 e7 29 bd
       -0.040320724 -0.027642228 -0.04782195 -0.041480504
0002a0 f3 db 8a 3d 8f 25 bb bd be c5 69 3d dc d1 3f bc
       0.06780233 -0.09138023 0.057073347 -0.011707749
0002b0 cb 85 a7 bd 3b ab 51 bd 98 35 ce bc 02 3d ac bd
       -0.08179816 -0.05118869 -0.02517204 -0.08410074
0002c0 10 15 28 bc 35 13 13 bd c1 09 4e 3d a9 ba 12 be
       -0.010258928 -0.03590699 0.05030227 -0.14329018
0002d0 26 d2 0d be 9c dd e4 bc 23 4d 9a bb d1 c1 c7 bc
       -0.13849697 -0.027937703 -0.0047089024 -0.024384411
0002e0 ac e3 04 3d f0 25 b6 bd e5 aa f0 3c 36 c6 13 3d
       0.032443687 -0.08893955 0.029378364 0.0360777
0002f0 91 3d 86 bd fa 02 42 3d 58 63 05 bc cd 4e 97 bd
       -0.065547116 0.04736612 -0.008141361 -0.07388077
000300 4c 92 94 bd 4a 47 4a bb 3d 2b d3 bd 30 b0 19 3d
       -0.072544664 -0.0030865245 -0.103109814 0.03752154
000310 f0 5b a6 bd 96 99 cb bd 36 6b 17 be 7b 2c 11 3e
       -0.081230044 -0.099414036 -0.14786991 0.14177124
000320 00 9e 04 bd b4 31 04 be fd 68 ac 3c c9 40 ad bc
       -0.032377243 -0.12909585 0.021046156 -0.021149056
000330 62 3b 4b 3c 8b 37 aa 3d 38 7e ca bd af f2 d8 3d
       0.012404295 0.08311375 -0.098873556 0.10593163
000340 a1 76 2d bd 36 1d d3 bd 3f 83 2d bd 56 4c 57 bc
       -0.04234946 -0.10308306 -0.042361494 -0.0131407585
000350 16 6d cd bc ac 28 3b bd 6a ff d4 bc e8 0a ff bd
       -0.02507643 -0.045693085 -0.026000697 -0.12453252
000360 cf 72 6e bd fa 82 3a be 14 c4 2a 3c d0 64 00 be
       -0.05821496 -0.18214026 0.010422725 -0.12538457
000370 8b e0 24 3d 70 0e 7f bd 94 fa bf bd 6f 0d 0a 3d
       0.040253203 -0.062269628 -0.09373966 0.033704218
000380 80 50 a0 bd a4 e0 11 3c 5f 7b 9d 3c c4 12 bd 39
       -0.07827854 0.008903656 0.019223867 0.0003606287
000390 e0 7e 69 bd 20 b0 60 3d fd b3 56 bd 2a df 25 3d
       -0.057005763 0.054855466 -0.052417744 0.04049603
0003a0 6c e9 6f 3d fb 45 88 3d 66 19 5b bc 3f d9 13 bb
       0.058572218 0.06653973 -0.013372755 -0.0022559909
0003b0 03 19 2b 3d 2b 38 8c bd b0 f9 88 bc cb ad b7 3c
       0.0417719 -0.06846651 -0.016720623 0.022421738
0003c0 aa b0 8d bd 7c a3 03 bc 18 81 98 bd e4 c2 48 3d
       -0.069184616 -0.008034583 -0.07446498 0.049013987
0003d0 10 b2 a6 bd 66 ed 6b bc 1a 18 2d bd 40 81 e8 bd
       -0.081394315 -0.014399862 -0.042259313 -0.113527775
0003e0 21 11 2c bd 8e 28 6c bd d2 15 80 bd 9b 5f 12 bd
       -0.042008523 -0.057655863 -0.06254162 -0.035735708
0003f0 cb fc 12 bd 46 e1 99 bd 27 23 52 bd ee 2b 31 bd
       -0.035885613 -0.075136706 -0.051303055 -0.043254785

action_model._discrete_distribution.branches.0.weight f4 [5, 256]
000000 55 1c 6d bc 5c 61 b1 3d 1d b7 1a 3e 43 ae 53 3d
       -0.014472087 0.08661148 0.15108915 0.05167986
000010 b9 e0 7d 3b d6 8f c4 3d 64 10 12 3e d4 ef 7a 3d
       0.0038738681 0.09597747 0.14264065 0.061263874
000020 f0 73 ca bc b6 bc e3 bc 71 33 d0 3d a8 0a d9 3c
       -0.024713486 -0.027799945 0.10166062 0.02649434
000030 98 35 69 3d 6d 79 11 3e a6 93 bd 3d ac aa 05 3d
       0.056935877 0.14206477 0.09256677 0.03263347
000040 30 b9 e8 3d 6a ac 0f 3e 52 4a a0 bd f0 b1 df 3c
       0.11363447 0.14030614 -0.078266755 0.027306527
000050 4d 04 8a bd 90 7d 5a bd 47 00 58 3e 45 33 64 bc
       -0.067391016 -0.053342402 0.21093856 -0.013928239
000060 e8 46 38 3e 56 8b 1b 3d d6 a2 db bd 3a 22 5b bc
       0.17995799 0.037974678 -0.10724418 -0.0133748595
000070 ba 68 a9 3c 79 bc a8 3d 84 42 b3 3d f3 ef 4a bb
       0.02067982 0.08239073 0.08752921 -0.0030965775
000080 11 fb 28 bd c3 84 ce bd 2e 15 29 3e f3 07 31 bd
       -0.04125506 -0.10083916 0.16511986 -0.04322047
000090 32 aa e0 3c 5e 8a 00 3e bc 21 8d 3e 8e 34 cf 3c
       0.027424905 0.12552783 0.275648 0.025293615
0000a0 c9 90 e6 3c 89 92 04 3e 92 2c ff 3d cd d5 67 3d
       0.02814521 0.12946524 0.12459673 0.05660038
0000b0 5f 8d 89 3c a8 9b da 3c 61 65 2c bd 3a cc b3 3d
       0.016791044 0.02668555 -0.04208887 0.087791875
0000c0 51 e0 33 3d f1 f5 d1 bd bf 9e 0b 3d db 58 00 be
       0.043915097 -0.10251988 0.03408694 -0.12533896
0000d0 1b cc 2d bb 8d 8f 90 3c ce 19 9c bd 7a fd 61 3d
       -0.0026519361 0.017646575 -0.07622109 0.055173375
0000e0 b1 a3 18 3d 40 c8 7a 3d 6f 33 11 be 28 e2 da 3c
       0.037265483 0.06122613 -0.14179777 0.026719168
0000f0 47 e2 5a 3e 0a f2 e9 3b 6d 7e 87 3e 3e 9c 70 bd
       0.2137538 0.007139449 0.26463643 -0.058742754
000100 b2 46 98 3d 40 a3 13 3e ac 1a 00 3d 41 63 57 bd
       0.07435359 0.14417744 0.031275436 -0.05258489
000110 20 bc ed 3d ba 2a 2f 3e 7f 3b 07 3e 1f 7c 6f 3d
       0.116081476 0.17106143 0.1320629 0.05846798
000120 98 83 ef 3d d3 04 70 bc 89 15 ab 3d 83 08 30 3e
       0.116950214 -0.014649588 0.08353717 0.17190747
000130 23 e7 fe 3c 19 5e 39 bd fb 61 ce 3d cd 29 1c 3e
       0.031116074 -0.045255754 0.10077282 0.1525032
000140 98 15 d6 bd 06 89 a8 3d d0 01 0a 3c cb 51 a5 3d
       -0.104533374 0.0822926 0.008423284 0.080722414
000150 f9 ea 3b 3e 02 2f fd 3d 80 1a 32 3e f5 65 36 be
       0.18351354 0.12362482 0.17392921 -0.17812331
000160 3e cc bf bd 5c 50 e7 bc 6c 3a 1a 3e f4 95 03 3e
       -0.09365128 -0.02823656 0.15061349 0.12850171
000170 95 1b e6 3d 40 1f 50 3e 79 7a bc bd 8c 9c da bd
       0.112357296 0.20324421 -0.09203047 -0.1067439
000180 cc e9 19 3e 97 1f 81 3e a0 22 fe 3b f3 c5 53 3a
       0.15030593 0.25219414 0.0077555925 0.0008078508
000190 14 e2 de 3d 47 57 e9 3d 42 a1 08 3e 33 78 99 3d
       0.10882965 0.113936 0.13342765 0.07493629
0001a0 b2 d3 11 bd d7 e4 ea 3d 26 47 c1 3d ce 98 5f 3b
       -0.03560228 0.11469429 0.094373986 0.0034118178
0001b0 10 fe 2c bb 6c 57 8a 3e fd 3c ab 3d 07 40 19 3e
       -0.002639655 0.27019823 0.08361242 0.1496583
0001c0 60 c5 9b 3d 4e 4c f1 3d 51 a6 78 bb 42 04 bf 3b
       0.07606006 0.11782132 -0.003794093 0.005829365
0001d0 6c b8 a3 3d 53 84 15 3e 86 f8 df bd 4e cf 05 3e
       0.0799416 0.14601259 -0.10936074 0.13067362
0001e0 72 9f 12 3e 34 bd 91 3d aa ef 54 3c 68 a7 52 3e
       0.14318636 0.07116166 0.0129965935 0.20571673
0001f0 41 ce ec 3d 8f 02 dd bd 3b fd a2 bb 0c 40 1c 3d
       0.11562777 -0.10791504 -0.004974035 0.038147017
000200 33 77 1c bb fb 17 47 bc b5 7b 65 3e 58 70 de 3d
       -0.002387476 -0.0121517135 0.22410472 0.108612716
000210 15 4d e9 3c fa d4 88 bd 3e 6f 0d 3b d2 72 b6 3d
       0.028479138 -0.06681247 0.0021581198 0.08908619
000220 b0 1c 33 bd 92 64 0e 3d 5f b0 0d 3e 79 5c d2 bc
       -0.04372853 0.03476388 0.13836811 -0.02567886
000230 7e aa fe 3b e4 db 0b 3d 0e 9c 69 3e 86 19 b2 bd
       0.007771789 0.03414525 0.22813436 -0.086962745
000240 1a 22 3f 3e 91 a9 23 3d 21 34 61 3c 39 af 81 3c
       0.18665352 0.039956633 0.013745339 0.015830623
000250 47 a2 8a bd 99 3f 89 3d 1c c4 4e 3e d1 a3 3e 3c
       -0.06769233 0.067015834 0.20191997 0.011635737
000260 a5 a9 d4 3d ed 4b 42 bb 0c 70 04 3e 6f 7f f8 3d
       0.103839196 -0.0029647306 0.12933367 0.12133681
000270 3d d0 08 bd 69 79 08 be b7 64 08 be a9 47 35 3d
       -0.033401717 -0.13327564 -0.1331967 0.044257794
000280 55 19 11 bc 7c a4 4f 3d 79 b3 0e be 89 98 13 ba
       -0.008856137 0.050693974 -0.13935651 -0.00056303345
000290 34 14 61 bd 32 b4 25 3e b0 9b e0 3d 3f 0e 1e be
       -0.054950908 0.1618202 0.10967195 -0.15435122
0002a0 eb 34 de bd 2e 06 45 3e 15 13 95 bc 79 43 07 3e
       -0.10849937 0.19240639 -0.018197576 0.13209333
0002b0 49 74 89 3d d8 aa 63 3e 47 8b f9 3c 2b 4c 04 be
       0.06711633 0.2223314 0.03046192 -0.12919681
0002c0 f6 9a ff 3c 69 b8 01 3d fc 66 4b 3c 86 21 97 3d
       0.03120182 0.031670008 0.01241469 0.07379441
0002d0 09 0d dd 3d da 09 85 3c 65 f6 2b 3d 57 4f 01 bd
       0.10793502 0.01624005 0.041983027 -0.031569805
0002e0 e9 21 04 3e 7a f5 c4 bc ac 5e 1b be 78 2a ad 3d
       0.1290356 -0.024042834 -0.15172833 0.08455366
0002f0 ff c2 83 3c 58 87 d8 3b 92 84 a3 bc 6f 89 9b 3d
       0.016084192 0.006607931 -0.019960675 0.07594573
000300 80 f1 7b 3d f7 2b 96 bd ea be d7 3d 78 ca 9e 3d
       0.06150961 -0.073326044 0.10534461 0.077534616
000310 e4 bf 26 bd 76 2c d1 bd 51 db 0c 3e 73 9f 6d bd
       -0.040710345 -0.102135584 0.13755538 -0.05801339
000320 78 6c 06 3e bc 70 11 3c 25 db 59 3d 84 d5 04 3e
       0.13127315 0.008876976 0.053187508 0.12972075
000330 b5 60 4c 3d 00 8c 71 bd d8 7c e0 bc a1 cf 91 bb
       0.049896915 -0.058971405 -0.02740328 -0.0044498
000340 c7 72 a1 3c 4a dd f7 3d 78 a7 00 3e 4a c9 ab bb
       0.01970805 0.121027544 0.12563884 -0.0052425014
000350 2f 9c 92 3d 47 1a 56 3d ea ec cd 3d 44 78 fa bc
       0.07158696 0.052271154 0.100549534 -0.030574925
000360 82 4d 28 3e 3a fb 86 bd c6 b3 1b 3e 13 6d 9f bd
       0.16435817 -0.065908864 0.15205297 -0.07784476
000370 02 fa de 3c c6 c2 28 bc 25 57 a1 bc 57 55 7e bd
       0.027218822 -0.010300344 -0.019694874 -0.062093105
000380 30 86 56 3e 8a a2 94 3d 57 1a 45 3e 22 9b 15 3e
       0.20949626 0.07257564 0.19248329 0.1460996
000390 3a bb 8c 3d e7 3f 13 bd 6d 8c d3 3c fb cd 6a 3c
       0.06871648 -0.035949614 0.025823796 0.014331336
0003a0 35 62 fb 3d 84 20 17 3d cc 70 0f 3e d5 52 89 3a
       0.12274591 0.036896244 0.14007872 0.0010476956
0003b0 9c 95 60 3c 84 48 52 3d 80 11 03 3e ac 02 ec 3c
       0.013707545 0.051338688 0.12799644 0.028809868
0003c0 fb 70 fd bc d8 aa c2 3d 7c 46 26 be 8c c1 40 3d
       -0.030937662 0.09505242 -0.16237825 0.04705958
0003d0 e6 d9 49 3d 43 f1 28 3e 2d bc bd 3d 71 d9 5c 3d
       0.04928007 0.16498284 0.09264407 0.053918306
0003e0 65 ee 5e 3d a3 98 07 3e 38 ec a6 3d 96 b5 94 3d
       0.05442657 0.1324182 0.08150524 0.07261197
0003f0 73 1e fc 3c b0 90 88 bd 78 b0 8f 3d ae b3 82 bd
       0.030776238 -0.06668222 0.070160806 -0.063819274

action_model._discrete_distribution.branches.0.bias f4 [5]
000000 6f 6d b6 3c 53 c4 db be 09 36 81 bb 9a 9c 18 3e
       0.022268979 -0.4292322 -0.003943209 0.14903489
000010 27 58 77 3e
       0.24154721

action_model._discrete_distribution.branches.1.weight f4 [2, 256]
000000 40 61 f7 3d 87 6b fc 3c c8 e3 c8 3c d1 97 64 bc
       0.12079096 0.030812992 0.024522677 -0.0139522115
000010 c3 77 67 3e ca 0b 3c bb 7f 59 87 3c 22 b4 1f 3d
       0.22604279 -0.002869355 0.016522167 0.038990147
000020 c4 31 0d 3d b1 7d 6f bd 9f b5 af bd 11 b5 37 3c
       0.03447129 -0.058469478 -0.08579563 0.011212603
000030 b4 a8 0e ba 92 38 3a be f5 a5 e4 3d f4 d6 52 be
       -0.0005442009 -0.18185642 0.11164466 -0.2058981
000040 92 35 ba 3e e9 76 35 3d b4 f1 32 3e 8a 94 84 bd
       0.36368996 0.044302855 0.17475015 -0.06473644
000050 fc 3c 70 bd 73 85 dc 3d 8d af b4 3d 4f 62 2a 3d
       -0.05865191 0.10767641 0.08822546 0.04159766
000060 65 a9 92 bb 27 31 d4 bc 3a 44 0f bc 12 6e 7b 3d
       -0.00447576 -0.025902344 -0.008744294 0.061384268
000070 07 a0 3f bd cc 95 5c 3d 3d 11 20 be 5b 59 30 bd
       -0.046783473 0.053853795 -0.15631576 -0.043053966
000080 23 3d 52 be 8b c9 6f be 3a dc 95 bd e6 67 12 be
       -0.20531134 -0.23416726 -0.073173955 -0.14297447
000090 b1 5e f1 bc d3 f3 59 bd 15 e8 92 3d 48 66 5d bb
       -0.029464098 -0.053211045 0.071731724 -0.0033782888
0000a0 79 e0 83 3e c4 6e e1 3c 57 79 52 bb f1 a6 2d be
       0.25757197 0.027518637 -0.0032115781 -0.16958214
0000b0 71 81 27 3e 65 a6 ba 3d 38 99 e3 3d 72 b6 27 3e
       0.16357972 0.091137685 0.111132085 0.16378191
0000c0 6f 22 97 bc c2 38 dc bd 55 cb 54 3e 4c 03 b9 3d
       -0.018449036 -0.10753013 0.2078069 0.09033832
0000d0 44 81 9f 3c dd b8 06 bd 6b 51 f1 bb 05 bd b8 bd
       0.019470818 -0.032891143 -0.007364442 -0.090204276
0000e0 57 eb 0b 3e 9f d5 c0 bb 2e 4f b8 bc 23 f3 e2 3c
       0.13663994 -0.0058848406 -0.022498693 0.027703827
0000f0 df 35 d8 3c e5 a2 6e be 99 0c c7 3d d4 1a 9c bc
       0.026392875 -0.23304327 0.097192 -0.019055761
000100 73 05 0f bc 2e 76 10 3e 7a 82 fb 3b 9c a8 d6 3c
       -0.008729327 0.14107582 0.007675466 0.026203446
000110 8e 8d 32 3d cc 0a 9e bd 5f 70 b4 3c 7b 7e 7f 3d
       0.04359203 -0.07716903 0.022026239 0.06237648
000120 b4 e9 39 3d 70 45 c1 bc 06 b7 3e 3c 6f fa d5 ba
       0.045388892 -0.02359268 0.011640316 -0.0016325245
000130 9b 80 0b 3e 31 51 a6 bd a1 e2 a7 3e dd f9 16 be
       0.13623278 -0.08120955 0.32790092 -0.14743753
000140 01 d3 7f bd 05 db 80 3d 14 97 80 3d 84 19 0f be
       -0.06245709 0.06291775 0.06278816 -0.13974577
000150 93 bf 42 bd 9a b9 d0 bc 68 f4 8e 3d 02 52 28 3d
       -0.04754598 -0.025479127 0.069802105 0.041093834
000160 b4 3c ac 3a 1e 3b 92 bd 4e 33 85 be 2e 4b 29 3c
       0.001314065 -0.07140182 -0.26015705 0.010332866
000170 7b 10 87 3b 47 59 d0 3c b3 13 6c bc 17 cf 98 3d
       0.0041218377 0.025433196 -0.014408994 0.07461374
000180 72 78 ab 3d 5c ba c4 3c d8 82 dc bc e6 8a be 3d
       0.083725825 0.024014644 -0.02691786 0.093038365
000190 a5 ee 8e bd 01 a8 f9 3c a9 77 c5 3c dc 07 46 bd
       -0.069791116 0.030475618 0.02410491 -0.04834734
0001a0 e6 08 cd 3d 2e 84 9a bc ec 7a 00 3c 50 f9 3b 3d
       0.10011463 -0.018861856 0.007841807 0.04589206
0001b0 ea f5 06 bd b0 84 89 3c 56 79 ff 3d 36 7e a8 bc
       -0.032949366 0.016786903 0.12474315 -0.020567995
0001c0 3c 4a 83 bc 26 e3 4c 3d cb 13 56 bd 2c 81 eb 3c
       -0.016026609 0.050021313 -0.05226497 0.028748117
0001d0 72 5c 19 bd ea 6a 15 39 3a 61 cc bd 17 9a a1 be
       -0.03744168 0.00014249576 -0.09979482 -0.31562874
0001e0 15 6c 43 3d 19 04 11 3e 17 e7 64 3e 16 7d 7e bc
       0.047710497 0.1416172 0.22353779 -0.0155327525
0001f0 50 ed 66 bd db 8a 23 3d f9 cd 5d bd cc 99 80 3c
       -0.056378663 0.039927345 -0.05415151 0.015698336
000200 09 e8 99 bc 53 e5 b5 3d ae 76 a6 bd 26 6e f8 3d
       -0.0187874 0.08881631 -0.08128105 0.12130384
000210 3e c6 07 3d fe c6 b3 3d 57 ba fe 3c cd e4 86 3d
       0.033148043 0.08778189 0.031094713 0.06586609
000220 4f a9 f7 3b 49 c5 11 be b7 26 82 bd 34 a2 1d be
       0.007558025 -0.14235415 -0.063550405 -0.15393907
000230 1d 33 42 bd f5 b8 8f 3d 42 3b 47 bd 6b 99 ef bc
       -0.047412027 0.070177 -0.048640497 -0.02924796
000240 11 2c f9 3b db 18 af bd a8 51 6f bd 75 3d da ba
       0.00760413 -0.08549663 -0.058427483 -0.0016650396
000250 59 19 d6 3d 76 41 b2 bd 8d 5c f7 bc 28 63 e3 3d
       0.104540534 -0.08703892 -0.030195499 0.11102897
000260 73 2b 14 bd 71 25 cf 3d e7 95 bc 3c d0 7f 1f 3d
       -0.03617425 0.10114563 0.023020698 0.03894025
000270 00 da 84 bd 17 2d b0 3c 81 fd db 3d 00 30 88 3d
       -0.06486893 0.021505876 0.107417114 0.0664978
000280 ad b0 4f bd 71 04 b5 be 67 72 fc 3b f7 80 4c 3d
       -0.0507056 -0.3535495 0.0077040675 0.049927678
000290 f3 3f ad bc 71 fb 94 be f0 ee d1 3d 88 26 d3 3c
       -0.021148657 -0.29098085 0.10250652 0.02577521
0002a0 e8 e5 35 bd 8c 70 1b be 09 0e d9 bc 83 f8 61 3d
       -0.04440871 -0.15179652 -0.02649595 0.05516864
0002b0 1b 83 32 3d 86 df be bd 28 1f 27 3d 65 9d bd bc
       0.043582063 -0.093199775 0.040801197 -0.02314634
0002c0 5b 46 1c bd b9 51 e7 3d d9 6f da bd 6a 16 d4 bc
       -0.038153034 0.11294884 -0.106658645 -0.025889594
0002d0 a2 62 4b bc 2a bb 9c bd 9e 3b 9d 3c 7d b7 f2 3d
       -0.012413653 -0.07652886 0.019193467 0.11851404
0002e0 82 9e b9 3c ed cc dd 3d 42 11 87 3d 7b eb 23 3e
       0.02265859 0.10830102 0.065950885 0.16007797
0002f0 e6 31 0b bc 67 f6 98 bd 6e a0 1c 3e 15 a9 f4 3d
       -0.008495783 -0.074688725 0.15295574 0.11946312
000300 4b 61 5a bb bf ff 10 bd 50 c9 fe 3d 62 1a 82 3d
       -0.0033322151 -0.03540015 0.12440741 0.06352688
000310 be 7a a5 3c 28 11 31 be 96 79 d6 bd 25 b9 0f 3e
       0.02020013 -0.17291701 -0.104724094 0.14035471
000320 3c d1 dc 3d c4 ed 1c bc 35 81 88 bd cd 77 db 3b
       0.10782096 -0.009578172 -0.06665269 0.006697631
000330 cd cd 5e 3d 9d 3d 01 3d 32 31 c0 bc 64 91 2d bd
       0.054395486 0.0315529 -0.023460958 -0.042374983
000340 4c 89 65 3e cd 9c 68 3d de b3 b5 bd 5c 82 54 3e
       0.22415656 0.056790162 -0.088721976 0.20752853
000350 ea 09 06 bd b1 d8 14 3c 83 5e 1b 3d 37 bd ad bc
       -0.0327243 0.009084866 0.03793193 -0.021208389
000360 ca b1 9b bd 48 6c 87 bc 73 10 fc 3d 30 24 95 bc
       -0.0760227 -0.016531125 0.12307825 -0.018205732
000370 66 99 bf 3b 4c d2 37 3e 15 86 cc bc 99 10 83 bc
       0.005847144 0.17951316 -0.024966279 -0.015999125
000380 5e 00 8c 3c fb b7 d2 3d 3b 29 1f 3b 07 e6 cb bd
       0.017090019 0.10288998 0.002428605 -0.099559836
000390 a9 a9 35 3e db e6 07 bd 9d 92 b3 bd 1f 4b 24 3e
       0.17740501 -0.033179145 -0.08768199 0.16044281
0003a0 7e 46 72 bd f0 cc 61 3c 1b c1 5b bd cb 07 4c bd
       -0.059149258 0.013781771 -0.053650957 -0.04981212
0003b0 48 d3 8d 3d 47 16 91 bc ca ce f9 bc 26 c4 5e bd
       0.06925064 -0.017710818 -0.030494113 -0.05438628
0003c0 f6 2c 76 3d 84 ad 1a be 2d 16 07 bd 61 fe 46 3d
       0.06010147 -0.15105253 -0.032980133 0.04858244
0003d0 61 46 a2 3b 2f a2 89 3d b0 ab 99 bd 24 7b f2 3d
       0.0049522375 0.06720387 -0.0750345 0.118398935
0003e0 c8 56 b6 bb dc 2f 12 3e b8 c0 98 bd 10 de d8 bc
       -0.0055645443 0.1427607 -0.07458633 -0.026473075
0003f0 77 fc 7a bd 87 d6 12 bc cc 8d fa 3d 9e f2 01 3e
       -0.061275925 -0.00896228 0.12234077 0.12690207

action_model._discrete_distribution.branches.1.bias f4 [2]
000000 f4 6e 99 bd f7 6e 99 3d
       -0.07491866 0.07491868
