Assets/ML-Agents/Models/BattleSystem_poca 4.onnx (onnx, 377373 bytes, 20 tensors)

discrete_act_size_vector f4 [1, 7]
000000 00 00 a0 40 00 00 00 40 00 00 e0 40 00 00 60 41
       5.0 2.0 7.0 14.0
000010 00 00 80 3f 00 00 80 40 00 00 80 40
       1.0 4.0 4.0

network_body.observation_encoder.processors.0.normalizer.running_mean f4 [54]
000000 b1 60 58 3f 7d e9 31 3f a8 81 4a 3f 72 5b 51 3f
       0.8452254 0.694969 0.7910409 0.8178016
000010 fa 71 4e 3f 2c 9e 41 3f eb 87 2d 3f bd e2 24 3f
       0.80642664 0.75631976 0.6778552 0.64408475
000020 6a 27 64 43 d5 f9 86 43 50 43 6e 43 3b f3 61 43
       228.15396 269.9518 238.26294 225.95012
000030 a9 f2 f9 42 92 d8 3c 43 53 1e 5d 43 08 ef 8d 43
       124.973946 188.84598 221.11845 283.86743
000040 16 b3 7f 43 1b 58 85 43 93 bc 8d 43 67 b1 86 43
       255.69955 266.68832 283.47324 269.38596
000050 5d b9 74 43 74 da 47 43 a3 90 8a 43 d9 4d 68 43
       244.72408 199.85333 277.12997 232.3041
000060 4d b8 33 43 a4 23 f3 42 29 63 01 43 af b7 f3 42
       179.71992 121.56961 129.38734 121.85876
000070 0e 88 0d 3d e8 ef 28 3d e4 c2 79 3d 99 5f b7 3d
       0.03455358 0.041244417 0.060976878 0.08953781
000080 fb 98 d5 3c 73 10 17 3d dd c0 00 3d e7 ce 0b 3d
       0.026073923 0.03688092 0.03143393 0.034132864
000090 de 7a 34 3d 35 7b 22 3d 1a 4e 1f 3d d8 6b 66 3d
       0.044062488 0.03966828 0.038892843 0.05625519
0000a0 30 f9 80 3d 13 d6 82 3d 55 b6 b2 3d d6 1f b5 3d
       0.06297529 0.06388488 0.08726183 0.08843963
0000b0 56 57 bd 3d 0f 08 d3 3c a9 df d1 3c 10 73 ce 3c
       0.09245174 0.025760679 0.025619345 0.02520135
0000c0 8e 72 aa bf 8e c3 33 be 04 90 10 bf 94 7c f7 be
       -1.3316209 -0.17555067 -0.5646975 -0.48337233
0000d0 2d b1 39 be 00 00 00 00
       -0.18133993 0.0

network_body._body_endoder.seq_layers.0.weight f4 [256, 54]
000000 6c 09 83 bd c7 06 82 3c 7a 12 10 3e a5 fb d1 bc
       -0.063982815 0.015872372 0.14069548 -0.025632689
000010 88 8f cd bd 14 80 25 be b5 2c 80 3d 84 84 db bc
       -0.10037142 -0.16162139 0.06258527 -0.026796587
000020 2f bf a9 bc 9c ef 88 bc a6 39 94 3e 9d 6c 35 bc
       -0.020721046 -0.016715817 0.28950232 -0.011073259
000030 df 5f 21 3e e9 6b a6 3d 73 28 c2 3d 91 e8 70 3e
       0.15759228 0.08126051 0.09480371 0.23526217
000040 68 84 ae 3d b7 45 ba bd 97 d2 97 bd dd 4b 06 3e
       0.08521348 -0.09095328 -0.07413214 0.13114877
000050 e1 f6 cb bd 00 60 29 3e ad 7b 51 bd c1 d5 a5 bb
       -0.09959198 0.16540527 -0.051143337 -0.005060882
000060 c7 62 47 be e2 03 ad bd 46 41 59 be 40 96 59 3e
       -0.19471274 -0.08448006 -0.21216306 0.21248722
000070 8e ef 1a be 5b 69 3b be 89 6f 98 3d af 9e 30 3e
       -0.15130445 -0.18301909 0.07443149 0.17248033
000080 d8 74 3e 3d 8c 15 8f 3e 4a d9 cd 3d c9 54 31 3e
       0.04649815 0.27946126 0.1005121 0.17317499
000090 0b 26 73 3e 85 dc f3 3b d6 5b 82 bd af cb 72 3e
       0.23744981 0.0074420595 -0.063651726 0.23710512
0000a0 69 d6 73 bc db 7a c1 bd d2 67 4e 3e 9c 66 46 be
       -0.014882662 -0.09447261 0.20156792 -0.1937508
0000b0 0c 35 12 bd 97 6b 48 3e c8 ff c9 bd 9a 3c da bd
       -0.03569512 0.19572292 -0.098632395 -0.1065609
0000c0 4a 6a 85 3e bb 97 a1 3e 61 00 17 3e 4e 47 0d 3e
       0.26057655 0.31561074 0.14746238 0.13796732
0000d0 00 1a 01 bc 69 dd ac 3d e4 ab 5d 3d b4 3a 10 be
       -0.007879734 0.08440668 0.054119006 -0.14084893
0000e0 f4 32 9d 3d cd 25 ba bc 3d dd 48 3e 6a e6 5c 3e
       0.07675734 -0.022723103 0.19615646 0.21572271
0000f0 05 ac 29 3d ea 49 62 be e0 d4 63 3e 90 b4 8a bd
       0.041423816 -0.22098508 0.22249174 -0.06772721
000100 8f 18 a0 bd 93 67 0c 3e ba 90 5b be d1 ab 4d 3e
       -0.07817184 0.13711385 -0.21441928 0.20085074
000110 16 a0 30 be 20 bf 5c be 72 f5 0b be 2f 3e 19 bd
       -0.17248568 -0.21557283 -0.13667849 -0.03741282
000120 dc d7 a4 3e d0 de 0e 3e 70 8d 8b bc 2e 3e 17 be
       0.32195938 0.13952184 -0.017035216 -0.14769813
000130 6d ff 0e bd 09 da 97 bd a1 dc 58 be 69 bb c3 bd
       -0.03491156 -0.07414634 -0.21177913 -0.0955723
000140 8d 89 7a 3c 10 33 4b 3e dc 3d e6 bd 17 eb 9d 3d
       0.015291584 0.19843698 -0.112422675 0.077108555
000150 56 60 8b 3d a1 40 b5 3e d6 b6 8c 3c 0a d7 0d 3d
       0.06805484 0.3540087 0.017177027 0.034628905
000160 fa 7f 32 bc 95 15 2d be 32 4b d4 3c 4c 70 90 be
       -0.01089477 -0.16902764 0.025914762 -0.28210676
000170 f6 8d 01 3e cb b7 c8 bd 76 7b 69 be d1 31 ae 3c
       0.1265181 -0.09800681 -0.22801003 0.021263989
000180 06 3e 47 3e 98 fe d4 bd c6 d2 3f 3d 86 33 c3 bd
       0.19457254 -0.104001224 0.04683187 -0.09531312
000190 d6 07 c9 bd 32 42 12 be be 8c 19 3e b0 e0 b6 3d
       -0.09815948 -0.14283064 0.14995095 0.089295745
0001a0 dc e5 07 be b3 b1 8f 3e 0a a9 b3 3d 35 40 d9 3d
       -0.13271278 0.2806526 0.08772476 0.1060795
0001b0 07 84 a5 3e 6c 68 2e bd 90 f2 26 3c d6 78 fc bc
       0.3232729 -0.042580053 0.010189667 -0.030819338
0001c0 64 6d 04 3d bc 97 08 3e f9 18 99 3d 7e 79 4a 3d
       0.032330886 0.13339132 0.07475466 0.04943227
0001d0 e5 3e f8 3d df 8d 27 3e fd c5 46 3d 13 84 6a bd
       0.12121371 0.16362713 0.04852866 -0.057254862
0001e0 45 94 57 be 0e b8 de bd d3 ac 8c 3e 2e 05 30 3d
       -0.21052654 -0.108749494 0.27475604 0.04297369
0001f0 06 63 d1 bd b2 dd 58 3e 4e d7 a7 3d 04 db b7 bd
       -0.10223965 0.2117832 0.08195363 -0.08977321
000200 4e 1c bb 3d 44 ca 07 3e 22 87 7f be 66 74 30 3b
       0.09136258 0.13260752 -0.24953893 0.0026924848
000210 60 a3 24 3d b6 67 54 bb a7 44 d6 be 5e 22 26 bd
       0.04019487 -0.003241045 -0.41849253 -0.04056012
000220 a1 0e 2d 3e 42 59 59 3e 6c 30 19 be 22 99 63 be
       0.16900112 0.21225455 -0.14959878 -0.22226384
000230 99 64 7c 3e 24 94 44 3d 5b db 93 be 56 ec e1 bd
       0.2464775 0.04799284 -0.28878292 -0.11031406
000240 81 c1 ca 3d 5f a2 4c bd 90 b9 47 3e 2b 1f 1e bd
       0.09900189 -0.049959537 0.1950438 -0.038603943
000250 0b b0 2c 3d e6 21 27 3e 84 9f 47 3e 79 3c 35 3e
       0.042160075 0.16321525 0.19494444 0.1769885
000260 ff 80 d2 3d 74 24 6d bd b4 c4 25 3e 5b 6d 03 3d
       0.1027851 -0.057896093 0.16188318 0.03208671
000270 a4 c4 82 3e ab b2 a1 3d fe e8 41 3e 41 03 28 3e
       0.2554065 0.07895406 0.18936536 0.16407491
000280 50 d6 65 be d0 75 17 3e ba f3 60 be 99 30 35 3d
       -0.22445035 0.14791036 -0.21967974 0.0442358
000290 49 20 38 3e 6b 05 38 3d e6 35 98 be a4 7d ce be
       0.17981066 0.044927042 -0.2972862 -0.4033023
0002a0 b3 ef 24 be 80 22 9d bd 52 9f 95 bd 50 9b 5f 3e
       -0.16107063 -0.07672596 -0.073057786 0.21836591
0002b0 c4 0a 1f be e0 17 98 3e e2 65 ee bd a0 a0 cf bd
       -0.1553145 0.29705715 -0.11640526 -0.10138059
0002c0 ee f5 bc 3c cd 63 95 3d 01 f2 35 bd 22 3a 8b bc
       0.023066487 0.07294426 -0.044420246 -0.016995493
0002d0 d5 4c 4b bd c6 c9 1f be e7 d7 28 bd f0 6a 51 3e
       -0.04963382 -0.15604314 -0.041221526 0.2045095
0002e0 38 88 3a 3e 3e 3e 47 3e 0b 4a c7 3c 51 86 43 be
       0.18216026 0.19457337 0.024327299 -0.19094206
0002f0 ec 54 05 3d a7 7f 3a be ce f2 4f bd 76 52 b0 be
       0.03255169 -0.18212758 -0.050768666 -0.34437913
000300 be 34 9f 3d ec 74 35 be 67 ea 2a be 67 12 45 be
       0.07773732 -0.17720383 -0.1669098 -0.19245301
000310 8a 05 07 bc 97 9d 08 be 77 d1 b7 bc 4d f7 2f 3e
       -0.008241067 -0.13341366 -0.022438748 0.17184182
000320 8a a2 bb bd b0 db 0f 3e 47 51 34 be c7 b4 21 be
       -0.09161861 0.14048648 -0.1760913 -0.15791617
000330 d4 7e 7c be f1 8c 21 bd 4b 47 fd bc 73 83 97 3c
       -0.24657756 -0.039441053 -0.030917784 0.018495297
000340 0f 5d a8 bc de 77 53 3d a3 5c 9f bd cc ca 24 bd
       -0.020552186 0.051627986 -0.07781341 -0.040232465
000350 64 7b c5 3c b5 ee 34 3e 35 c8 22 3c 5b ad 44 3d
       0.024106689 0.17669185 0.009935428 0.048016887
000360 72 25 ed bd 11 01 39 3d 55 85 b3 bc c4 11 9a bd
       -0.11579408 0.045167033 -0.021914164 -0.0752292
000370 a2 bc 5b 3e 7c 2d c5 3d c5 e8 10 3c f6 2a e4 bd
       0.21458676 0.09627816 0.008844559 -0.11141007
000380 39 e3 65 3d 03 40 10 be 79 01 6a be 95 05 79 3e
       0.0561249 -0.14086919 -0.22852124 0.24318536
000390 ef 83 ea 3c ab 13 1d 3e 7e ed 33 3d 08 84 a8 3d
       0.028627364 0.15339534 0.043927662 0.08228308
0003a0 23 b7 20 bb 55 b9 c3 bd 7c ac 43 3e 81 6e ef 3d
       -0.002452322 -0.09556834 0.19108766 0.11690999
0003b0 65 19 28 be 0d e7 93 bc 25 23 37 39 f7 d7 dc bd
       -0.16415937 -0.01805451 0.00017465332 -0.107833795
0003c0 9a 52 76 bd 91 6d 87 bc d2 71 71 3d 88 3b 81 bc
       -0.06013737 -0.016531738 0.058946438 -0.015775457
0003d0 6b c5 a7 3d ce 46 39 3c ed b9 b8 bd 84 0d 4c be
       0.08191951 0.011308385 -0.090198375 -0.19927031
0003e0 1a c3 1d be 29 c1 2a bd 7d 19 26 3d ef 42 73 be
       -0.15406457 -0.041688118 0.04055165 -0.23756002
0003f0 5f f5 07 3e e2 74 22 be 47 9c 6e bd a7 43 fa 3b
       0.13277195 -0.158649 -0.058254506 0.0076374593

network_body._body_endoder.seq_layers.0.bias f4 [256]
000000 c7 17 4e 3d 6a 19 88 3c af 1e a1 3b 6a a6 7e 3d
       0.050315645 0.01661368 0.004916988 0.062170424
000010 2a fd ce bc 33 e3 ae 3d 11 a4 c3 3c 47 14 3f bc
       -0.025267202 0.085394286 0.023881944 -0.011662549
000020 d6 4d b6 3d 71 5b 98 3d 1b 35 f9 3d bc a1 c6 3c
       0.08901565 0.07439316 0.12168332 0.024247043
000030 02 de 16 3d 77 5f 4f 3d 19 c9 46 bd bd 50 12 3d
       0.036832817 0.05062815 -0.048531625 0.03572153
000040 de 52 83 3c c3 b7 4c 3d 52 36 ec 3d 9f 0d 36 3d
       0.016030725 0.049979936 0.11533798 0.044446584
000050 93 04 8e 3d a1 34 41 3d 79 43 1a bc f5 1f 36 3c
       0.06934466 0.04716933 -0.009415501 0.011116018
000060 bd 60 08 3b b4 55 6e 3d 4e b8 4b bb 7c 84 44 3d
       0.0020809614 0.0581872 -0.0031085196 0.04797791
000070 30 14 b7 3c 4f 7c 3d 3c ed 42 b0 3d bc ac 45 3d
       0.022348493 0.011565282 0.08606515 0.048260435
000080 85 9c 51 3d 78 95 82 bc cd a3 f6 3c b1 b9 3d 3d
       0.05117466 -0.015940413 0.030107403 0.046319667
000090 86 f2 09 ba 2f 14 5f 3d 8f cb 19 3b 5d bb 83 3d
       -0.0005262274 0.054462608 0.0023467278 0.06432221
0000a0 32 30 77 3d 20 d3 23 3d dd 9d c8 3d ca 2b f8 3c
       0.060348697 0.039996266 0.09795735 0.030294318
0000b0 45 80 9d 3c 1b 28 8b bc fb 2a 07 3d 07 98 9b bc
       0.019226203 -0.016986897 0.032999974 -0.01899339
0000c0 95 bd d5 3c 53 a8 33 3d fa d1 93 bc b2 40 b2 3c
       0.026091376 0.0438617 -0.01804446 0.021759365
0000d0 47 04 b4 3c 6e 6b 53 3d ff 0c 92 bc 7d 76 8a 3d
       0.021974696 0.051616125 -0.017828463 0.06760881
0000e0 22 22 42 3c 16 c4 83 3b 5d 08 4a 3e 7c c4 7e 3d
       0.011848958 0.004021178 0.19729753 0.0621991
0000f0 e0 e6 c5 3d d2 0b 88 3a 26 85 88 3d 1c fa a4 3d
       0.096631765 0.0010379499 0.06666021 0.08055517
000100 fd bc 36 3d 1a c1 93 3b d1 a8 2c 3d 49 f6 40 3d
       0.044613827 0.0045091035 0.042153183 0.047109876
000110 7f 4d 47 3c 63 b0 d1 3d fe 29 a1 3d cf 10 74 3b
       0.012164473 0.10238721 0.078693375 0.0037241464
000120 d3 80 7c 3d ea fc 01 3c c6 e5 70 3d 8a fa eb 3d
       0.061646294 0.007933835 0.05881288 0.11522396
000130 cd f6 12 3d 02 bd 4a 3d 55 5f 93 3d e8 01 fe 3c
       0.0358799 0.04949666 0.071959175 0.031006768
000140 42 22 01 3d 23 80 2b bb 1b bf 52 3d c7 0e 49 3d
       0.03152681 -0.0026168905 0.051451784 0.04908636
000150 32 a3 8b 3d 0a 92 19 3d 50 90 11 3c 39 1e 49 3d
       0.068182364 0.03749279 0.008884504 0.04910109
000160 19 06 5d 3d ac 54 5f 3d ed a5 85 3d 91 81 a1 bc
       0.053960893 0.05452411 0.065257885 -0.019715102
000170 bd 67 02 3d bd 5e 81 3d 31 ca d4 3b b1 4f 70 3b
       0.031837214 0.06316898 0.0064938297 0.0036668594
000180 db 51 cc 3c 6f 9e fb 3c 68 c1 17 3d 2a 4d bb bc
       0.024941375 0.030715195 0.03704968 -0.022863943
000190 55 f6 b0 3d e7 b5 57 bd 8a a7 cf ba de 33 16 bc
       0.08640734 -0.05266371 -0.0015842777 -0.00916764
0001a0 5c 8c 70 3d 58 64 8a 3d 45 c0 b5 bb 1f 7a 2e bb
       0.058727607 0.0675742 -0.005546602 -0.0026623083
0001b0 cd 7a 21 3d 57 1f 38 bc 9e 30 9a 3d 50 d6 8f 3d
       0.039423753 -0.011237941 0.07528804 0.07023299
0001c0 ca e5 fe bc 6f a2 b7 3d 80 1b 3d 3d 11 3a e8 3c
       -0.031115431 0.089665286 0.046168804 0.028348
0001d0 16 c6 81 3d db 9c d2 3d 16 90 a8 3c f1 8a ed 3c
       0.0633661 0.10283824 0.020576518 0.028996916
0001e0 27 2c 97 3c 88 e2 65 3d 25 1b d8 bb e8 c3 ab 3c
       0.01845367 0.05612424 -0.0065950328 0.020967439
0001f0 5d ce d6 3d df 6b 3d 3c 2f ba 62 3d ee e9 45 3d
       0.104885794 0.011561363 0.05535334 0.048318796
000200 8a fa cc 3d 25 21 42 3d a7 9d a7 bd 24 11 a4 3b
       0.10008724 0.04739489 -0.08184367 0.005006926
000210 4d c5 34 3d e5 29 96 3d 9e 93 f0 3c 40 c8 01 3d
       0.044133473 0.073322095 0.029367264 0.031685114
000220 d7 18 ab 3d 48 ed 06 3e c6 2d 5b 3d a2 c7 32 3d
       0.08354347 0.13176453 0.05351045 0.043647416
000230 db 2e da 3c bb d0 0d 3c 90 e2 e2 bc e8 5c fe 3c
       0.02663367 0.008655722 -0.027695924 0.03105016
000240 01 bd 42 bc 1b de aa 3d 88 95 97 3d 5e 6b 29 bc
       -0.011885882 0.083431445 0.07401568 -0.01034054
000250 f3 10 fd 3c 00 3d 26 3d f3 fb b4 bb 73 e8 94 3d
       0.030891871 0.040585518 -0.0055231987 0.07270899
000260 26 97 c7 bc 77 77 59 bc ae 9e 42 3d 18 2a c7 3d
       -0.024364065 -0.013273112 0.04751461 0.097248256
000270 d8 da e4 bb c5 e1 23 3d 37 99 96 3c e1 71 22 bd
       -0.006984096 0.040010232 0.018383605 -0.039659385
000280 b8 4f 18 3c c1 84 36 3d 25 b2 ec 3c 8d b6 29 3d
       0.00929635 0.044560198 0.02889354 0.04143386
000290 e7 07 45 3d 5e 60 b2 3c d6 5b b8 3c de b1 2f 3d
       0.04810324 0.021774467 0.022504728 0.042894237
0002a0 a0 80 ef 3c e1 b1 b3 3c 7d 14 23 bd cd 97 83 bb
       0.029236138 0.021935405 -0.03981446 -0.004015899
0002b0 c5 9f a7 3c a9 8b fa 3c 70 5d cf 3d 97 11 f6 3c
       0.020461926 0.030584173 0.10125244 0.030037684
0002c0 08 19 8a 3c 76 9b 48 3d c0 1d 90 3d 14 99 35 3d
       0.016857639 0.048976384 0.07036924 0.04433544
0002d0 14 b8 47 3d 86 44 e9 3d 40 33 2c 3c 40 05 3f bd
       0.048759535 0.11390023 0.010510266 -0.046635866
0002e0 1d c1 94 bd 0e 08 db 3c 19 48 88 3d 57 e6 c5 3d
       -0.07263396 0.02673724 0.066543765 0.096630745
0002f0 a7 a5 92 3d 68 01 27 3d ba 58 9f 3c 85 42 0b 3d
       0.07160502 0.040772825 0.019451488 0.033998985
000300 12 0a 6a 3d b0 2d f7 3c 39 1a a7 3c f4 98 bc 3c
       0.05713851 0.030173153 0.020398246 0.023022152
000310 e3 68 cd bc 45 ae f9 3c a2 2a 8a 3c 95 51 17 bd
       -0.025074428 0.030478606 0.016866032 -0.036943037
000320 db 5c ca bd 48 d2 21 3d 58 85 8d 3b e5 87 fc 3d
       -0.09880992 0.03950718 0.0043188743 0.12330607
000330 84 cb 48 3d 8b 54 83 3c aa 0e a8 bd 32 51 5f 3d
       0.049022213 0.016031524 -0.08205922 0.054520793
000340 5b 27 1c bd 84 4e b0 bd 92 11 98 3d ad 1d d2 3d
       -0.03812347 -0.08608726 0.07425226 0.102595665
000350 4a b2 60 3d 02 4e 15 3d 71 fc 31 3c 29 b6 ef bc
       0.05485753 0.036451347 0.010863409 -0.029261665
000360 b3 fd 04 bd 75 93 21 bd 14 9d ee 3c 0b e1 e7 3c
       -0.03246851 -0.039447267 0.029127635 0.028305551
000370 8a 6b d0 3d 7a bf 74 3d c6 54 5d 3d 7d b7 6e 3d
       0.101767614 0.05975292 0.054035924 0.058280457
000380 5a 6d 97 3d 29 a5 98 3d d6 86 5c 3d 8d 34 80 3d
       0.07393904 0.07453377 0.053839527 0.06260023
000390 3c 05 76 bd 1a c2 3c 3d c8 7e 31 3d ce 75 5c 3c
       -0.060063586 0.046083547 0.0433338 0.013455821
0003a0 ca 17 a7 3c 3b c8 2d 3c a0 63 36 3d e0 b3 2d 3d
       0.020397086 0.010606821 0.044528604 0.04240787
0003b0 42 4a 50 bd 08 5d ab 3c df 83 9f 3c d0 5a 8e 3d
       -0.050852068 0.020918384 0.01947206 0.06950915
0003c0 ac df f1 3b f1 3b 16 3d 25 4a 16 3c c7 a7 84 3d
       0.0073814 0.03667826 0.009172951 0.064773135
0003d0 9a cd 76 3d 0a bd 7b 3d 33 eb 99 3c 46 50 62 3d
       0.06025467 0.06145958 0.01878891 0.055252336
0003e0 68 21 81 3d 43 64 cb 3d ec 09 2f 3d c3 d6 f6 3c
       0.063052 0.09931233 0.04273407 0.030131703
0003f0 48 54 31 bc 31 74 13 3d e2 6a cb 3d 02 f0 f5 bb
       -0.010823317 0.03599948 0.09932496 -0.007505418

network_body._body_endoder.seq_layers.2.weight f4 [256, 256]
000000 15 29 34 3d a0 73 2d 3d cf 1e ca 3d 55 0b ea bc
       0.04398449 0.042346597 0.098691575 -0.028569857
000010 d3 b1 5d 3d 1f 2c 58 3c 8a 98 99 3d b0 db 90 bd
       0.054124665 0.013194113 0.07499798 -0.07073152
000020 0b 54 c3 3d 54 78 93 bd 9b ca 13 bc b0 96 29 bd
       0.09537514 -0.07200685 -0.009020473 -0.041403472
000030 73 7b 3d 3d 44 8e 2f 3d 71 4a 20 3d 49 7c e0 bd
       0.04626031 0.042860284 0.039133493 -0.109612055
000040 58 65 17 3d 8d 65 ce bd ab ec a4 bd bb 80 9e 3b
       0.036961883 -0.10077963 -0.08052953 0.004837123
000050 e5 bc 80 bd 3b dc c2 3d f8 b4 fc 3c 62 76 f4 bd
       -0.06286029 0.09514662 0.030848011 -0.11936642
000060 2f a2 1a bd 8f ed 0c 3d 53 a5 78 3d 95 0c f3 bd
       -0.037752327 0.03440624 0.06070454 -0.11867634
000070 ac 7c 1c 3e 59 86 b2 3a 07 7a 1e 3e ad 71 b7 3d
       0.15281934 0.0013620361 0.15476237 0.08957229
000080 9c 4a 52 bd 54 45 17 bd a6 50 fd bd ee 8b 44 be
       -0.051340684 -0.03693135 -0.12368898 -0.19194004
000090 0e d6 ae 3c e7 b6 38 3a 1d b6 07 3e fb 03 c4 3d
       0.021342304 0.00070462975 0.13253064 0.09571072
0000a0 c6 49 d3 bd 77 9c da 3c f9 aa 9f 3c 63 81 8d 3d
       -0.103168055 0.026685936 0.019490706 0.06909444
0000b0 7e 64 08 bd c6 37 a8 3d 3b 7f d7 3c d8 c0 68 bd
       -0.03329896 0.08213763 0.026305785 -0.056824535
0000c0 d8 58 87 3d cc b6 a4 bd 08 15 f2 bd 38 07 b5 bd
       0.066087425 -0.08042678 -0.11820418 -0.088392675
0000d0 64 6b ff 3d 14 ab d2 3d f4 e7 93 3d f8 67 54 bd
       0.12471655 0.10286537 0.07221976 -0.051856965
0000e0 78 24 68 be 85 29 2e bd ef ae ee bd a3 3a 79 3c
       -0.22670162 -0.042520065 -0.1165446 0.015211734
0000f0 40 17 3d 3d 9f e8 55 bd 6d 69 bd bb ce 25 70 39
       0.04616475 -0.052223798 -0.00578039 0.00022902267
000100 8c 78 50 bd 33 05 52 3d 71 9d 67 3c cb cd 1e 3d
       -0.050896212 0.05127449 0.014136658 0.03877048
000110 e5 2b 96 bc 2c f7 9f bc 15 8d 04 3d 28 09 24 bd
       -0.018331477 -0.01952704 0.03236111 -0.040047795
000120 6f 28 25 bb 00 03 3e be 8c e5 38 3e a8 ab 22 bd
       -0.0025201102 -0.18555832 0.18056315 -0.039714485
000130 99 b2 6d 3b 78 65 75 bc cc 54 b2 bc b0 63 a6 3c
       0.0036269783 -0.014977805 -0.02176895 0.020311207
000140 b1 65 df bd f4 97 68 bc 36 af 3a 3d 5f 80 5d 3d
       -0.10908068 -0.014196385 0.04557725 0.054077502
000150 25 84 ea bc c3 f4 71 3c b3 1f a7 bd a2 dc 71 3d
       -0.028627465 0.014767828 -0.08160343 0.059048302
000160 a2 ce bb 3d 28 9a 11 3d ea a8 e2 3c d4 b8 a0 3d
       0.091702715 0.035547405 0.027668435 0.07847753
000170 cf f4 b8 3d c2 d4 84 bd 34 2d 66 bb 64 fc 2e 3e
       0.090310685 -0.06485893 -0.0035122158 0.17088467
000180 30 ec d8 bc 11 ac 78 bd 43 52 8a 3d 39 4f b5 bd
       -0.02647981 -0.06071097 0.067539714 -0.08853001
000190 47 a8 d1 bd 35 7a f7 3d 4d 3e 71 3e ed 27 05 3d
       -0.102371745 0.12083856 0.23558922 0.03250878
0001a0 92 fd fe bc 36 78 96 3d 5d 53 48 3d b2 a6 23 be
       -0.031126771 0.07347147 0.048907626 -0.15981558
0001b0 c6 d2 dd bd 71 1e 21 3d 7b a6 bd 3d b5 a8 07 bd
       -0.108312175 0.03933567 0.09260269 -0.033119876
0001c0 51 c6 bb bd 0f f9 07 be 7e 73 3b be 72 15 72 3c
       -0.09168685 -0.13278602 -0.18305776 0.014775621
0001d0 ab 62 34 3e 3c f4 c4 3d 9d 03 07 bd 8e 09 0f bc
       0.17615764 0.096168965 -0.03296243 -0.008730305
0001e0 99 b8 eb bc 7c 42 96 bc 05 e5 80 bd d8 f4 9a 3d
       -0.028774546 -0.01834225 -0.06293682 0.075662315
0001f0 03 29 96 bb 0e 50 1c 3c 0f 72 eb 3a de 14 5d 3d
       -0.0045825257 0.009540571 0.0017963069 0.05397498
000200 fc a7 49 bd 18 2a 42 3d ae 83 23 bd 56 c6 d5 bd
       -0.049232468 0.047403425 -0.0399205 -0.1043822
000210 66 53 f4 bd 15 da a3 3c 4c e8 24 bd 5e 58 a9 3b
       -0.119299695 0.02000145 -0.040260598 0.005168005
000220 70 d1 bd 3c 60 97 89 bd b2 86 dd 3d fb 9b b0 bd
       0.023171157 -0.067183256 0.10816707 -0.08623501
000230 e3 91 44 bd 40 2b f9 3c c9 e3 e7 bd 40 1e a1 3d
       -0.04799069 0.030416131 -0.113227434 0.07867098
000240 6c a3 ff bd 3a 30 c8 3d 97 bb 10 3d 38 72 dd bd
       -0.12482342 0.097748235 0.03533515 -0.10812801
000250 4b 57 67 3c 3e 6d 88 bb b4 3a af 3d 88 07 1f bd
       0.014119933 -0.0041634133 0.085561186 -0.03882554
000260 18 5d cc 3c d0 4f c9 3c a7 17 c1 bc 0a ed 73 bd
       0.024946734 0.02457419 -0.023570849 -0.05955223
000270 00 8a 98 bc 51 60 5e bd 76 80 e2 bd e1 36 9e bd
       -0.018620491 -0.054291073 -0.11059658 -0.07725311
000280 23 86 cb bd 5c 1d a7 bd bd ea 64 3c 38 f0 41 bd
       -0.09937694 -0.08159897 0.013971982 -0.04734823
000290 06 9b 82 bd 88 3d 52 3c 46 63 6a 3d 70 c1 d1 3d
       -0.063772246 0.012832053 0.05722358 0.102419734
0002a0 bb f0 5d bd 0a 0e 6d b9 80 7b 8f bc b2 36 b7 3c
       -0.054184657 -0.00022607311 -0.017514944 0.022364948
0002b0 0b ec 39 be 03 d0 82 3d 44 2b 05 3e fb f7 98 3d
       -0.1815645 0.06387331 0.13004786 0.074691735
0002c0 2c 84 31 bd 8a 38 57 3d a0 04 b1 3c 86 06 01 3c
       -0.04333894 0.052544154 0.02160865 0.00787509
0002d0 ad 54 a1 3c de 4d 20 be 6d 5a cd bd 9d dd b0 3b
       0.019693697 -0.15654704 -0.10027013 0.005397512
0002e0 6d 6e 27 3d 0e 9e fc 3d 6f fe 2f be 2d 31 19 bd
       0.040876795 0.12334834 -0.17186902 -0.037400413
0002f0 da 00 30 bd b4 20 19 be 87 64 25 be df 1c 7d 39
       -0.042969562 -0.14953882 -0.1615163 0.00024138716
000300 6d ef e7 3d 89 f1 4c bd 82 97 c0 bd d6 da ce 3d
       0.11324964 -0.050035033 -0.09403898 0.101003334
000310 8e de 75 3b b8 4c 02 3d f3 f7 31 bb 04 9c 28 3c
       0.0037516686 0.031811446 -0.0027155846 0.010291103
000320 2e 83 93 bc 54 fe c5 bd 7a 1a 1f bd 18 a3 7c bd
       -0.018006887 -0.0966765 -0.03884361 -0.061678976
000330 82 0f fb bb 2a 53 a8 bc 08 58 df bd a8 77 a3 3c
       -0.007661761 -0.020547468 -0.109054625 0.019954517
000340 7f cc 15 bd 74 4d 31 3c 54 7a 93 bd b5 5d b7 3d
       -0.036571976 0.010821689 -0.072010666 0.0895342
000350 90 d8 88 3d 60 bd e5 bb cd 1e ba 3c 07 cf b5 3d
       0.06681931 -0.0070111006 0.022719765 0.08877378
000360 c8 58 3e bd a6 04 ae bd 1b c9 35 3d 02 90 97 bd
       -0.046471387 -0.0849698 0.044381242 -0.07400514
000370 12 32 90 bd e1 6c 84 bd c8 43 d5 bd 96 95 15 bd
       -0.070408 -0.064660795 -0.10413319 -0.03651961
000380 f0 65 2b 3b ed 55 0c be 9d 5a 39 bd 90 e9 08 bc
       0.0026153289 -0.13704653 -0.04525243 -0.008356467
000390 07 a2 b1 bd aa 81 8f 3d 66 f0 50 3d 6c 4f 65 3d
       -0.086734824 0.07007153 0.05101051 0.055983946
0003a0 d9 3d 80 3c e8 70 af bc 0b ed 8e 3d 04 c1 28 bd
       0.015654491 -0.021416143 0.06978806 -0.0411997
0003b0 01 d0 ef 3d bd 3e 06 3e 11 60 c7 3c 04 03 5a bb
       0.117095955 0.1310987 0.0243378 -0.0033265958
0003c0 23 c2 ef 3c 63 fc 4b 3d 72 8e 28 3e 94 d5 a6 3d
       0.029267376 0.04980124 0.16460589 0.081462055
0003d0 02 ee c5 3c cd 95 5a 3d 61 64 1c bd 9b 4a 84 3d
       0.024161343 0.053365517 -0.038181666 0.06459542
0003e0 df ba f9 bb ab 55 38 be 32 ea 96 bc a1 b7 1a 3d
       -0.0076211537 -0.1800143 -0.01842222 0.03777278
0003f0 70 21 8b bd 27 75 2c bc 91 a1 91 3c 8a 65 03 3e
       -0.06793487 -0.010525978 0.017777236 0.12831703

network_body._body_endoder.seq_layers.2.bias f4 [256]
000000 98 d7 db 3c ab f7 98 3b 89 75 b2 3c b3 80 cd 3c
       0.026836202 0.004668196 0.02178456 0.025085783
000010 45 56 00 3d 1e 3f 45 3c 5a 84 e6 bc 93 e3 0b 3d
       0.031332273 0.012038974 -0.028139282 0.03415258
000020 a3 6d 36 3d 08 0c 34 bc f0 c4 64 bc e1 70 72 3d
       0.04453815 -0.010989197 -0.013962969 0.05918968
000030 b0 dd 9e bb e2 c0 0d bd 9f 6d 07 bb 1f 7f ac 3d
       -0.0048482046 -0.034607776 -0.0020664704 0.08422684
000040 d0 b2 b5 3c 4f a8 06 3d 55 85 62 3a 2e 4c 26 3d
       0.022179991 0.032875355 0.0008641084 0.040599994
000050 a7 e0 b8 bb 13 0e 3f bd 9f dd 17 bd 32 0e 70 3d
       -0.005642015 -0.04664428 -0.03707659 0.058607288
000060 f8 68 e9 3a 59 e8 45 3d 68 fc 9a bb 8e 66 b8 3a
       0.0017807772 0.048317287 -0.004729796 0.001406865
000070 87 87 43 3c b0 6c 35 bc b0 62 bd bc d6 13 a4 3c
       0.011934168 -0.011073276 -0.023118347 0.02002899
000080 9f bf 17 bc c3 8f 6d 3d fd ee 7c bb af b6 77 ba
       -0.009261995 0.05799843 -0.0038594597 -0.0009449524
000090 b0 4d 0e bd 89 49 fd 3c dd c2 07 3d dd 3f 94 bc
       -0.034742057 0.030918853 0.03314482 -0.018096859
0000a0 8c 33 89 3d 16 93 b7 3c 1d 17 41 bc 5c 38 de bc
       0.06699285 0.022409003 -0.011785296 -0.027126484
0000b0 22 4d 00 bd fd be eb bc 73 3c cc 3c a8 b1 49 bd
       -0.03132356 -0.028777594 0.024931168 -0.04924169
0000c0 93 41 7f bd fe 83 15 bd 99 af 48 3d 79 64 e4 3c
       -0.062318396 -0.03650283 0.048995588 0.02787994
0000d0 fc 4b 08 bd 63 28 5c bd 18 92 31 3b b3 bc 69 3c
       -0.03327559 -0.053749453 0.0027095135 0.014266181
0000e0 4f 9c 12 bd 24 ac ce bb 45 f1 e4 bb a6 f9 41 3d
       -0.0357936 -0.006307142 -0.0069867694 0.047357224
0000f0 b8 50 c6 3d a3 e0 a5 bc 5d 3d 08 3c f6 2c 41 3c
       0.09683365 -0.020248717 0.008315411 0.011790505
000100 4b cb e2 3c 1b f0 53 3d 45 3b 1b bd 3b 0e 14 3d
       0.027684828 0.051742654 -0.03789832 0.036146384
000110 e8 a2 a8 3c 7f cd 91 3c 04 72 74 bc ac 08 16 bd
       0.020585492 0.017798183 -0.014919762 -0.036629364
000120 14 82 87 3d 20 7c 0c bc 00 e4 c6 bc 49 f9 4e 3d
       0.06616607 -0.008574516 -0.02427864 0.050530706
000130 db f9 67 bd ff ce 3b 3d 7d 32 3c 3d 67 57 89 3a
       -0.056634765 0.045851704 0.045946587 0.0010478318
000140 37 2d bc bd b3 8f 17 3d dd c8 62 3c ca bd a9 3c
       -0.091883115 0.037002277 0.013841835 0.020720381
000150 f0 82 12 3c 50 d6 21 bd 05 c6 eb 3c 18 ba ea bb
       0.008942351 -0.039511025 0.028780947 -0.0071632974
000160 dd f2 0a bc bd 6c 9e bc df e5 0e bd c8 b7 25 3c
       -0.008480755 -0.01933896 -0.03488719 0.010114618
000170 2e eb e2 3c 51 a5 9c 3c 24 06 78 3d c6 99 f0 ba
       0.027700033 0.019121798 0.06055273 -0.0018356375
000180 bb 16 ad 3c df 07 b9 bc 7d 14 3f bd ab fa 0e 3c
       0.021129003 -0.022586761 -0.0466504 0.008726756
000190 4a 3c c7 bc 06 94 34 bc 03 cd 56 3d 0f 6c 84 bd
       -0.02432074 -0.01102162 0.05244161 -0.06465923
0001a0 bf ff f4 bb f3 88 44 3d 5b cf 62 3d 45 61 81 3c
       -0.0074767764 0.047982167 0.05537353 0.015793452
0001b0 86 3d 25 b9 ee 72 31 3c e7 92 81 bb 17 b7 85 bb
       -0.00015758545 0.010830624 -0.0039542797 -0.004080664
0001c0 b9 ac ad 3d 55 76 e4 bc b6 11 8b bb d0 74 e0 bb
       0.0848021 -0.027888456 -0.0042440547 -0.0068498626
0001d0 0f 70 47 bd d1 73 bc bc 5f 0c 29 bd 1c b6 a7 3c
       -0.04869085 -0.023004444 -0.041271564 0.020472579
0001e0 b7 42 9b bc d7 11 d5 3c 07 ce 90 bc 36 a1 43 3d
       -0.01895271 0.026009483 -0.017676366 0.047761165
0001f0 90 77 32 bd 85 d0 05 bb b7 02 e4 3c f9 99 c4 3b
       -0.043571055 -0.0020418477 0.027833326 0.0059998003
000200 98 31 61 bc ce 33 62 bd 1e 44 9c 3b 97 8e a5 bc
       -0.013744734 -0.055225186 0.0047688624 -0.020209594
000210 5a be 04 3d 19 cd 61 bd bc c1 56 3d 5c f4 45 3d
       0.032408096 -0.055127237 0.052430853 0.048328742
000220 aa a9 51 bd 3a b2 ed bc 6e f0 47 3d 89 d7 8d bc
       -0.051187195 -0.02901565 0.048813276 -0.01731469
000230 a1 b4 30 bd c9 4b 0d bd 6f a4 f5 bb e4 cb d1 ba
       -0.04314101 -0.034496102 -0.0074964087 -0.0016006199
000240 2f 1d d6 3c 6b 45 fc bb d7 2a af 3d cb 09 5c 3c
       0.026136963 -0.007698705 0.08553093 0.013430069
000250 0b ec be bc 90 08 0f bd 25 23 35 bd 3f ed e3 bb
       -0.023305913 -0.034920275 -0.04422297 -0.006955772
000260 4c 5a 08 bd 06 08 aa 3d 4d c8 ef b9 91 07 eb bc
       -0.03328924 0.083023116 -0.00045734868 -0.028690131
000270 30 aa c0 3d 69 b5 3a bd 92 47 3c bb 9a c1 be 3b
       0.09407461 -0.045583162 -0.0028729183 0.005821419
000280 01 0a 8c 3c 87 83 c7 3c 69 71 85 bc b6 54 2d 3c
       0.017094614 0.02435471 -0.01628943 0.010579279
000290 a6 a3 e5 3c 24 63 c3 bb 31 44 c4 bc 21 90 86 3d
       0.028032135 -0.005962746 -0.023958297 0.06570459
0002a0 1f 8f 12 3d 90 4d 3a bc 4c b5 3c 3d 71 48 2c 3d
       0.035781022 -0.011371031 0.046071336 0.042061273
0002b0 cf 34 11 3b e8 2f 6a bc 3a 04 c1 bb fd 46 18 3c
       0.002215672 -0.014293648 -0.0058903964 0.009294269
0002c0 3e ef b0 bb 0a 12 e7 bc 20 e6 a7 bd 30 ca 94 bb
       -0.0053996136 -0.028206844 -0.0819819 -0.004540704
0002d0 86 2e 06 bd 8a 9f 33 bc 9a f7 89 bc ac 56 7b bd
       -0.032759212 -0.01096333 -0.016841698 -0.061361954
0002e0 a8 70 39 bc c6 9f 07 3d 57 ba 22 bd 87 64 f7 3c
       -0.011318363 0.033111356 -0.03972849 0.030199302
0002f0 47 0f 5a 3d e3 e6 8c 3b a0 e7 a9 bc 94 24 c5 bd
       0.053237226 0.004299985 -0.02074033 -0.09626117
000300 c4 18 06 3d 11 9d 72 bd a5 5b 26 3d ad 14 38 bc
       0.032738462 -0.05923182 0.040614743 -0.011235398
000310 99 21 06 bd 71 d7 98 bc 3f a4 86 bc 9d e5 26 3d
       -0.032746885 -0.018657418 -0.01643574 0.04074632
000320 6c e3 8a bc 6a d1 06 bd 26 eb 98 bc 29 fa 11 bc
       -0.016954146 -0.032914557 -0.018666815 -0.0089097405
000330 e5 72 26 bd 22 8a f1 3c c7 e0 99 3d 91 c9 0f bd
       -0.040636916 0.029484812 0.07513576 -0.035104338
000340 98 db 43 bc 16 e0 42 3c 18 64 59 bd 5c 60 8e 3a
       -0.011954211 0.011894247 -0.053073972 0.0010862458
000350 43 03 11 bd b9 42 a4 bb 08 96 4b bd d2 d4 29 bc
       -0.0354035 -0.005012837 -0.049703628 -0.010365682
000360 29 ad 2b 3d 11 52 1f 3b 49 1f 46 3c 87 b1 c1 bc
       0.041913185 0.002431039 0.01209242 -0.023644222
000370 33 92 79 bc 2a 6c 06 3d fd eb 5b bd bd e3 06 bd
       -0.0152326105 0.032817997 -0.053691853 -0.032932032
000380 6f 4e ab 3c 6c 58 cb 3a e3 3c 08 bd 88 c6 04 3c
       0.020911423 0.0015514023 -0.03326119 0.008103974
000390 c3 db 90 bd 70 4c 35 bd 48 8f 96 bd 0d f7 18 bd
       -0.07073166 -0.04426235 -0.073515475 -0.03734498
0003a0 de d0 05 bc 57 a7 d6 bc 9a 5f 90 bb 03 8a e0 bb
       -0.008167474 -0.02620284 -0.004405928 -0.00685239
0003b0 81 be 50 bd 61 c4 79 3d 4d 81 83 3a 29 76 46 3d
       -0.05096293 0.060978297 0.0010033041 0.04845253
0003c0 80 88 19 3d d7 cd b0 bc 8a 09 3e 3d 97 64 75 bc
       0.037483692 -0.021582527 0.046395816 -0.014977596
0003d0 52 a4 10 3d 77 ca 27 bc f1 66 38 bd 55 59 4a 3d
       0.035312958 -0.0102411425 -0.045020048 0.0494016
0003e0 0a 2f 64 3d a5 4c 81 bc 2c eb 8b bb c2 40 3b bd
       0.055708922 -0.015783617 -0.004269978 -0.045716055
0003f0 06 29 0e bd e5 a1 43 bc c2 28 34 bd 1c a6 16 3d
       -0.03470709 -0.011940454 -0.043984182 0.036779508

action_model._discrete_distribution.branches.0.weight f4 [5, 256]
000000 eb 81 0f bd 3d 6f 4e bd 4f a6 af 3c 38 f8 20 3c
       -0.03503601 -0.050399054 0.021441607 0.009824805
000010 fe 92 19 bd 67 e2 86 bc 75 db 3d bc 73 9a 09 3d
       -0.0374937 -0.016465379 -0.011587967 0.03359456
000020 17 db 59 bd fe 6e 51 3d 61 58 a1 3d fe 3c dd bc
       -0.053187456 0.05113124 0.07878185 -0.027006622
000030 5e 03 ab bd 0c 61 9a 3c 29 35 61 3d 9f 10 1f bd
       -0.083502516 0.018845104 0.054982338 -0.03883421
000040 9a 44 62 bb 44 af 2e 3d 3a e5 ed bd 0a 44 9b 3c
       -0.0034525753 0.042647615 -0.11615987 0.018953342
000050 02 a7 90 3c 83 a3 2b bc 5c a1 b2 bc 08 65 13 3e
       0.01765776 -0.010475996 -0.021805458 0.14394009
000060 1f 20 b2 3c 66 1b d9 bb 00 d7 a3 3b be 76 dc 3c
       0.021743832 -0.0066255806 0.004999995 0.02691209
000070 f0 19 3d bb 39 3c 86 3d 54 1c a4 3c 5f a7 54 bd
       -0.0028854571 0.06554455 0.02003304 -0.05191743
000080 1e 67 a5 bd 2f e6 d4 3c a3 38 32 3d 68 79 95 3c
       -0.08076309 0.025988666 0.043511044 0.018246368
000090 c5 a3 93 bb 7f 62 17 bd 9d d4 a6 bc 25 67 db bc
       -0.004505607 -0.036959168 -0.020365054 -0.026782582
0000a0 5b 0c b3 3c 40 b3 81 bd a8 1f 7f bd aa 14 a2 bd
       0.021856477 -0.06333017 -0.06228605 -0.079140976
0000b0 e8 bb a7 bd 61 f1 73 3d 42 b2 6d 3d a2 82 9f 3d
       -0.08190137 0.05955637 0.058031328 0.07788588
0000c0 81 c9 68 bc 73 2b e7 bb 10 d5 5f 3d f8 8a 4a bd
       -0.0142081985 -0.00705474 0.05464655 -0.049448937
0000d0 3e 2e 3d bb f6 e6 aa 3b 1c ed bf bd b2 c4 81 3d
       -0.0028866674 0.005215521 -0.09371397 0.06336345
0000e0 e5 e5 2a bc 23 c4 7c bd 5e e6 75 3d 5b 06 a3 3d
       -0.010430788 -0.061710488 0.06003415 0.079601966
0000f0 15 59 4c bd 66 e3 0d 3e 83 ce 80 3c 48 8f dc 3c
       -0.049889643 0.13856277 0.015723472 0.02692379
000100 5b ec b0 3d b1 c6 a1 3d b5 03 a4 3d f0 2f d0 bc
       0.08638831 0.078992255 0.080085196 -0.025413483
000110 8e 54 43 bd d6 1a 1c bd 1e fe ec bc e5 cb ca bc
       -0.04768806 -0.03811153 -0.028929766 -0.024755428
000120 a0 9c 87 bc 8d 05 33 3c ff 33 ba 3d a2 0f 31 3c
       -0.016554177 0.010926616 0.09091949 0.01080695
000130 15 67 f5 bc 19 01 b4 bc 6b 32 27 bc 9d 53 d4 3b
       -0.02995638 -0.02197318 -0.010204892 0.006479694
000140 a2 ae 83 bd 7a 46 bf bd a9 6f ab bd 27 b6 30 3d
       -0.06429793 -0.09339614 -0.08370907 0.043142464
000150 39 0e 00 bd 2a b0 93 bd 5c a3 7f bd de 00 e7 bd
       -0.031263564 -0.07211335 -0.06241165 -0.11279462
000160 06 2d 35 3d fe 60 26 3d db ad 04 3b f5 22 c3 3c
       0.04423239 0.040619843 0.0020245227 0.02382038
000170 8f 7c a5 3d d7 38 10 bc 57 3b 74 bb 6e a6 43 3b
       0.08080398 -0.008802614 -0.0037266815 0.0029853838
000180 54 c1 f8 3b 13 43 44 3d 13 cb f0 3d 9b 86 6c bc
       0.007591406 0.04791553 0.11757483 -0.014436389
000190 1c e1 93 3d 00 45 ca 3d 3b 62 d7 bc f4 42 d8 3c
       0.072206706 0.09876442 -0.026291957 0.026399113
0001a0 81 59 6c 3a 0e e3 12 3d e0 5a a4 38 cd ea 11 3d
       0.00090160227 0.035861067 7.837056e-05 0.035624314
0001b0 9d d7 d4 ba 2f b3 e1 3c 2a 8b c1 3c 7a df 1f bd
       -0.0016238574 0.027551262 0.023625929 -0.039031483
0001c0 3d f6 9e bc 7e fd b3 bc 44 11 de bc d7 1c 08 be
       -0.019404525 -0.02197146 -0.027107842 -0.13292252
0001d0 f1 95 27 bd e5 b8 19 3c 9b 21 97 3c 77 b7 43 3d
       -0.04091448 0.009382461 0.018448642 0.047782388
0001e0 47 3d 87 bc e7 c4 ac bc ce 35 bc 3c da 39 44 3c
       -0.016508712 -0.021089984 0.022974875 0.0119766835
0001f0 be 2d 2b bd d3 6c 17 3e 3a f6 83 bc 58 c2 5e bd
       -0.04179167 0.14787607 -0.01610862 -0.05438456
000200 ff dc 23 bc f4 97 8a bd 10 36 60 3d 78 9d 83 bd
       -0.01000142 -0.06767264 0.054739058 -0.06426519
000210 49 0a 62 bd 26 bb 93 3d 6d 99 5f 3d 23 40 56 bd
       -0.05518559 0.0721343 0.054589678 -0.05230726
000220 df 4a 77 3d 6b 26 8a bd ca 9f 2c bc 59 9a ab 3c
       0.060374137 -0.06745609 -0.010536144 0.020947622
000230 40 19 a0 3d 78 ff 90 3d b7 5d 20 bc 68 86 29 3c
       0.07817316 0.07079977 -0.009787968 0.010346986
000240 36 2c 68 3d a1 a1 8d 3c ac 1b 15 3d ed 03 04 3e
       0.056682788 0.017288985 0.036403343 0.12892123
000250 fa 50 19 3d c3 7a 02 3c ab 58 db bd bc 19 51 3d
       0.03743074 0.007963839 -0.107102714 0.051049933
000260 22 56 a5 bd 61 c0 ee bc 38 02 ab bc b2 09 92 3d
       -0.08073069 -0.029144468 -0.020875081 0.071307555
000270 ae 86 9c bc e4 dc 64 3c e5 06 0f 3d 01 d6 a6 bc
       -0.019107189 0.01396868 0.034918685 -0.020365717
000280 6f 59 37 3c f3 d3 10 3d e6 11 99 3d c2 fb ba bb
       0.011190756 0.03535838 0.07474117 -0.0057062814
000290 40 6e 90 3d 1d 7f e8 3d 8f ea d9 3b 43 61 5a bd
       0.070522785 0.1135237 0.006650276 -0.053315412
0002a0 a0 23 d4 3c 7c d1 1f 3d 32 b5 60 3d 87 41 a3 3c
       0.025895894 0.03901814 0.0548603 0.019928707
0002b0 4f 4d 17 bb b6 61 68 3d 3e 42 a1 3d 10 ce db 3c
       -0.002308685 0.05673381 0.07873963 0.026831657
0002c0 5b 4f e9 bc 06 6f f7 bc 09 87 31 bd 6b f9 67 bc
       -0.028480222 -0.030204307 -0.04334167 -0.014158587
0002d0 19 dc 8b 3d 9c d3 11 bd 50 d3 84 3d 9b be 7d bd
       0.0682909 -0.035602197 0.06485617 -0.061949354
0002e0 8e 71 39 3c fd 65 dc 3c 71 61 ec 3d 64 bc 22 bd
       0.011318577 0.0269041 0.11542023 -0.039730445
0002f0 53 77 8c 3d 2d 66 d0 3c 41 e3 a3 bc 75 20 d6 3c
       0.06858697 0.025439346 -0.020005824 0.026138524
000300 88 e9 73 bc 11 0e 0e 3d ca bc 9c 3c 5c f0 8f 3c
       -0.014887221 0.034681384 0.01913299 0.017570667
000310 d8 46 a9 3d 25 a7 bf 3c 08 71 1a 3d 38 f6 5d 3b
       0.082654655 0.02339513 0.03770545 0.0033868682
000320 9b c7 07 bb e8 58 62 bc f2 7e 2b 3d e5 4e 04 3e
       -0.002071834 -0.013815142 0.04186911 0.12920721
000330 34 dd f6 3d c4 0d a0 bd 3a b5 4a 3d 46 4d 0b 3d
       0.1205391 -0.078151256 0.049489237 0.03400924
000340 9e 1e 46 bd c5 0e 86 bd 6a b4 cc 3c c3 be 46 bd
       -0.048369043 -0.06545786 0.024988372 -0.04852177
000350 71 45 43 3c 28 5b 1e 3a 2e ce 69 bc 5a 58 ca 3b
       0.011918412 0.0006040805 -0.0142703485 0.006175083
000360 80 c6 57 3d aa 2f 4b bd 8a 9b 86 ba b7 d5 b5 3d
       0.05267954 -0.049606003 -0.0010269743 0.088786535
000370 95 62 e1 3c 31 24 1d 3d d3 c0 8a 3d ac b7 91 3d
       0.027512828 0.038364593 0.067750596 0.07115111
000380 85 10 fd bb c1 f0 97 3b 9d 5a 56 3b fc e4 8e bd
       -0.0077229165 0.0046368544 0.0032707818 -0.06977269
000390 5e c1 97 bd 6f 97 c8 bd 83 b1 00 bc 67 15 06 bd
       -0.07409929 -0.09794509 -0.007854822 -0.032735255
0003a0 2e d0 51 3d cb a7 41 3d 69 a4 80 3d bb 18 9a 3c
       0.051223926 0.04727916 0.06281359 0.01881062
0003b0 e5 68 2c bd e4 56 cb 3d c7 41 2c 3c 2e ec 16 bd
       -0.042092223 0.099286824 0.010513729 -0.036846332
0003c0 19 31 27 bc 27 de 23 bc b0 99 b3 3d 74 1e b5 bc
       -0.010204577 -0.010001696 0.08769548 -0.022109248
0003d0 76 9f f6 bc 33 6a c4 bd c1 a5 1c 3d 8e f3 86 3d
       -0.030105334 -0.095905684 0.038244013 0.06589423
0003e0 cb 4b 83 3c b3 76 d3 bc 4b 3e 3d bc f4 77 ca 3c
       0.016027352 -0.025813436 -0.011550496 0.024715401
0003f0 d0 80 36 bd 05 22 33 3d 64 2d 52 3d da 8d e2 3c
       -0.04455644 0.043733615 0.05131282 0.02765553

action_model._discrete_distribution.branches.0.bias f4 [5]
000000 06 21 b3 bc 46 8e 03 be 92 04 08 bd 50 ea 12 bc
       -0.021866333 -0.12847242 -0.033207484 -0.008966997
000010 af ce 13 3e
       0.14434312

action_model._discrete_distribution.branches.1.weight f4 [2, 256]
000000 fb 05 a1 3c f5 d8 4b bd f6 f2 f8 3c 5d 35 16 bd
       0.019656172 -0.049767453 0.03038929 -0.036671985
000010 ab 24 c8 3c 95 43 a4 bc fa 44 fc bc ef 0c 15 3c
       0.024431547 -0.020051757 -0.03079461 0.009097322
000020 60 23 70 bd 23 dc 83 3c fd 57 84 bd ad 00 f1 bc
       -0.058627486 0.01609618 -0.06462095 -0.029419268
000030 8f 1c 1d 3a 65 72 35 bd dc c5 fd ba 84 4f 68 bc
       0.000599333 -0.04429855 -0.0019361335 -0.014179114
000040 b9 0c 67 bd 26 b7 84 3b dc 44 ac 3b ec 8e b4 3c
       -0.056408618 0.0040501533 0.005257232 0.022040807
000050 0f 74 53 3b d1 b5 8b 3c 1c f1 9e bc 5a e1 52 bc
       0.0032265221 0.01705447 -0.01940208 -0.012871111
000060 c3 22 88 bc 2b 46 5d 3c fd 88 c2 3c c5 c3 90 3c
       -0.016618138 0.013505499 0.023746962 0.017671475
000070 55 de ab 3d 47 f1 06 bc 78 a7 02 3c 95 11 fa 3c
       0.08392016 -0.008236236 0.007974498 0.030525962
000080 15 59 a6 3c fd 65 b3 3c db 1d 07 3d 5a 07 0f 3d
       0.02030615 0.021899218 0.032987457 0.03491912
000090 a5 d8 8c 3c 57 a2 d6 bc 87 50 35 bd c3 b3 49 3c
       0.017193148 -0.026200457 -0.04426625 0.012310925
0000a0 aa 2d ed bc db fa 84 3d cc 53 88 3d c1 59 78 bb
       -0.028952438 0.064931594 0.06656608 -0.0037895294
0000b0 48 57 21 3a b7 25 38 3d 8a 19 8f bb 47 45 52 3d
       0.00061546685 0.044957843 -0.004367058 0.0513356
0000c0 44 d8 0e 3d e8 22 64 bd 72 16 ac bd dd a7 89 3c
       0.034874216 -0.05569735 -0.084027186 0.016803676
0000d0 6e e2 04 bc 28 3e 78 bc 91 d6 c0 bc 52 28 c6 bc
       -0.008110626 -0.015151538 -0.023539813 -0.024189148
0000e0 56 a5 1f 3d fd ed 9e b9 55 68 59 3b d8 4d 70 bc
       0.038976036 -0.00030313423 0.003317376 -0.014666997
0000f0 1f 5d 9e bc 52 f6 0d 3d c8 1c 70 3d 71 a2 cc bc
       -0.019331513 0.034658737 0.058621198 -0.024979802
000100 8b 32 cf bc 32 8d 6e bc 6b 77 1e bd 32 02 c7 3c
       -0.025292655 -0.014560031 -0.038688105 0.024293039
000110 40 18 30 3d ca fe 52 b9 a9 d7 63 3d 05 29 d6 3b
       0.042991877 -0.00020122077 0.05562559 0.0065356516
000120 59 7c 3b 3d 6a 5a 00 bd 92 bc 37 3d 18 73 20 bd
       0.045772884 -0.031336226 0.04485757 -0.039172262
000130 bb a4 c0 3d a7 56 32 bd d5 e4 81 bc 38 c3 1a 3d
       0.0940642 -0.04353967 -0.015856186 0.03778383
000140 d2 a2 c2 3d c8 bf a5 bd 83 ec cf 3c 54 b7 87 bb
       0.09503712 -0.0809322 0.025381332 -0.0041417275
000150 cf 98 f5 bc 7f cf 30 bd 48 e5 47 3b a2 71 94 3c
       -0.029980091 -0.043166634 0.0030501653 0.01812059
000160 01 13 30 3d 5c 5a 6f 3b 6c 50 04 bd 7b 86 8b 3d
       0.042986874 0.0036522364 -0.03230326 0.068127595
000170 18 62 95 3d 91 03 01 3d cd 5a ba bd da 4b d2 ba
       0.072941005 0.03149754 -0.0909935 -0.0016044334
000180 a8 73 59 bd 29 2e c5 bc 7a 4e 4f 3d b1 1c 4c bd
       -0.053088814 -0.024069862 0.05061195 -0.04983205
000190 f0 f9 c3 bd b2 94 c0 3c de e5 58 bd db a3 0b 3c
       -0.09569156 0.023508403 -0.052953593 0.008522953
0001a0 d3 88 69 3c f0 35 62 bc 1e e5 a7 bd 17 8f b0 3c
       0.014253813 -0.013806805 -0.081979975 0.021552606
0001b0 ce 91 46 3d 55 ab 58 3d 1c 97 7d bd 4f 84 30 3d
       0.048478894 0.05289777 -0.061911687 0.04309493
0001c0 ba 88 8c bb 64 bf 2b bd 8d 80 3c bd fc 34 20 3c
       -0.00428876 -0.04193057 -0.046021033 0.009778257
0001d0 23 94 92 3d 79 44 f0 bc 83 36 14 bd 18 cc 53 bd
       0.07157161 -0.029329525 -0.0361848 -0.05170831
0001e0 d1 75 80 bc 94 4b 9c 3d 50 b0 de bc 35 62 af bb
       -0.01568118 0.07631603 -0.027183682 -0.0053522834
0001f0 ce 35 5e bd 1c cf a5 3d 47 fe 3a bd d8 87 08 3e
       -0.05425053 0.080961436 -0.045652654 0.1333307
000200 59 5d 34 3d 3f 80 d6 3d fe 5f 86 3d e6 17 1f 3d
       0.044034336 0.1047368 0.06561278 0.03884115
000210 fc 22 5c bd e4 02 9c 3b 2d 31 a9 bb 25 9f ce bc
       -0.0537443 0.004761087 -0.005163333 -0.02522237
000220 b2 a5 43 bc 27 da 65 3b 84 89 e3 bc 3a a3 e6 3c
       -0.01194136 0.0035072656 -0.027775533 0.028154004
000230 4e a3 36 3d bd 9d 94 3d c0 7e 15 3d be 0d 1d bc
       0.044589333 0.07256649 0.03649783 -0.009585796
000240 f5 2f 88 3d 5f bd 4e bd fc d8 a4 bd 8e 6b ed bc
       0.06649772 -0.050473567 -0.08049199 -0.02898195
000250 b8 20 de 3c 79 78 a3 bd de ad 3f 3d f5 d4 e0 bb
       0.02711521 -0.07981963 0.046796672 -0.006861324
000260 11 57 10 3e c1 08 ca bb 4c 35 fa 3c f9 b0 84 3d
       0.14095713 -0.0061655943 0.030542992 0.06479067
000270 ad 8f 06 bd 0e 43 89 3d e3 92 ce 3c d4 f9 3b bd
       -0.032851864 0.06702243 0.025216525 -0.04589255
000280 83 c3 01 bd 96 a1 60 bd 72 38 43 3c 6b 96 24 3d
       -0.031680595 -0.0548416 0.011915313 0.040182512
000290 b1 42 1f bd 39 ab 88 bd c0 2f 36 bb f9 70 3c bd
       -0.03888196 -0.06673283 -0.0027799457 -0.046006177
0002a0 6a 5c b5 bc e7 3e 38 bd 1b ec 37 bd 01 c2 43 bd
       -0.022138793 -0.044981863 -0.044902902 -0.04779244
0002b0 a7 32 3f 3d 46 d9 4d 3d e9 9b 53 3d 72 9b a0 3c
       0.046679165 0.050256036 0.05166236 0.019605372
0002c0 ce ff b6 bd c7 87 1a 3c 70 91 b0 3c b5 ba 07 bd
       -0.089355096 0.009431786 0.021553725 -0.033137042
0002d0 20 52 08 3c 44 73 a1 3c 13 ff 92 3c 54 1a 6d 3d
       0.008320361 0.019708283 0.017943894 0.057886437
0002e0 96 ae 3f 3d dc 86 0d bd bb e1 ff bb 52 2b 9b 3c
       0.046797357 -0.03455244 -0.0078088916 0.018941555
0002f0 74 d8 b2 3d 73 a8 08 3d 85 58 48 bb 69 aa 46 3c
       0.087326914 0.03336377 -0.003057034 0.01212559
000300 cb 58 d1 3b 57 fb dc 3d 10 c2 8f 3b aa 53 64 3d
       0.006388759 0.10790127 0.0043871477 0.05574385
000310 7e c0 db ba 38 3e 87 bd 64 49 33 3d 7d 94 fc bc
       -0.0016765741 -0.06603664 0.043771163 -0.030832523
000320 ac 45 f7 bd 8a f4 96 bd 2d 42 ba ba 09 87 91 bd
       -0.12073836 -0.07370861 -0.0014210396 -0.07105834
000330 98 78 40 3d 4d bb 64 3c 49 41 92 bc 2a 79 85 bd
       0.046990007 0.013960672 -0.017853396 -0.06517251
000340 89 ea c6 3c 51 1e c2 3d 15 77 18 3d 15 64 6b 3c
       0.024281757 0.09478439 0.03722294 0.014367123
000350 15 b9 5d 3d b0 f5 fe bc 19 f3 c3 3d a5 1a 30 bd
       0.054131586 -0.031123012 0.095678516 -0.04299416
000360 7f 76 bc bc b9 9c c4 bc f9 54 50 3d 05 72 71 bc
       -0.023005722 -0.024000512 0.050862286 -0.014736657
000370 20 cd bf bb c6 eb 1d bc 54 05 80 3d be 59 71 3c
       -0.00585331 -0.009638732 0.06251016 0.014730869
000380 d9 80 e2 3b 8c ee 45 bd 6b ea c8 3d e6 8f e1 bc
       0.0069123325 -0.0483232 0.09810337 -0.027534436
000390 67 51 eb 3d d1 55 6d 3d 9f 74 0e 3c e1 53 d3 bc
       0.11490136 0.05794317 0.008694797 -0.025796833
0003a0 c6 60 08 bd 31 a8 82 3c a5 7a 26 bd e3 0c d7 3a
       -0.033295415 0.01594934 -0.040644307 0.0016407039
0003b0 db 70 c8 3c c7 ec cb bd 40 98 91 bc 0d 53 b5 3a
       0.024467876 -0.09957271 -0.017772794 0.0013833955
0003c0 ce b0 ba bc e7 fa 40 3d 00 77 3b bd 53 d8 b1 bd
       -0.022789385 0.04711428 -0.045767784 -0.08683839
0003d0 a6 2e d0 3d c4 c0 88 bb 54 d9 12 3d 9c 06 8c 3c
       0.101651475 -0.00417337 0.03585179 0.017092995
0003e0 ec 0e 60 3d fb f9 ee 3c c3 53 44 bd 74 59 09 3e
       0.05470173 0.029171934 -0.047931444 0.1341303
0003f0 19 7c 8f 3d cb 71 34 3d 42 cd 16 bb f3 af cb bd
       0.070060916 0.044053834 -0.0023010527 -0.09945669

action_model._discrete_distribution.branches.1.bias f4 [2]
000000 5a 1d af bd 59 1d af 3d
       -0.0855052 0.085505195
