Assets/ML-Agents/Models/BattleSystem_poca 3.onnx (onnx, 24006 bytes, 16 tensors)

discrete_act_size_vector f4 [1, 6]
5.0 2.0 2.0 3.0 1.0 4.0
00000000: 0000 a040 0000 0040 0000 0040 0000 4040
00000010: 0000 803f 0000 8040

network_body._body_endoder.seq_layers.0.weight f4 [32, 9]
0.0687543 0.30223578 0.08550321 -0.08073788 -0.07338796 -0.049347628 -0.31033456 -0.15457615
-0.28910536 0.012217988 0.26589277 -0.033934746 -0.039609894 -0.466622 0.4393794 -0.05402631
-0.6533733 0.19431153 0.32516712 0.5671352 -0.1384166 0.052380003 -0.032200277 -0.05032779
0.30817223 0.20128414 0.16174836 0.44747233 -0.2639297 -0.19693087 0.02401849 -0.50315267
-0.33936614 -0.31002688 -0.063572295 0.022647867 0.012115278 0.10191191 0.57867664 -0.32157314
0.6259747 0.5583001 0.16878201 0.169135 0.20597304 -0.3099397 -0.7285197 -0.050755344
0.27470294 0.26926064 0.44831184 0.36947018 -0.20662747 -0.032386925 -0.47013092 0.3748074
-0.40338573 0.6349053 0.24319325 0.052794404 0.13126388 0.105294 -0.0031000162 0.30186853
-0.03310847 0.2854303 -0.18463753 0.87066996 0.29698107 0.10268053 0.24517794 0.28494626
0.50897676 -0.31671268 -0.215984 0.3534698 0.62588304 0.14728943 -0.3595941 0.63381004
-0.056354158 0.7762073 1.3074838 -0.15400793 -0.18425274 0.2781501 0.14457196 -0.38154018
0.6047516 -0.14688072 -0.21626358 0.22633542 -0.036434125 -0.03530658 -0.15793116 0.19770406
-0.28135163 0.41609338 -0.07645322 -0.07497626 0.6535671 0.45703074 0.592564 0.68466413
0.17996408 0.14990321 0.04859015 -0.19436224 -0.2450244 0.15246353 1.0186634 0.21294363
0.14192863 0.04952002 0.23940659 0.3181054 -0.9368086 -0.35980794 0.24071577 -0.0372809
0.14343508 -0.29865155 0.10484263 -0.3515826 -0.040231157 -0.21206905 0.24000233 -0.011683168
-0.18187971 -0.31305242 0.2967965 0.8232672 -0.1946383 0.017150367 0.28098506 -0.15357314
-0.11189854 0.61556107 0.45321116 0.25905544 0.61898786 -0.44373527 -0.37183055 -0.7225605
0.6085447 -0.35258505 0.41738003 -0.018572707 -0.95984864 0.30249602 -0.12552916 -0.104260474
-0.20588201 -0.09467378 -0.45674795 0.092125975 -0.37372765 -0.7634193 -0.08600309 -0.12458338
0.008499325 0.30179045 -0.08135947 -0.033121873 0.26012304 -0.17702994 -0.17292953 -0.04624422
-0.16385086 0.11670231 -0.289022 -0.1987299 0.4572712 0.17742513 0.033851784 -0.76954186
0.39941794 -0.17780098 0.12889998 -0.19667646 -0.47357488 -0.057892732 -0.0022465386 0.13108806
-0.34185743 -0.40315917 -0.103143014 0.07310609 0.055781215 -0.66910565 -0.17996241 -0.19690748
0.83039886 -0.0046621556 0.6573902 -0.021610204 0.3420543 -0.49079892 -0.37952238 -0.37003046
-0.022763995 0.7706654 0.14427155 0.23159648 0.14982493 -0.12181686 -0.2810222 -0.018196985
0.16456574 0.6936166 0.12725174 -0.02027395 1.2006677 -0.21584585 0.23466331 0.10498044
-0.11310302 -0.066005334 -0.20384668 -0.17776461 -0.2065592 -0.20826638 -0.070740566 0.06287301
-0.2218298 -0.39568552 0.53943056 -0.5109698 0.018729934 -0.1818158 -0.2438118 -0.7159954
-0.270204 0.47987628 -0.09647446 0.48981842 0.16834968 0.09179581 0.37907478 -0.8277745
0.03210206 -0.08397939 -0.32474214 -0.29278246 -0.25169903 0.12329115 0.05000704 0.273062
0.22931385 0.58476746 0.07469766 0.08031319 -0.1385813 -0.462582 -0.12684232 -0.03604803
00000000: 0ecf 8c3d a6be 9a3e 4f1c af3d e759 a5bd
00000010: 6d4c 96bd bd20 4abd 2ce4 9ebe 3649 1ebe
00000020: 9e05 94be f52d 483c 1923 883e 29ff 0abd
00000030: fc3d 22bd 14e9 eebe 56f6 e03e b14a 5dbd
00000040: 7943 27bf 9af9 463e 4e7c a63e c62f 113f
00000050: 15bd 0dbe 6a8c 563d 70e4 03bd 8324 4ebd
00000060: c0c8 9d3e 6e1d 4e3e 5da1 253e 181b e53e
00000070: cb21 87be 3fa8 49be 6dc2 c43c 9dce 00bf
00000080: 66c1 adbe d8bb 9ebe 3132 82bd 0588 b93c
00000090: 297f 463c 31b7 d03d 2724 143f 3ca5 a4be
000000a0: e13f 203f c1ec 0e3f 31d5 2c3e ba31 2d3e
000000b0: 99ea 523e 6bb0 9ebe 4480 3abf d6e4 4fbd
000000c0: dda5 8c3e 88dc 893e 2189 e53e 322b bd3e
000000d0: 2796 53be 27a8 04bd 00b5 f0be c1e6 bf3e
000000e0: 9388 cebe 2789 223f a707 793e f23e 583d
000000f0: 0a6a 063e 61a4 d73d a429 4bbb 838e 9a3e
00000100: bf9c 07bd ec23 923e 9f11 3dbe 3ae4 5e3f
00000110: e70d 983e 2b4a d23d ed0f 7b3e 7ae4 913e
00000120: 4d4c 023f 2a28 a2be e92a 5dbe fef9 b43e
00000130: df39 203f 0ad3 163e b81c b8be 6041 223f
00000140: 9ed3 66bd 86b5 463f a15b a73f 41b4 1dbe
00000150: c0ac 3cbe b169 8e3e ac0a 143e 3c59 c3be
00000160: 00d1 1a3f e667 16be 3374 5dbe 79c4 673e
00000170: f33b 15bd a29d 10bd b5b8 21be ef72 4a3e
00000180: 520d 90be 310a d53e 8193 9cbd 278d 99bd
00000190: 2c50 273f efff e93e 46b2 173f 2646 2f3f
000001a0: 8148 383e 3a80 193e 7706 473d e506 47be
000001b0: ade7 7abe 661f 1c3e 9063 823f e50d 5a3e
000001c0: bd55 113e 81d5 4a3d 0027 753e b6de a23e
000001d0: b0d2 6fbf bf38 b8be 327e 763e dbb3 18bd
000001e0: a5e0 123e dbe8 98be bcb7 d63d a202 b4be
000001f0: 6dc9 24bd a128 59be 2cc3 753e c26a 3fbc
00000200: ad3e 3abe 6848 a0be b6f5 973e a4c1 523f
00000210: 434f 47be ed7e 8c3c 46dd 8f3e 4742 1dbe
00000220: 102b e5bd 6995 1d3f 4b0b e83e eaa2 843e
00000230: fd75 1e3f 4531 e3be 9360 bebe baf9 38bf
00000240: 96c9 1b3f 0786 b4be d6b2 d53e ca25 98bc
00000250: a4b8 75bf c2e0 9a3e b78a 00be 8486 d5bd
00000260: bcd2 52be 54e4 c1bd deda e9be 8bac bc3d
00000270: 3b59 bfbe 726f 43bf 6322 b0bd 9225 ffbd
00000280: c140 0b3c 4784 9a3e cb9f a6bd cdaa 07bd
00000290: d92e 853e 5647 35be 7014 31be 946a 3dbd
000002a0: 85c8 27be 9f01 ef3d b1fa 93be da7f 4bbe
000002b0: 731f ea3e efae 353e 2ba8 0a3d b200 45bf
000002c0: 8280 cc3e 7611 36be 5bfe 033e 8e65 49be
000002d0: 6878 f2be ee20 6dbd aa3a 13bb f33b 063e
000002e0: f007 afbe e16a cebe a53c d3bd a5b8 953d
000002f0: d87a 643d 824a 2bbf 1148 38be 1da2 49be
00000300: 0595 543f ffc4 98bb b94a 283f e207 b1bc
00000310: be21 af3e ff49 fbbe c250 c2be a274 bdbe
00000320: 8f7b babc 544a 453f ecbb 133e a127 6d3e
00000330: b56b 193e 1e7b f9bd 24e2 8fbe d811 95bc
00000340: ec83 283e dc90 313f 484e 023e 8e15 a6bc
00000350: 7baf 993f b206 5dbe 944b 703e fcff d63d
00000360: 8ea2 e7bd ce2d 87bd 2fbd 50be ed07 36be
00000370: 4184 53be c843 55be 6ee0 90bd 91c3 803d
00000380: 5a27 63be 4b97 cabe 1f18 0a3f ebce 02bf
00000390: 856f 993c ec2d 3abe cda9 79be 794b 37bf
000003a0: 2e58 8abe 58b2 f53e 6794 c5bd 7bc9 fa3e
000003b0: dc63 2c3e 71ff bb3d 1716 c23e 08e9 53bf
000003c0: 737d 033d 63fd abbd 9a44 a6be 95e7 95be
000003d0: b2de 80be 1280 fc3d 2fd4 4c3d c8ce 8b3e
000003e0: 40d1 6a3e 52b3 153f 16fb 983d 3e7b a43d
000003f0: 42e8 0dbe 8cd7 ecbe f4e2 01be 19a7 13bd

network_body._body_endoder.seq_layers.0.bias f4 [32]
-0.008542596 -0.026821414 -0.04382 -0.11649405 0.13216507 0.028233824 0.12481039 0.0284348
0.06367439 0.008617582 -0.014945956 0.11414144 0.05937747 0.05194408 0.07101337 0.070980415
-0.046887714 -0.2052889 0.02981897 -0.06367859 -0.14689206 0.09369149 -0.04314551 0.16022326
-0.017998196 0.007166668 0.025793947 0.106704995 -0.04718118 -0.16851312 0.095503576 -0.025350438
00000000: 3ff6 0bbc 95b8 dbbc 9a7c 33bd 6f94 eebd
00000010: 4856 073e 9f4a e73c 979c ff3d 19f0 e83c
00000020: b867 823d c230 0d3c e2df 74bc fdc2 e93d
00000030: ca35 733d 51c3 543d 756f 913d 2e5e 913d
00000040: 550d 40bd 4137 52be ea46 f43c ec69 82bd
00000050: df6a 16be 53e1 bf3d 59b9 30bd 9111 243e
00000060: f470 93bc 5ed6 ea3b d44d d33c 2688 da3d
00000070: 0e41 41bd b48e 2cbe 6197 c33d b9ab cfbc

network_body._body_endoder.seq_layers.2.weight f4 [32, 32]
-0.3263578 -0.07792855 0.113688074 0.17112339 -0.29625806 -0.19438425 -0.04937125 -0.12493946
0.09268543 -0.0076108463 0.0382913 0.105337486 -0.2383666 -0.26308915 -0.20569773 -0.4143645
0.12298522 0.10504203 -0.31116974 0.072340414 -0.14917295 -0.1942911 -0.112895176 -0.09157873
-0.030268108 -0.062625684 -0.08537765 0.009021939 -0.19603479 -0.042157743 0.050341766 0.2183942
-0.16778028 0.11986529 -0.054930393 -0.1819985 0.07712407 0.22625655 0.051786426 -0.044784304
0.22697465 -0.10851232 -0.32919225 0.21679266 -0.18558672 -0.38439056 0.098219454 -0.071924195
-0.111807376 0.23192188 -0.33769244 -0.35012957 0.16318011 -0.4204877 0.1693595 0.006955585
-0.22118463 0.16463342 -0.09954299 -0.29655415 -0.16958736 0.015814472 -0.008300895 -0.19028367
0.011349296 0.039284658 -0.33574548 -0.06326 -0.09192487 0.25804192 -0.18164809 0.04241235
-0.2305896 -0.11244031 -0.28028685 0.026598904 0.14582545 -0.08208001 -0.14197263 -0.02667199
0.47084618 -0.2185648 0.027592354 0.3099415 -0.070429064 -0.04091937 0.26481992 0.12238995
-0.0802129 0.12680843 0.03125726 -0.12376883 0.11494674 6.840452e-05 -0.22531317 0.105458744
-0.12037153 0.40259916 0.09066092 0.3075249 -0.045419365 0.043762732 0.011951695 0.123362035
0.09252308 -0.0018371338 -0.16123572 0.1253728 0.13112688 -0.17070109 -0.056343585 0.2551673
0.017394865 -0.040207718 0.045511313 0.04004463 0.081639655 -0.09704142 -0.13236864 0.11309267
-0.06593775 -0.014197868 0.078548424 -0.0881257 -0.20438667 -0.20213076 -0.2541438 -0.0074198837
0.07654505 -0.10179653 0.19005886 0.4803958 0.107271396 0.31015387 -0.016845722 -0.009618089
-0.3179327 0.117133126 -0.16787963 -0.22683062 -0.26552022 -0.007315783 -0.26279157 0.020311482
-0.4018502 -0.008220549 0.10927467 -0.039200462 -0.053914536 -0.16309118 -0.10097844 -0.28856987
0.03533682 0.33478147 -0.11383266 -0.2714609 0.062920906 0.09484107 -0.3523096 -0.14271908
-0.010645269 0.009433598 0.22585912 0.24985206 -0.055775948 -0.0649305 -0.146204 -0.2708011
-0.25081766 -0.10363472 0.001756626 -0.060793433 -0.24363074 -0.00069349055 0.1987872 0.062312145
0.2580265 0.1348722 -0.19082175 -0.10356918 0.31598258 -0.47461122 -0.3886718 -0.27349326
0.33045352 0.08488532 0.036336828 0.099581525 0.11248849 -0.076533146 -0.10608946 -0.076027624
0.17288949 0.22946063 0.052278098 0.0035961398 -0.076328464 -0.20977904 0.068530336 0.04145396
-0.13758206 -0.1278097 -0.11686755 -0.0720567 0.21496384 0.1058564 0.21027477 -0.113015085
0.29972434 -0.22648628 0.0009952121 0.36768028 -0.3026048 0.5226958 0.32701612 0.16902067
0.057262424 -0.02689475 0.35143712 -0.064818464 0.19109018 -0.40540192 0.2630749 0.19189146
-0.017149597 -0.30033356 -0.1895241 -0.24044785 0.15954375 -0.0588722 0.19468035 -0.057223443
-0.024580056 0.19700986 0.20166762 -0.24387792 0.058425248 -0.117528945 -0.046426155 0.07306288
0.14335825 -0.15373552 0.10625066 -0.0019676567 0.051000092 0.30546457 -0.059691306 -0.004171417
-0.015968759 0.29218233 0.12929139 -0.35368037 0.040766403 0.15357615 -0.019447709 -0.10538502
00000000: 5f18 a7be 0199 9fbd 4bd5 e83d f83a 2f3e
00000010: 23af 97be aa0c 47be 8239 4abd 42e0 ffbd
00000020: dcd1 bd3d 6864 f9bb 57d7 1c3d 2ebb d73d
00000030: 6016 74be 9fb3 86be 6da2 52be 9527 d4be
00000040: addf fb3d 4720 d73d a451 9fbe 3627 943d
00000050: cbc0 18be 3ff4 46be 9635 e7bd a18d bbbd
00000060: d3f4 f7bc e541 80bd 7ada aebd c1d0 133c
00000070: 58bd 48be 99ad 2cbd 2b33 4e3d bba2 5f3e
00000080: 98ce 2bbe ef7b f53d b1fe 60bd d15d 3abe
00000090: 39f3 9d3d ccaf 673e 011e 543d bf6f 37bd
000000a0: 0b6c 683e b53b debd e38b a8be e5fe 5d3e
000000b0: 720a 3ebe d7ce c4be 4827 c93d fe4c 93bd
000000c0: 44fb e4bd ee7c 6d3e 06e6 acbe 2f44 b3be
000000d0: b018 273e 2a4a d7be 946c 2d3e adeb e33b
000000e0: 397e 62be aa95 283e 32dd cbbd f2d5 97be
000000f0: 4fa8 2dbe 5a8d 813c 7a00 08bc b9d9 42be
00000100: 66f2 393c f3e8 203d d5e6 abbe 758e 81bd
00000110: 1b43 bcbd 121e 843e f501 3abe 93b8 2d3d
00000120: ae1f 6cbe 1b47 e6bd c281 8fbe f2e5 d93c
00000130: 4453 153e 9019 a8bd 4661 11be 387f dabc
00000140: c012 f13e 73cf 5fbe 5c09 e23c a7b0 9e3e
00000150: 1d3d 90bd 129b 27bd 7a96 873e 95a7 fa3d
00000160: a946 a4bd 12da 013e 9d07 003d 837a fdbd
00000170: 3269 eb3d 6674 8f38 7fb8 66be c1fa d73d
00000180: 5985 f6bd 7a21 ce3e 6fac b93d e773 9d3e
00000190: a809 3abd 8d40 333d 0bd1 433c 3ca5 fc3d
000001a0: be7c bd3d fbcb f0ba fa1a 25be ba61 003e
000001b0: 2046 063e 44cc 2ebe 88c8 66bd 4aa5 823e
000001c0: ad7f 8e3c d9b0 24bd 126a 3a3d d705 243d
000001d0: b132 a73d a7bd c6bd a58b 07be 219d e73d
000001e0: 5f0a 87bd 2d9e 68bc ffdd a03d 3f7b b4bd
000001f0: bd4a 51be 5efb 4ebe 231f 82be 7f22 f3bb
00000200: a7c3 9c3d b37a d0bd ca9e 423e 70f6 f53e
00000210: 1bb1 db3d 7dcc 9e3e 0a00 8abc 3095 1dbc
00000220: 13c8 a2be 7ee3 ef3d a3e8 2bbe 4946 68be
00000230: 44f2 87be 3cb9 efbb 9e8c 86be 4464 a63c
00000240: 4fbf cdbe 7baf 06bc 66cb df3d aa90 20bd
00000250: 7dd5 5cbd 6001 27be c9cd cebd 6ebf 93be
00000260: 57bd 103d 7a68 ab3e 1921 e9bd ecfc 8abe
00000270: addc 803d 093c c23d ed61 b4be f324 12be
00000280: 7f69 2ebc 618f 1a3c 9d47 673e 38d9 7f3e
00000290: 5275 64bd 48fa 84bd 80b6 15be 71a6 8abe
000002a0: 2c6b 80be 713e d4bd 963e e63a 8902 79bd
000002b0: 567a 79be 5dcb 35ba df8e 4b3e 053b 7f3d
000002c0: 0d1c 843e f01b 0a3e c766 43be 141c d4bd
000002d0: 78c8 a13e 3e00 f3be fdff c6be 4f07 8cbe
000002e0: 3431 a93e 5bd8 ad3d edd5 143d 66f1 cb3d
000002f0: 5e60 e63d 69bd 9cbd 6e45 d9bd 5fb4 9bbd
00000300: f109 313e baf7 6a3e 8f21 563d 37ad 6b3b
00000310: 1952 9cbd 51d0 56be a259 8c3d a1cb 293d
00000320: 50e2 0cbe 8ce0 02be 4158 efbd 7792 93bd
00000330: 7b1f 5c3e 3ecb d83d 4552 573e 7474 e7bd
00000340: 7875 993e 05ec 67be c771 823a 9740 bc3e
00000350: 04ef 9abe 64cf 053f a86e a73e c113 2d3e
00000360: 018c 6a3d 6152 dcbc 91ef b33e 8bbf 84bd
00000370: 25ad 433e d790 cfbe c1b1 863e 327f 443e
00000380: 507d 8cbc 52c5 99be 9b12 42be f637 76be
00000390: 705f 233e fa23 71bd 495a 473e 2163 6abd
000003a0: 1d5c c9bc f4bc 493e f581 4e3e 22bb 79be
000003b0: 504f 6f3d 04b3 f0bd 5a29 3ebd fea1 953d
000003c0: 81cc 123e d86c 1dbe f299 d93d cdf3 00bb
000003d0: 79e5 503d da65 9c3e df7e 74bd 62b0 88bb
000003e0: ead0 82bc ec98 953e f664 043e 9815 b5be
000003f0: acfa 263d 1143 1d3e cd50 9fbc 1ad4 d7bd

network_body._body_endoder.seq_layers.2.bias f4 [32]
-0.10177756 0.0133028515 -0.03273385 0.008701718 -0.0035472326 -0.060671978 0.00433445 0.006840785
0.027608765 0.05198406 0.09606908 -0.056900334 0.05439316 -0.03291358 -0.120575555 -0.054239303
-0.054036934 0.028224628 -0.13217202 0.20100708 -0.0119054755 0.07523051 -0.038943063 0.06351049
0.029703388 -0.065225065 -0.033351958 -0.08437694 0.0035704395 0.03010961 0.014992816 0.027854856
00000000: c170 d0bd 34f4 593c ee13 06bd a791 0e3c
00000010: b078 68bb 2e83 78bd 0008 8e3b aa28 e03b
00000020: c72b e23c 3ded 543d debf c43d 5310 69bd
00000030: 5dcb 5e3d 64d0 06bd 51f0 f6bd 082a 5ebd
00000040: d555 5dbd 5637 e73c 1a58 07be cdd4 4d3e
00000050: 2f0f 43bc 7412 9a3d c382 1fbd ca11 823d
00000060: 8554 f33c b894 85bd 109c 08bd d1cd acbd
00000070: 09fe 693b 6ea8 f63c 6ea4 753c de2f e43c

action_model._discrete_distribution.branches.0.weight f4 [5, 32]
-0.020967318 0.003312928 0.057483424 0.030455753 -0.014488747 -0.0053623607 0.15306658 0.007631471
-0.036646098 0.023662103 -0.00016468298 0.027132133 -0.027272003 0.031886585 0.010515007 0.10101203
0.024722666 -0.01815458 0.0010692313 -0.017933818 0.07908114 -0.025860269 0.02187353 0.0049131038
0.14791408 0.030901773 -0.0053813546 0.008463172 0.04383585 0.118216105 0.109297805 -0.034752898
0.09077956 -0.04132766 0.19005388 -0.03702033 0.18615335 0.14915088 -0.008845438 0.052404873
0.07129055 0.16626315 -0.020295959 0.08197646 0.110293515 0.18547769 0.0054886746 0.10255985
0.104090706 0.15188581 0.01695023 -0.17482278 0.19047458 -0.08916827 0.004592316 0.004712788
0.060156442 0.1612637 0.16447903 -0.010940816 -0.0028125579 -0.008261115 0.0071755904 0.13268667
0.012610244 0.008354404 0.034139656 0.0025821566 0.038149197 0.045482766 0.075811945 0.040303715
0.03971123 0.047814906 -0.008093171 0.019441543 0.0061879177 0.021487366 -0.025004705 -0.028776843
0.038458046 0.04758861 0.0011608917 -0.0018199163 0.053204514 0.016501997 0.043209367 -0.03438919
0.020952586 0.02616444 -0.0045816456 0.025689129 -0.0026943353 -0.036939796 -0.024373246 0.039305065
0.0031656518 -0.007080383 -0.04281204 0.006239076 0.014823856 0.023249915 0.035272382 -0.01284025
-0.04026614 -0.017436657 0.05655362 -0.0046504172 0.0050525386 -0.028918827 0.04909779 0.032970365
0.04981896 0.008926142 0.035451565 -0.0072584627 -0.023487465 -0.011243288 0.0033054093 0.0067621134
0.08579279 -0.0057216613 -0.018633736 0.03281263 -0.0047385558 0.111220494 0.11910136 0.0050205705
0.0051121847 0.044128623 -0.20206556 0.030144263 -0.18128829 -0.18867019 -0.1940079 -0.041710246
-0.0075997123 -0.17154917 0.026546253 -0.023772359 -0.1205027 -0.20008656 -0.007356952 -0.1509248
-0.17031689 -0.14906903 -0.013386938 0.13126378 -0.20646968 0.13536705 0.004402767 0.032973215
-0.25420278 -0.13361153 -0.13121513 0.04117225 0.011559147 -0.1303935 -0.15174465 -0.1560971
00000000: a7c3 abbc b51d 593b bd73 6b3d 587e f93c
00000010: 3662 6dbc beb6 afbb 7cbd 1c3e 6b11 fa3b
00000020: 381a 16bd 07d7 c13c c0ae 2cb9 3544 de3c
00000030: 8969 dfbc 829b 023d 2347 2c3c 65df ce3d
00000040: 3087 ca3c eab8 94bc 7325 8c3a f1e9 92bc
00000050: 4bf5 a13d ead8 d3bc 1e30 b33c 1afe a03b
00000060: ca76 173e b725 fd3c 1356 b0bb 1ea9 0a3c
00000070: 388d 333d 491b f23d 87d7 df3d 0e59 0ebd
00000080: a2ea b93d 3147 29bd 7c9d 423e a1a2 17bd
00000090: fc9e 3e3e 02bb 183e 75ec 10bc 7ea6 563d
000000a0: c800 923d e340 2a3e b643 a6bc 46e3 a73d
000000b0: 91e1 e13d dded 3d3e 57da b33b e60a d23d
000000c0: 822d d53d f487 1b3e 35db 8a3c be04 33be
000000d0: c50b 433e db9d b6bd 247b 963b bb6d 9a3b
000000e0: 9a66 763d 5022 253e 316d 283e 1c41 33bc
000000f0: e452 38bb a159 07bc 3721 eb3b 04df 073e
00000100: 329b 4e3c e9e0 083c 06d6 0b3d 6639 293b
00000110: 5542 1c3d 234c 3a3d 4b43 9b3d 8215 253d
00000120: 3ea8 223d 90d9 433d 3899 04bc df43 9f3c
00000130: 04c4 ca3b 4606 b03c abd6 ccbc 6abd ebbc
00000140: 2f86 1d3d 46ec 423d 1029 983a 428a eeba
00000150: faec 593d 322f 873c 4efc 303d aedb 0cbd
00000160: c2a4 ab3c cf56 d63c a121 96bb 0272 d23c
00000170: 7293 30bb 2f4e 17bd 67aa c7bc 59fe 203d
00000180: d376 4f3b 8f02 e8bb ad5b 2fbd 2a71 cc3b
00000190: c2df 723c 9b76 be3c c679 103d e95f 52bc
000001a0: 1cee 24bd 52d7 8ebc c5a4 673d 8762 98bb
000001b0: c48f a53b 2de7 ecbc c41a 493d ef0b 073d
000001c0: f70e 4c3d f43e 123c a935 113d 66d8 edbb
000001d0: c968 c0bc c535 38bc 919f 583b b894 dd3b
000001e0: 21b4 af3d c67c bbbb c7a5 98bc 8966 063d
000001f0: e345 9bbb 92c7 e33d 6aeb f33d 9983 a43b
00000200: 1d84 a73b 37c0 343d 46ea 4ebe 1af1 f63c
00000210: a3a3 39be c232 41be 02aa 46be 5dd8 2abd
00000220: 0207 f9bb 96aa 2fbe 8777 d93c 40be c2bc
00000230: 1fca f6bd 7ee3 4cbe 9612 f1bb 088c 1abe
00000240: 8d67 2ebe 8da5 18be e354 5bbc 036a 063e
00000250: ca6c 53be a99d 0a3e 1645 903b ec0e 073d
00000260: de26 82be 76d1 08be 425d 06be 3ca4 283d
00000270: 9462 3d3c e085 05be f362 1bbe ebd7 1fbe

action_model._discrete_distribution.branches.0.bias f4 [5]
-0.050210964 -0.20625141 -0.043938242 0.008792773 0.20767127
00000000: 03aa 4dbd 9233 53be 96f8 33bd 900f 103c
00000010: c7a7 543e

action_model._discrete_distribution.branches.1.weight f4 [2, 32]
-0.0066057323 0.004382204 -0.007865921 0.0123583395 0.01859391 -0.0030416187 -0.023832832 -0.014798972
0.0016983048 -0.059726086 0.0013450341 0.014138495 -0.07400959 -0.03842144 0.0058822557 -0.034797896
-0.0665681 -0.006447731 0.057565376 -0.056525446 -0.03154027 -0.0055166758 0.012802463 -0.05617341
0.02118821 -0.011377795 -0.0090019265 0.028421273 -0.033037614 0.0093605025 0.030000698 0.0007983181
-0.0202936 -0.00034481575 0.058533546 0.0022338696 -0.011953473 0.021845313 0.011792341 0.056102604
-0.028839024 0.029824216 -0.0014080302 0.012218906 0.066618316 0.030255005 0.0038719547 0.06906472
0.051671162 -0.024980348 -0.06499914 0.045563594 0.034168728 -0.008614941 -0.019888004 0.027841818
-0.014728088 -0.006394874 0.009104571 0.02810641 0.002400344 0.014552551 -0.02402242 -0.066680305
00000000: e674 d8bb 9798 8f3b 10e0 00bc a27a 4a3c
00000010: 4152 983c e555 47bb 123d c3bc 6377 72bc
00000020: a799 de3a 57a3 74bd db4b b03a 25a5 673c
00000030: 5792 97bd cd5f 1dbd f0bf c03b 3d88 0ebd
00000040: db54 88bd 7d47 d3bb acc9 6b3d 3a87 67bd
00000050: 5f30 01bd 3bc5 b4bb 6cc1 513c 1716 66bd
00000060: e692 ad3c ee69 3abc d17c 13bc bbd3 e83c
00000070: 7352 07bd cb5c 193c 06c4 f53c 3946 513a
00000080: c43e a6bc 63c8 b4b9 dfc0 6f3d 1d66 123b
00000090: 80d8 43bc f1f4 b23c aa34 413c d8cb 653d
000000a0: d13f ecbc ea51 f43c a78d b8ba ce31 483c
000000b0: 2f6f 883d 58d9 f73c 9fc0 7d3b ce71 8d3d
000000c0: 24a5 533d 96a3 ccbc 451e 85bd e4a0 3a3d
000000d0: 82f4 0b3d ae25 0dbc 2bec a2bc 8614 e43c
000000e0: 144e 71bc 178c d1bb 572b 153c 6a3f e63c
000000f0: 174f 1d3b d36d 6e3c abca c4bc af8f 88bd

action_model._discrete_distribution.branches.1.bias f4 [2]
0.052239705 -0.052239727
00000000: 4df9 553d 53f9 55bd

action_model._discrete_distribution.branches.2.weight f4 [2, 32]
-0.040472474 -0.01649123 0.05449561 -0.007078259 -0.010887816 0.022121765 0.045956686 0.04662391
-0.023560526 -0.01283873 0.04799066 0.0172915 0.047358576 0.049417395 -0.00040965903 0.097768225
0.061232477 0.019166281 -0.0068494724 0.04975888 0.040119912 0.01581654 -0.012414746 0.019364186
0.004169527 0.0576225 0.040208343 0.030562628 0.09673712 -0.017555596 0.002039748 0.055276114
0.009471489 -0.0052800584 -0.072151564 -0.003063928 -0.020299824 -0.08128829 -0.044963043 -0.028955381
-0.015650481 -0.012763438 -0.008297003 -0.02877137 -0.06257707 -0.0888734 -0.0110498145 -0.06915899
-0.08838203 -0.06055221 -0.039295495 -0.04268566 -0.069779344 -0.031945445 0.01133189 -0.034156416
0.011199122 -0.021032702 -0.021442754 -0.039923307 -0.0880097 -0.024270961 -0.039297186 -0.03370872
00000000: 77c6 25bd 9e18 87bc ca36 5f3d bdf0 e7bb
00000010: cf62 32bc b438 b53c 143d 3c3d b7f8 3e3d
00000020: 0102 c1bc 8959 52bc db91 443d e7a6 8d3c
00000030: 11fb 413d e569 4a3d 81c7 d6b9 b53a c83d
00000040: e8ce 7a3d 9b02 9d3c 8a71 e0bb f8cf 4b3d
00000050: c754 243d b091 813c 3867 4bbc a4a1 9e3c
00000060: 87a0 883b 9205 6c3d 81b1 243d 7a5e fa3c
00000070: 1c1e c63d c1d0 8fbc 4bad 053b 3569 623d
00000080: 4e2e 1b3c 5704 adbb 33c4 93bd 2fcc 48bb
00000090: d14b a6bc 7a7a a6bd 2b2b 38bd d633 edbc
000000a0: 7035 80bc bd1d 51bc 27f0 07bc f0b1 ebbc
000000b0: 6828 80bd 4203 b6bd 480a 35bc 3ba3 8dbd
000000c0: a301 b5bd 9805 78bd 50f4 20bd 29d7 2ebd
000000d0: 79e8 8ebd 3ad9 02bd 64a9 393c 99e7 0bbd
000000e0: 867c 373c c64c acbc b7a8 afbc 9f86 23bd
000000f0: 6e3e b4bd e5d3 c6bc 16f6 20bd 2812 0abd

action_model._discrete_distribution.branches.2.bias f4 [2]
-0.051736757 0.051736742
00000000: ece9 53bd e8e9 533d

action_model._discrete_distribution.branches.3.weight f4 [3, 32]
-0.0016292614 0.019610675 -0.006442937 -0.00083225267 -0.026230568 0.0029477037 -0.00862483 -0.019612782
0.010020162 0.00505265 -0.016563794 -0.018205328 -0.029422645 -0.05704684 0.015677053 0.011341259
-0.018220117 0.012825852 -0.024756929 0.029031495 -0.027820213 0.020314667 0.0010551905 0.01919209
-0.018674467 -0.041452486 -0.00066119136 0.018961212 -0.015406806 0.06142873 0.009287929 0.028940268
0.009920303 0.012390575 -0.14112055 -0.0042288466 -0.050711963 -0.076626234 -0.11559387 -0.05496455
0.0052226665 -0.09129791 0.007117288 0.010198115 -0.0663005 -0.10289668 0.010018751 -0.17409106
-0.14660057 -0.11663537 -0.0077718445 0.06818789 -0.1193513 0.01929882 -0.0020779085 -0.07040999
-0.037665024 -0.06504224 -0.046778113 -0.004466858 -0.011025662 -0.093970254 -0.12544875 -0.079463035
0.040639326 -0.008444037 0.1551354 0.00365038 0.043379888 0.057915546 0.14134845 0.058475867
0.02948656 0.07028731 0.0038036432 0.029592145 0.04633497 0.17229874 -0.00032603054 0.1809895
0.13937026 0.086299576 0.061792146 -0.12060425 0.17166896 -0.07989686 0.039977565 0.021078838
0.09634691 0.10206345 0.12824787 -0.026702428 0.051504243 0.030452566 0.04683361 0.07128734
00000000: f18c d5ba 91a6 a03c 461f d3bb 882b 5aba
00000010: 7de1 d6bc 432e 413b 294f 0dbc fcaa a0bc
00000020: 9b2b 243c b390 a53b cbb0 87bc 5723 95bc
00000030: c207 f1bc f3a9 69bd 2a6d 803c b0d0 393c
00000040: 5b42 95bc 8623 523c 0bcf cabc 75d3 ed3c
00000050: 37e7 e3bc f26a a63c 514e 8a3a bb38 9d3c
00000060: 32fb 98bc 15ca 29bd cd53 2dba 8b54 9b3c
00000070: d46c 7cbc b19c 7b3d 662c 183c 2414 ed3c
00000080: c488 223c d701 4b3c e881 10be 2392 8abb
00000090: 59b7 4fbd 37ee 9cbd 7bbc ecbd 8222 61bd
000000a0: e722 ab3b 66fa babd 2438 e93b ff15 273c
000000b0: 8ec8 87bd 7fbb d2bd b025 243c ed44 32be
000000c0: 761e 16be 86de eebd f5aa febb 18a6 8b3d
000000d0: 746e f4bd 8f18 9e3c 852d 08bb 1d33 90bd
000000e0: a446 1abd de34 85bd 689a 3fbd b95e 92bb
000000f0: faa4 34bc 7a73 c0bd a375 00be 84bd a2bd
00000100: 6c75 263d dc58 0abc d0db 1e3e 373b 6f3b
00000110: 1caf 313d da38 6d3d a6bd 103e 6484 6f3d
00000120: cc8d f13c cbf2 8f3d 8b46 793b 3a6b f23c
00000130: bdc9 3d3d 156f 303e 14ef aab9 5055 393e
00000140: 14b7 0e3e d5bd b03d c319 7d3d 5cff f6bd
00000150: fdc9 2f3e f7a0 a3bd 84bf 233d 87ad ac3c
00000160: 8751 c53d a406 d13d 6953 033e 0dbf dabc
00000170: 1df6 523d a977 f93c 99d4 3f3d 19ff 913d

action_model._discrete_distribution.branches.3.bias f4 [3]
0.037351985 0.12630166 -0.16304508
00000000: 65fe 183d 3955 013e 4af5 26be

action_model._discrete_distribution.branches.4.weight f4 [1, 32]
0.009802986 -0.0068792314 -0.020036055 -0.00028178163 -0.0018431072 -0.0014401529 -0.0013155997 -0.002901645
-0.009009199 -0.004203151 -0.0023879798 0.011848522 -0.0011224308 -0.002755869 0.003352978 -0.017390687
0.004292221 -0.0026319197 -0.024085917 -0.011618565 -0.012234745 -0.01089542 0.009460162 0.007499912
0.007059338 0.01019909 0.0070685535 -0.000515577 0.0009384053 -0.032734994 -0.017543716 -0.0044916137
00000000: b49c 203c 2d6b e1bb a722 a4bc 17bc 93b9
00000010: 6a94 f1ba 83c3 bcba 3370 acba 8629 3ebb
00000020: 529b 13bc 96ba 89bb a77f 1cbb 4e20 423c
00000030: 871e 93ba cf9b 34bb a3bd 5b3b ea76 8ebc
00000040: c2a5 8c3b 497c 2cbb d44f c5bc cb5b 3ebc
00000050: 3d74 48bc b482 32bc ccfe 1a3c d2c1 f53b
00000060: 0552 e73b 151a 273c 539f e73b c927 07ba
00000070: 50ff 753a 2115 06bd d7b7 8fbc 632e 93bb

action_model._discrete_distribution.branches.5.weight f4 [4, 32]
-0.053535417 -0.00065075187 -0.119295 0.023595307 -0.02686876 0.015345864 0.05981326 -0.037645213
-0.030980535 -0.041068874 0.01666514 -0.010146927 -0.08774475 -0.097234115 0.016109893 -0.035611734
-0.08664506 -0.039468497 0.023159653 0.052727353 -0.08638314 0.0079306355 0.010173365 -0.032888655
0.0046713073 -0.043723118 -0.064748935 0.030290507 0.050475277 0.0789553 0.02816907 -0.05524251
0.04309832 0.012695525 -0.003224365 -0.0049629426 0.02489235 0.048241638 -0.09147442 0.035373773
0.06162612 -0.006686016 -0.04773925 0.03435621 0.02578622 0.020000022 0.0048855515 -0.03758716
-0.022056663 0.022582307 0.011342306 -0.034586526 -0.028312653 0.017394302 -0.004414724 -0.031865973
-0.015715979 0.014104773 0.013379366 0.017132167 0.018712811 -0.038733993 0.013697223 0.06965577
0.02929958 0.032591626 -0.01729567 -0.00477579 -0.007196569 0.013480045 -0.08216554 0.040508553
-0.009990812 0.03504866 0.03208814 -0.010096166 0.05127207 0.015252975 0.0066665476 0.04999972
-0.02693024 -0.025517417 0.008063588 0.004667369 -0.0068524173 -0.020710748 -0.018304665 0.04872767
0.017713133 -0.002088603 0.0024373273 0.027964637 -0.02402346 0.038945194 0.042529125 0.049515944
0.03430935 0.01961471 0.07267184 -0.03725006 -0.040248316 -0.08077485 0.088045195 -0.041754086
0.010057629 0.048174184 -0.017640127 0.02882678 0.02019746 0.04295939 0.0052899364 0.07736724
0.082639925 -0.03260604 -0.032627396 -0.014773399 0.041581582 -0.010008373 -0.031989496 -0.020935768
-0.0071299993 0.015840478 0.031021133 -0.052084282 -0.026549812 -0.02855643 -0.018399103 -0.077497125
00000000: f447 5bbd 3897 2aba f050 f4bd f24a c13c
00000010: e01b dcbc 386d 7b3c c0fe 743d de31 1abd
00000020: e4ca fdbc d637 28bd 5585 883c 4c3f 26bc
00000030: 85b3 b3bd ae22 c7bd e5f8 833c 9cdd 11bd
00000040: f772 b1bd b8a9 21bd 50b9 bd3c a3f8 573d
00000050: a5e9 b0bd 7fef 013c 2fae 263c 41b6 06bd
00000060: c411 993b 0317 33bd 179b 84bd cc23 f83c
00000070: 2abf 4e3d 51b3 a13d d2c2 e63c f845 62bd
00000080: dd87 303d e400 503c de4f 53bb 2ea0 a2bb
00000090: 0beb cb3c 0699 453d f156 bbbd 17e4 103d
000000a0: ac6b 7c3d 5e16 dbbb 3b8a 43bd 19b9 0c3d
000000b0: 9f3d d33c 16d7 a33c fa16 a03b fef4 19bd
000000c0: 2db0 b4bc 88fe b83c 14d5 393c 9aaa 0dbd
000000d0: f0ef e7bc 7f7e 8e3c 64a9 90bb e585 02bd
000000e0: ccbe 80bc b517 673c 2135 5b3c c258 8c3c
000000f0: 9c4b 993c 89a7 1ebd 516a 603c afa7 8e3d
00000100: ac05 f03c cc7e 053d a6af 8dbc 3b7e 9cbb
00000110: 32d1 ebbb 68db 5c3c 6846 a8bd 4cec 253d
00000120: 81b0 23bc 2f8f 0f3d da6e 033d 646a 25bc
00000130: a902 523d 9de7 793c 0e73 da3b 82cc 4c3d
00000140: cf9c dcbc e709 d1bc 241d 043c bbf0 983b
00000150: 3e8a e0bb 96a9 a9bc aaf3 95bc aa96 473d
00000160: 221b 913c f2e0 08bb 91bb 1f3b 1816 e53c
00000170: d9cc c4bc ff84 1f3d 0533 2e3d 3bd1 4a3d
00000180: f687 0c3d 07af a03c f9d4 943d 8593 18bd
00000190: 6bdb 24bd 496d a5bd 0a51 b43d 5506 2bbd
000001a0: c1c8 243c 4b52 453d 0782 90bc 2426 ec3c
000001b0: 2575 a53c 2ff6 2f3d 3457 ad3b b772 9e3d
000001c0: 1f3f a93d e98d 05bd 4ea4 05bd 200c 72bc
000001d0: 7351 2a3d 29fa 23bc 6b07 03bd 7d81 abbc
000001e0: c5a2 e9bb e4c3 813c 0820 fe3c 5456 55bd
000001f0: fe7e d9bc 2def e9bc b7b9 96bc d0b6 9ebd

action_model._discrete_distribution.branches.5.bias f4 [4]
0.07472715 -0.0040161903 0.012474267 -0.057567734
00000000: 8c0a 993d 3f9a 83bb de60 4c3c 25cc 6bbd
