Assets/ML-Agents/Models/BattleSystem_poca 3.onnx (onnx, 370157 bytes, 20 tensors)

discrete_act_size_vector f4 [1, 7]
000000 00 00 a0 40 00 00 00 40 00 00 a0 40 00 00 60 41
       5.0 2.0 5.0 14.0
000010 00 00 80 3f 00 00 80 40 00 00 80 40
       1.0 4.0 4.0

network_body.observation_encoder.processors.0.normalizer.running_mean f4 [49]
000000 97 ad 30 3f 20 b7 39 3f f5 a7 40 3f c2 98 37 3f
       0.6901488 0.7254505 0.7525628 0.71717465
000010 77 fb 36 3f 3a 89 35 3f 8b f3 47 3f b6 7e 31 3f
       0.71477455 0.70912516 0.7810599 0.6933397
000020 8d b6 74 43 7b 91 7d 43 5f fb 50 43 a6 63 5d 43
       244.71309 253.56828 208.98192 221.38925
000030 18 47 f0 42 c7 58 76 43 94 8d 7a 43 1a 30 6e 43
       120.138855 246.34679 250.55304 238.1879
000040 83 53 88 43 d6 61 8a 43 e9 a9 51 43 6e d0 75 43
       272.65244 276.76434 209.66371 245.81418
000050 0f ca 39 43 90 c9 42 43 c0 10 57 43 1a 9c 40 43
       185.78929 194.78735 215.06543 192.60977
000060 49 99 82 43 65 99 ce 42 f9 c4 ea 42 2d c5 0a 43
       261.19754 103.2996 117.38471 138.77022
000070 42 ab 99 b9 cc 31 fd 3c 1d 81 2a 3d ec c8 b4 3d
       -0.0002931003 0.030907534 0.04162704 0.08827385
000080 45 e8 a5 3a 1a 9d 0a bc ec 72 24 3b 94 be bf 3b
       0.0012657723 -0.0084603075 0.0025092913 0.005851576
000090 39 62 e7 3c 4f dd 05 3d 80 66 00 3d c8 e1 f6 3c
       0.028245078 0.03268176 0.03134775 0.030136958
0000a0 c9 26 39 3d 04 00 61 3d 2f 60 b0 3d 8e ed b6 3d
       0.045203004 0.054931656 0.086120956 0.08932029
0000b0 5a d4 b8 3d 71 0c 18 bc 26 30 73 3b 11 27 d6 3b
       0.09024878 -0.00928031 0.0037107556 0.006535419
0000c0 00 00 00 00
       0.0

network_body._body_endoder.seq_layers.0.weight f4 [256, 49]
000000 9a 1b 6d be 6b 7e e2 3c 94 a0 32 3e b4 79 06 3e
       -0.2315506 0.027648171 0.17444068 0.13132364
000010 43 71 24 3d 34 2b 1f 3d c7 4a 7c 3e 43 42 76 3d
       0.040147077 0.03885956 0.246379 0.060121786
000020 16 a8 07 3f 53 e4 11 bc d9 d4 81 be 08 8e c9 3c
       0.52990854 -0.008904534 -0.25357702 0.024603859
000030 4d 7a 0e 3e 53 34 ea 3d b0 72 ed 3d 6f 93 00 3e
       0.13913842 0.11435761 0.115941405 0.12556241
000040 f9 4d 91 3e a1 49 2b bd e5 23 a6 3d 90 1b a1 bd
       0.283798 -0.041818265 0.08112315 -0.07866585
000050 b4 62 41 3e 65 76 80 bb f1 e6 08 be f0 2c 0e 3e
       0.18885309 -0.0039203637 -0.13369347 0.1388433
000060 bb 5e 5e bb d5 bc 56 3e 24 cc 05 be f1 56 82 be
       -0.0033930975 0.20970471 -0.13066155 -0.25456956
000070 6a bf 8c be 85 f7 8f 3d 37 dd ff 3e 8c 07 af bc
       -0.27489787 0.070296325 0.4997346 -0.021365903
000080 27 d6 a9 3d 28 4c e6 3d a0 04 85 3c 87 14 4b bd
       0.082927994 0.112449944 0.016237557 -0.049580123
000090 b4 eb 58 be 5d 43 90 bd 23 d7 ac bd 58 56 8b 3e
       -0.21183664 -0.070440985 -0.084394716 0.27214313
0000a0 81 b9 4e be 27 da 81 be a8 e9 ad bd 7c 3a 4d bd
       -0.20187952 -0.2536175 -0.08491832 -0.050104603
0000b0 4b 0f ab 3d 78 18 04 be aa bc 8b 3d 60 12 6a be
       0.08352526 -0.12899959 0.06823094 -0.22858572
0000c0 35 d5 41 ba 42 b0 68 bd c6 54 da 3d fc 45 d5 3e
       -0.0007394136 -0.056808718 0.106607005 0.41654956
0000d0 d3 1c 58 be 3c 34 7d be e6 5a 43 3d d3 e6 23 bd
       -0.21104746 -0.24726957 0.04769411 -0.040015053
0000e0 9a ec 60 be 5a a9 0c 3e 65 35 87 bd 4a 1c c2 3d
       -0.21965256 0.13736477 -0.06601981 0.09478052
0000f0 0a c4 da 3c c7 36 82 3e 2c eb 0a 3e 18 75 51 3e
       0.026704807 0.25432417 0.13566273 0.20454824
000100 f2 02 f4 3d cc 2e b7 3d c5 44 c6 3d 09 ce 61 3c
       0.11914624 0.08944473 0.096810855 0.013782033
000110 bc c9 ad bc a2 e1 2f 3c 31 1b c0 be 3f 7c bf bd
       -0.021214359 0.010734947 -0.37520745 -0.0934987
000120 f1 69 87 bd f3 11 03 bd ea 8f 04 be e2 94 12 be
       -0.066120036 -0.03199954 -0.12945524 -0.14314607
000130 d0 85 33 be 8c 4b 2e be bc 32 b4 bd 0a ae 7d bd
       -0.17531514 -0.17021006 -0.08798739 -0.061933555
000140 7d cb 14 3e 16 4a c8 bc ad e4 fb bd c0 85 fc bd
       0.1453075 -0.02444939 -0.12299476 -0.12330198
000150 0e d1 f2 bd 03 d7 7c 3d c0 d5 bc bc e0 7a fa bd
       -0.1185628 0.06172849 -0.023051143 -0.12230468
000160 ac 10 36 3d f9 69 e8 3d a2 15 74 3e 39 77 70 bc
       0.044449493 0.11348338 0.23836377 -0.014676862
000170 44 16 8e be 11 65 a2 bd 6c 34 28 3e 9f b4 6b 3d
       -0.27751362 -0.07929433 0.16426247 0.0575453
000180 a1 56 26 be 34 f4 a2 3c eb 3e 73 be 69 c2 22 3e
       -0.16243984 0.019891836 -0.2375447 0.15894474
000190 58 76 85 3d 0b 94 95 be 6b be 77 bd 4f 23 65 3d
       0.06516713 -0.2921451 -0.06048433 0.055941876
0001a0 06 aa 94 3c ab b5 78 3e 8a aa 43 be 22 86 b5 3e
       0.01814748 0.24288051 -0.19108024 0.35453898
0001b0 91 5a e2 bc d7 50 ca 3d 0a 7c 2c 3d 8c 45 8a be
       -0.027631076 0.098787 0.04211048 -0.27006185
0001c0 4c 38 47 bc fa 2f b6 ba be a5 3f bc be 0a a2 bc
       -0.012159418 -0.0013899796 -0.011697231 -0.019780513
0001d0 63 d6 1b bc b1 9e 1c bd 97 2d 81 bd 30 cb d3 be
       -0.009511563 -0.038237277 -0.06307524 -0.41365957
0001e0 9e a4 d2 3d 03 51 f1 bd c8 86 96 be 66 b9 3b be
       0.102853045 -0.1178303 -0.29399705 -0.18332443
0001f0 15 90 67 3d 49 27 bb 3c f5 cb 28 bd ab 00 ac bd
       0.05653389 0.022845881 -0.041210134 -0.08398565
000200 a1 1a 29 be 5b bb 5b 3e ae 89 79 3e 87 55 17 be
       -0.16514064 0.21458189 0.24368927 -0.1477872
000210 15 9c bb 3e cb 6d 97 bc da 3f 8f be 01 8e b3 3c
       0.3664252 -0.01848497 -0.27978402 0.021918299
000220 84 f0 99 be 9f 37 a6 bc 34 1b 9e 3e 2f a5 80 bd
       -0.3006631 -0.020290194 0.3088013 -0.06281506
000230 e0 22 84 be bd 52 8a 3e 85 db 51 bd ec c5 fb 3d
       -0.25807858 0.2701625 -0.05123474 0.1229361
000240 ce bd 1f 3e 4b b9 73 3e bf b7 50 bd 3d 9b 8b be
       0.15599748 0.23801152 -0.050956484 -0.27266875
000250 fb d5 03 3e d5 0e a2 3e f3 a4 5b 3e c3 2a 2e 3d
       0.12874596 0.3165194 0.21449642 0.04252125
000260 51 e9 34 be 8c 7a a8 3d af 64 9e bd 2c 41 5c 3e
       -0.17667128 0.08226499 -0.077340476 0.21509236
000270 f9 ea 28 be 74 25 31 3e 9f e0 21 3e fc b4 e4 bd
       -0.16495885 0.17299443 0.15808342 -0.111673325
000280 14 3c 15 3e 56 be d5 3d 2f e7 d8 3d dc 86 c1 be
       0.14573699 0.10436694 0.1059097 -0.37798202
000290 44 7d 02 3d a6 f6 d8 3e c5 2f 5b 3e 40 5a 23 3e
       0.031857744 0.42375678 0.21404941 0.15952396
0002a0 30 2a b6 be 0b ad e6 bd ef d4 41 bc 35 49 99 bd
       -0.35579062 -0.11263474 -0.0118305525 -0.07484666
0002b0 e4 31 dd 3e 3c 9a 73 be 13 3c ee 3d ef e7 99 3e
       0.43202126 -0.23789304 0.11632552 0.30059764
0002c0 23 30 56 be d8 e5 6a bd bc 4e 03 3e 32 be 1e 3e
       -0.209168 -0.057348102 0.12823004 0.15502241
0002d0 24 a3 eb 3d b3 81 1d 3e d0 83 89 3d 41 b3 0c be
       0.11505726 0.15381508 0.06714594 -0.13740255
0002e0 c4 c6 47 3e 42 f6 34 be 55 1a b2 3d c1 66 b9 3d
       0.19509417 -0.17672065 0.08696429 0.09052802
0002f0 4d d9 bd 3d 47 fc 25 3e 9f 52 04 be 93 f4 96 3e
       0.092699625 0.16209517 -0.12922142 0.2948347
000300 9d 49 b4 bd d8 43 0f 3e ca f6 0e 3e ea a4 39 3e
       -0.08803103 0.13990724 0.1396133 0.18129316
000310 7c e3 15 be dc 30 ea bd 65 37 a1 3e 53 d2 84 3e
       -0.1463756 -0.114351004 0.31487575 0.25941715
000320 a5 c5 3b 3e c5 93 85 bd 3c 07 39 be aa 28 08 bd
       0.18337114 -0.065223254 -0.18069166 -0.033241905
000330 2c 66 2d 3d a0 3c 87 3b dd 2e 0a be 2e 59 35 3e
       0.042333767 0.0041271 -0.1349444 0.177098
000340 a1 65 82 be 36 6b 10 3e 5f 4e 03 be 3b 4f c0 bd
       -0.25468162 0.14103398 -0.12822865 -0.09390112
000350 7b 22 be be 4b 28 25 3d 1e 65 67 bc e3 2f 16 3e
       -0.37135682 0.04032163 -0.014123229 0.14666705
000360 7b ae fc 3c 44 8e 04 3e 37 89 7c 3d f4 90 27 3e
       0.030844918 0.12944895 0.061654296 0.16363889
000370 28 d8 c9 3e 9c 98 89 3e 22 f1 d4 bd f3 5b 12 3d
       0.39422727 0.26874244 -0.10397555 0.03573222
000380 c6 a6 04 3e 55 46 87 3d 88 20 ff 3d b0 d4 34 be
       0.12954244 0.06605212 0.12457377 -0.17659259
000390 3c 11 44 be 87 75 d5 3d d8 9f 63 3d 9e 8c e2 bd
       -0.191472 0.10422807 0.05557236 -0.11061977
0003a0 5d 86 b3 3d 55 e0 86 3c d9 25 0d 3c bc fe 92 bd
       0.08765862 0.016464392 0.008614981 -0.07177493
0003b0 83 0c 14 3a 0a 73 b8 bd e6 e1 0f 3e 14 64 3d be
       0.00056476163 -0.09006317 0.14051017 -0.18495208
0003c0 6a d1 ed 3d 05 71 10 bd e3 04 12 be 9d f8 80 bd
       0.11612208 -0.035264034 -0.14259677 -0.06297419
0003d0 b1 4b 3e bc 98 0d 00 3f 49 b6 0e 3e 3c 44 b4 3d
       -0.011614726 0.5002074 0.13936724 0.08802077
0003e0 c1 97 ac 3e a1 02 3c 3e 98 f0 ba 3d 75 d8 0d be
       0.3370953 0.18360378 0.09127921 -0.13852103
0003f0 4e 5f ac be 07 c1 80 3e dd 67 13 bd df 5d c0 3d
       -0.33666462 0.25147268 -0.035987724 0.093929045

network_body._body_endoder.seq_layers.0.bias f4 [256]
000000 28 fc b9 3d f5 ac 6b 3c ec 82 b8 39 02 1e d9 3c
       0.09081298 0.014384498 0.0003519276 0.026503567
000010 d2 cc 0c 3d 9a 37 9b 3d 9b 1d 68 3c 04 2c 52 3c
       0.03437502 0.075789645 0.014167215 0.012827877
000020 68 e0 85 3d 87 df f9 bb 92 a7 85 3d 8c 76 97 3d
       0.06536943 -0.0076255235 0.06526102 0.07395658
000030 86 ce 94 bb 7f 5c f1 3c 83 83 07 3b 06 a9 81 3d
       -0.004541221 0.02946305 0.0020677752 0.06331067
000040 89 bf ac 3d 32 42 d0 bc c0 5e 63 bc a7 75 1e bd
       0.0843497 -0.02542219 -0.013877571 -0.03868642
000050 b8 b2 88 bc d5 85 2f 3d 8d 4b 81 bc 12 10 c6 3d
       -0.016686782 0.04285224 -0.015783096 0.09671034
000060 da a2 00 3d 69 09 25 bd a3 14 fe 3d b7 2f 58 bc
       0.031405307 -0.040292177 0.1240628 -0.01319497
000070 32 6a 7c 3d ee d9 91 3d 66 32 02 3d df 6d 9b bc
       0.061624713 0.07121645 0.031786345 -0.018973289
000080 6f 9d 11 bd 4b c7 82 3c 27 37 c3 3d bc a3 bf 3c
       -0.03555053 0.01596417 0.09532004 0.023393504
000090 44 4a c5 bb 4e 4e 05 3d 8e d2 08 3d f3 a3 c2 3d
       -0.006020816 0.03254538 0.033403926 0.09503927
0000a0 85 87 24 3d 66 91 30 bd 68 e5 2c 3d f5 51 8f bb
       0.040168304 -0.043107413 0.042210966 -0.0043737837
0000b0 ce f2 4e 3c ac 4f 41 3d fd 30 0b 3d 42 da 87 3d
       0.012631131 0.04719512 0.033982266 0.06633426
0000c0 e9 b0 90 3b 2f ef 05 3c 83 72 f5 3c da 04 1e 3d
       0.0044156206 0.008174702 0.02996183 0.038578846
0000d0 e2 dd b1 3d 8c 72 07 3d a3 4c de 3d 16 e5 0c 3b
       0.08684899 0.033068225 0.10854461 0.002149885
0000e0 bc 95 73 3d 49 29 81 3d c3 d9 88 3d 3a 3f a6 b9
       0.05946897 0.06306703 0.0668216 -0.00031709095
0000f0 2f 3a b3 3c e9 50 c3 bc 57 b0 81 3d cd 1b 4b 3d
       0.02187833 -0.023842292 0.06332462 0.04958706
000100 86 7c 53 bc 12 d1 53 bd f7 ee 99 3d 10 98 36 3d
       -0.012908107 -0.051713057 0.07516282 0.04457861
000110 8c 11 31 3d be fe d4 3c aa 7f 80 bd 00 b2 10 3d
       0.043229625 0.026000377 -0.0627435 0.035326004
000120 43 bb d2 3c 13 20 be 3d c3 26 bd 3d 06 41 23 3d
       0.025724059 0.092834614 0.09235909 0.039856933
000130 19 4a 94 3d 27 ba 53 3d 42 f3 87 3d 83 a1 8a 3d
       0.072406955 0.0516912 0.066381946 0.06769087
000140 b3 77 df 3d b4 4b 6d 3b 68 69 40 bd 2a bb 29 bd
       0.10911503 0.0036208453 -0.046975523 -0.04143826
000150 70 78 94 3d e1 41 2b 3d dc 01 ea 3c 17 8e 9b 3d
       0.07249534 0.041810874 0.02856534 0.07595461
000160 6a 12 c9 bc c2 a6 b9 bc b7 63 c3 3d 2f b4 b8 3d
       -0.024544913 -0.022662524 0.095405035 0.09018742
000170 5a dc e1 3c c6 9c e0 bc e9 92 2f 3d f7 29 82 3d
       0.027570892 -0.027418505 0.042864714 0.063556604
000180 b6 e5 de 3c f0 f2 83 3d 8e 7d c8 3c 28 2b 82 3c
       0.027209144 0.06442821 0.024473932 0.01588972
000190 40 fa 20 bd 8b 78 35 3d 11 45 c3 bc 0f 9b 3a bc
       -0.039301157 0.04430441 -0.023836644 -0.011389508
0001a0 0f b9 63 bc fc a2 88 bc da e9 8a 3d a0 85 60 3d
       -0.013899102 -0.01667928 0.06782885 0.054814935
0001b0 ee 0d b1 3d a6 a9 c9 3b 71 a9 99 3c f2 f1 16 3d
       0.08645235 0.006154257 0.018757554 0.03685183
0001c0 24 7f 68 3d c9 62 ea 3c 66 fc 08 3d ee 59 20 3d
       0.056761876 0.028611558 0.03344383 0.039148264
0001d0 21 24 9d 3c e7 fb ee 3d 66 f9 ba 3c 93 40 e0 3c
       0.019182267 0.1166914 0.022824 0.027374541
0001e0 f1 d7 05 3b 35 35 e0 bb 73 dd b9 3a f3 13 e2 bb
       0.00204229 -0.0068422803 0.0014180377 -0.006899351
0001f0 26 9a 71 bd 65 8e 9b bc a5 7d 33 bb 3e 65 ae 3b
       -0.058984898 -0.018988797 -0.0027388122 0.0053221276
000200 95 b3 79 3d 94 c9 5d 3d 11 a7 0b bd 78 1e c4 3a
       0.06096228 0.054147318 -0.034094874 0.0014962694
000210 ff b4 26 3d cd 27 2c 3d 26 46 2c 3d 08 6d af 3c
       0.040699955 0.042030144 0.042059086 0.021414295
000220 dc 26 1b 3d 8f 64 d9 3a 1d b5 41 3d 94 e6 98 3c
       0.037878856 0.0016585755 0.047291864 0.018664636
000230 a6 ba 71 3d 20 95 bc 3c 2c cc 62 3d f9 02 e5 bb
       0.059015892 0.023020327 0.055370495 -0.0069888798
000240 12 91 f2 3c 2a a9 09 bd 89 89 34 3d 82 b7 a4 bc
       0.02961019 -0.033608593 0.044076476 -0.020107035
000250 86 2a 0c 3c b2 5e 5c 3c f5 59 1c 3d 05 ea 83 bc
       0.00855506 0.0134503115 0.038171727 -0.0161028
000260 e0 cb 6f bc 39 5c c7 3c 83 31 ca 3c 3a 1b 2d 3d
       -0.01463601 0.024335967 0.024681812 0.042262293
000270 f6 58 bc 3b 35 83 ae 3d 14 67 b2 bc 9c 02 97 3c
       0.0057479097 0.085211195 -0.021777667 0.018433861
000280 f3 16 bf bb 63 8c 3b 3d 7e 81 70 bb f9 83 71 3d
       -0.005831593 0.04578818 -0.0036698277 0.05896375
000290 07 22 62 3d f2 62 48 3b f8 94 66 3d 4b f2 02 3d
       0.055208232 0.0030576554 0.05629441 0.03196935
0002a0 8c ef 43 3d 32 ba 7b 3d ee 6c 73 bc fb 44 33 3d
       0.04783587 0.061456867 -0.014857514 0.043766957
0002b0 5a 47 9c 3d 67 81 95 3d 95 e2 a3 3c 4e fc eb 3d
       0.07630797 0.07300072 0.020005504 0.11522733
0002c0 e8 21 ee 3d 27 e7 ed bc 4a 8a 4e 3c 92 02 5c 3d
       0.11627561 -0.029040886 0.012606213 0.05371339
0002d0 17 b5 cf 3c de 4b 92 3d 10 f3 80 3b 0a 6e d0 3c
       0.025354905 0.07143377 0.0039352253 0.025443096
0002e0 7d 9d 0b bd 52 2f 9d 3d b9 bd 41 3d 05 de 77 3d
       -0.03408574 0.07675041 0.047300074 0.06051447
0002f0 47 f9 24 3d 37 78 96 3d 6a 8e b5 3c b2 e3 54 3d
       0.040276792 0.07347148 0.022162635 0.05197496
000300 7f 85 b9 3c 95 d2 32 3d c6 8d a9 bb f7 50 d7 3b
       0.022646664 0.043657858 -0.0051743714 0.006570931
000310 fc a8 4e bd 2b dd a7 3d 0c 36 8d bc 37 17 91 3d
       -0.050454125 0.08196481 -0.017237686 0.07084506
000320 a6 4a c2 3a d1 0c a3 bc e1 67 3c bc cd de bd 3b
       0.0014823272 -0.019903572 -0.011499376 0.005794382
000330 af 01 2a 3c d4 3d 61 3d 57 ea 27 3d 8b 52 17 3d
       0.010376378 0.054990605 0.04099497 0.036943953
000340 e6 f6 8f 3d 6d 97 8d 3b f2 95 f6 3c 04 62 b6 3c
       0.07029514 0.00432103 0.030100796 0.022263534
000350 f7 b1 b3 3c 21 46 40 3b db cb c8 3d 43 1a 96 3c
       0.021935446 0.0029338675 0.09804507 0.01832307
000360 18 a4 b8 bc 2f af cf bc 72 91 6f bc c7 d3 c1 3c
       -0.022539183 -0.025352089 -0.014622079 0.023660554
000370 1e bc 80 bc 0c 6b 16 3d 23 b9 06 bc 46 72 bd 3c
       -0.015714701 0.03672318 -0.008222851 0.023125779
000380 21 d2 3a 3d f1 3a 04 3d 11 a9 4e 3d 22 fe 85 bb
       0.04561055 0.032282773 0.050454203 -0.004089133
000390 70 8a be bc d0 81 4b 3d 37 ec 30 3d d4 35 13 3d
       -0.023259372 0.049684346 0.043194022 0.035940006
0003a0 fe 42 93 3c 52 8a a7 3c 4c e1 60 3b 84 fa 54 bb
       0.01797628 0.020451698 0.0034313975 -0.0032497952
0003b0 08 3a ab 3c db 9c 8d 3d 01 03 86 bc 1b 41 47 bd
       0.020901695 0.069146834 -0.016358854 -0.048646074
0003c0 e0 63 c3 3c cb 48 90 3d c5 25 13 3d 73 6f 03 3e
       0.023851335 0.07045134 0.03592469 0.12835483
0003d0 21 fa cb 3c dc d7 df 3a f2 7b ab ba 52 b9 cd 3c
       0.024899544 0.0017077881 -0.0013083203 0.025112782
0003e0 ed 17 8f 3d c8 23 55 3d aa 4e a0 3d 12 e5 f9 3b
       0.06986985 0.052036077 0.07827504 0.0076261843
0003f0 c6 e6 ad 3d b3 ca 07 3d f8 a6 b4 3c a9 03 6e 3c
       0.08491282 0.033152293 0.022052273 0.01452724

network_body._body_endoder.seq_layers.2.weight f4 [256, 256]
000000 f8 8c 88 3d 65 c8 36 3e ec 5d d0 bc 24 a0 80 3d
       0.06667513 0.17849882 -0.02543541 0.062805444
000010 80 d9 01 bd ce f7 c1 bb d3 76 19 be 81 d5 19 3d
       -0.031701565 -0.005919433 -0.14986734 0.03755713
000020 7b e6 42 3e 38 94 b6 3c 85 09 f9 bd bf 89 37 3c
       0.19033234 0.022287473 -0.12160019 0.011202275
000030 84 30 24 3d 09 f3 cc bc d2 e1 31 bd 46 c3 36 bd
       0.04008533 -0.025018232 -0.04342825 -0.04461982
000040 e9 53 bb 3c b4 60 ab 3d 46 fe 78 bd 31 29 70 3d
       0.02286716 0.08368054 -0.06078937 0.058633033
000050 5d a6 04 bb db 3c 8d 3d 12 43 5b 3c 0d 5a f1 bc
       -0.0020240762 0.06896373 0.01338269 -0.029461885
000060 23 2e 30 3d 32 03 1f bd 1d 7a ce 3d a6 9e 20 bd
       0.04301275 -0.038821407 0.10081885 -0.0392138
000070 c5 76 ab bc 13 d3 ca bd 13 da 11 3e 89 a3 19 3d
       -0.020930657 -0.099035405 0.14243345 0.037509475
000080 ec ff 25 bd 73 a4 35 bd f5 99 d8 bc 2e e2 83 3e
       -0.04052727 -0.044346284 -0.0264406 0.257585
000090 5c 93 00 be 40 92 a2 3c f7 ca 07 bc 9a 7a 37 3d
       -0.12556213 0.019845128 -0.008288137 0.044794656
0000a0 67 83 09 bd 26 21 c0 bc d1 01 40 bd 8c 73 fa bd
       -0.03357258 -0.023453306 -0.046876732 -0.1222907
0000b0 5e 86 87 bd 20 49 1c 3d d7 65 26 3b 2a af 4b 3d
       -0.066174254 0.038155675 0.002539029 0.049727596
0000c0 58 26 e3 bd ac 2c 4e 3e ef 95 a1 bd 8f 3f 67 3b
       -0.11091298 0.20134228 -0.07889926 0.0035285687
0000d0 d2 cb 82 3b de 64 89 3d f6 25 1e bd a6 4e 4b bd
       0.0039915824 0.06708692 -0.03861042 -0.049635552
0000e0 62 68 94 3c ae db 05 3e 21 67 df 3d 63 41 a7 3c
       0.01811618 0.13072082 0.10908342 0.020416921
0000f0 d1 7a 32 3d 2a 47 66 bd 03 91 5a 3e e9 5a a7 bb
       0.043574158 -0.05622021 0.2134438 -0.005107273
000100 ce 2e 18 bd 9e f4 19 3d a4 47 37 be 7a 89 23 bd
       -0.03715401 0.0375868 -0.17898422 -0.03992603
000110 f9 f6 73 3c 21 3e 5b bd 4c 60 1f bd d2 82 b7 3d
       0.014890426 -0.053526048 -0.038910195 0.08960499
000120 da 1e f3 3d e2 8c f7 bb 97 e2 da bb bd 2f bd 3d
       0.11871119 -0.0075546363 -0.0066798436 0.09237621
000130 78 00 2e 3d e8 98 cd bd fe 7a d9 bd 08 ae 76 bd
       0.042480916 -0.1003893 -0.10619162 -0.060224563
000140 40 41 21 be 42 5b bc 3a ae de 2e 3d 2f f7 cb bd
       -0.15747547 0.0014370459 0.042692833 -0.09959256
000150 f4 ef ca 3d 9d 3c ea bd 40 60 95 3c 5a 77 5c bd
       0.09909049 -0.11437342 0.018234372 -0.05382476
000160 34 c5 75 3c bc d5 1c be d4 32 55 bd e8 bc 04 3e
       0.01500063 -0.15315908 -0.052050427 0.12962687
000170 b0 0c 7d 3d 5b 95 af 3b 25 26 42 bd d7 0f f9 3a
       0.061779678 0.0053583807 -0.04739966 0.0019001913
000180 6d 29 ac 3d 98 c9 67 3e 8b a6 87 3c 01 64 c2 bc
       0.08406339 0.22635496 0.016558906 -0.023729326
000190 6f cc 92 bc 39 2d 5d 3d c0 6d b5 3d 2f e7 41 bd
       -0.017919747 0.053998206 0.08858824 -0.047339614
0001a0 53 90 96 bd 76 2e 11 be 35 4b 15 bd d6 ab fb 3d
       -0.073517464 -0.1417788 -0.036448676 0.122886345
0001b0 5e 40 d2 bd 42 0d 1d 3e 63 0a 13 3d 5f df e7 bc
       -0.10266183 0.15337089 0.035898577 -0.028304754
0001c0 55 5e ef 3d 59 f9 83 3d d2 59 e8 3d 0f e8 40 3d
       0.11687914 0.06444044 0.11345257 0.04709631
0001d0 a3 7a 0c bd fe 11 05 be 24 20 b6 3d 49 99 6f bd
       -0.034296643 -0.12995145 0.08892849 -0.058495793
0001e0 f6 5f 09 3b 14 a7 53 3d 25 24 81 bc 56 22 bd bd
       0.0020961738 0.05167301 -0.015764305 -0.09235065
0001f0 88 4b 0c 3d db 9a d3 bd 46 e2 d3 3d b6 5b 20 bd
       0.03425172 -0.10332271 0.103458926 -0.039149962
000200 78 72 0c bd 1c 64 28 bd f1 7f ce bd c4 82 25 3d
       -0.034288853 -0.041111097 -0.10082997 0.04040791
000210 4a a9 92 3d 78 2b 11 3e bb 94 96 3c 93 6d 2a bc
       0.071611956 0.14176738 0.018381467 -0.010402101
000220 8c 8d 17 bd 31 b0 76 3d 2b ea 04 3d 1f 38 87 bc
       -0.037000224 0.060226623 0.032449882 -0.016506253
000230 68 0e 9d 3d da be d7 bd a1 f5 19 be ca dc ac bd
       0.076687634 -0.10534449 -0.15035106 -0.0844055
000240 69 da 9c bd 63 80 ef 3a ac c6 cf bd 76 96 2a 3d
       -0.07658846 0.0018272515 -0.101453155 0.041647397
000250 38 31 b6 bc 1a 0c c1 bd c7 15 03 be ff b1 79 3d
       -0.022240266 -0.09426136 -0.12801276 0.060960766
000260 af 21 47 bd f4 ab 80 3c 00 58 83 3d b5 f5 85 bb
       -0.048616108 0.015706994 0.06413269 -0.0040881285
000270 6b ae 15 3d 89 30 ac 3c 38 94 94 3d ed 6c ce bd
       0.03654329 0.021019237 0.07254833 -0.1007937
000280 cc b1 b7 3c 21 56 53 3d f8 cd 21 be 71 b0 a8 3d
       0.022423647 0.05159581 -0.15801227 0.082367785
000290 00 78 42 bd 0a 98 29 3c 81 43 09 3e b2 50 d2 bd
       -0.047477722 0.01035119 0.13404657 -0.10269298
0002a0 1e bd 61 3c b6 cc 29 be 38 26 56 be ab 30 06 3b
       0.013777999 -0.16581997 -0.20913017 0.0020475786
0002b0 9c 98 4d 3c 6d 31 c7 bd 86 0d a2 3d 5b a2 9e bc
       0.012548592 -0.09726224 0.07912736 -0.019364526
0002c0 05 ec e7 3d ee d3 8f bd 96 27 43 be a9 61 b2 bd
       0.11324314 -0.07022844 -0.1905807 -0.087100334
0002d0 79 a4 2b 3e 80 25 fb 3d ac 0d 32 bd aa f1 1a be
       0.1676196 0.12263012 -0.04347007 -0.1513125
0002e0 16 fb 21 bd 60 44 61 3d 88 ae e6 ba 03 c0 3f 3c
       -0.039546095 0.054996848 -0.0017599622 0.011703494
0002f0 6d 1a 50 bd bd b5 66 bd 63 60 a9 bd 13 77 aa 3d
       -0.05080645 -0.056325663 -0.082703374 0.08323493
000300 07 8a 44 bd 4d c6 36 3d 26 a0 89 bd 58 b4 90 3d
       -0.047983196 0.044622708 -0.06719999 0.07065648
000310 fc d0 68 3b b8 68 4e 3c a4 0e 43 bd 14 0e db 3d
       0.0035524955 0.012598209 -0.047621384 0.106960446
000320 9c 59 88 be bb 6b b1 bd bd 9e ac 3d 26 e9 9e 3b
       -0.26630867 -0.08663126 0.084287144 0.004849571
000330 6f 78 4d bb f9 35 44 3b fd 65 af bd 66 6e 88 bc
       -0.0031352302 0.0029939397 -0.085643746 -0.016654205
000340 ca ca 8f 3d df a6 90 bd a0 cf 9e 3d 8a 35 19 3c
       0.07021101 -0.07063078 0.07754445 0.009351144
000350 e8 ba c9 bc 64 4e d2 bd 23 4b 7c 3d ee 9c 72 3e
       -0.024625257 -0.10268858 0.061595093 0.23692676
000360 b6 f6 43 3c c9 85 ba 3d 9a 9f d4 3d 62 80 4a 39
       0.011960676 0.09107549 0.10382004 0.00019312048
000370 cc 3c 05 be a8 cf 64 bc 3f e0 f1 3d 2e 67 68 bd
       -0.13011473 -0.013965525 0.1181035 -0.056739025
000380 09 0b dc bc 88 7b e8 bd 43 4a 21 3e 55 8c 01 be
       -0.02686073 -0.11351687 0.15750985 -0.12651189
000390 40 0c 84 3c cb 26 fd 3d a0 1f 10 3c d4 e1 92 3c
       0.016119123 0.12360915 0.0087966025 0.017929949
0003a0 32 33 be 3d db d0 3c bd 5b 60 34 bd fb d0 49 bd
       0.092871085 -0.046097618 -0.044037204 -0.049271565
0003b0 8b 4a 0c bd 1f 11 17 3c 1d 83 e9 bd 88 5e cb 3d
       -0.034250777 0.009220391 -0.11401961 0.0993014
0003c0 b6 98 32 3e 99 68 f0 3c 8f 01 52 bd 35 e7 15 3e
       0.17441067 0.029346751 -0.051271018 0.1463898
0003d0 e6 7e 13 be 4f 3a 8e bd 9b 5d 40 3d ba 88 2d 3e
       -0.14403877 -0.06944715 0.04696427 0.16946688
0003e0 09 97 0f 3e d8 9a 26 be 19 75 e4 3d 09 21 c4 bc
       0.14022459 -0.16270006 0.11155147 -0.023941534
0003f0 61 93 1e 3d d5 b4 26 bd 16 b4 f3 bd b8 04 36 3d
       0.03871477 -0.0406998 -0.11899583 0.044438094

network_body._body_endoder.seq_layers.2.bias f4 [256]
000000 15 0a 11 3c de 35 33 3c 11 e7 ff bc 74 c7 0e bd
       0.008852501 0.010938136 -0.03123811 -0.034858182
000010 2d 6e 53 bd d0 ca 87 3c ef e9 60 3c 79 75 81 3c
       -0.051618744 0.0165762 0.013727649 0.015803086
000020 5c c9 5f 3d e1 ba a3 bd 59 aa 8f bd 2d 61 04 3d
       0.05463539 -0.07994629 -0.07014913 0.032319237
000030 73 66 87 3a 8b 97 55 bc 66 c6 aa bb b8 4f d4 bc
       0.0010330215 -0.013036619 -0.005211639 -0.02591692
000040 8d 28 a7 bd 57 7a bd 3b 0f 86 b9 3d 8e 9f 26 3d
       -0.08162031 0.0057824063 0.09058773 0.040679507
000050 78 24 60 bd 05 de 60 bd d9 de 13 bd 32 a0 99 3c
       -0.05472228 -0.054899234 -0.036101196 0.018753145
000060 c5 e4 cd 3d f7 1b 21 3c 1c 09 9f bb 56 3f 4d bc
       0.100534 0.0098333275 -0.004853381 -0.0125273075
000070 56 27 17 bd 4b 30 e7 3b f8 18 5b bb 9c df c4 3c
       -0.036902748 0.0070553175 -0.003343163 0.024032407
000080 6a 3d ef bb a7 b0 33 3d c8 ff 3f 3c e0 66 fb bb
       -0.0073010223 0.04386964 0.011718698 -0.0076721758
000090 c9 30 c4 3d f0 88 4e 3b 92 42 b8 3c 56 59 1d bd
       0.095796175 0.0031514727 0.02249268 -0.038415276
0000a0 c5 3d 0c 3d e1 fc b3 3d 25 a0 17 bd 43 ae 6f 3d
       0.034238596 0.08788467 -0.03701796 0.0585158
0000b0 2d f2 92 3d c8 7b 1f bd 1d c0 8a bc 29 8d 6e bd
       0.071750976 -0.038936406 -0.01693731 -0.05824009
0000c0 93 77 c3 bc ee 15 c9 3c be a6 d9 bc aa 93 a4 3d
       -0.023860728 0.02454659 -0.026568767 0.08035977
0000d0 fa 5a 8f 3c 90 0a 83 3a 9b 23 ec 3c c5 d0 17 3d
       0.017499436 0.0009997655 0.028825572 0.037064333
0000e0 95 1c 1e bd ae 34 03 bd 7d e8 7f 3d e7 13 73 3d
       -0.038601477 -0.03203266 0.062477577 0.059345152
0000f0 3b d1 da bc 0e dd 3e bc ff b1 69 3d 9f a6 d0 3c
       -0.026711097 -0.011649383 0.057054516 0.025470076
000100 46 be f8 bc e0 f9 59 bd dc 3a 1a bd 97 44 51 3d
       -0.030364167 -0.053216815 -0.03765379 0.051090803
000110 99 2d 15 3d 61 c2 f4 bc 3f 1a 9e bb 92 f5 ef bc
       0.03642044 -0.029877843 -0.004824906 -0.029291902
000120 09 e3 56 bc fc 47 50 3d 22 98 07 3c 97 84 2b bd
       -0.013115653 0.0508499 0.008276017 -0.041874494
000130 65 f5 1d bc 0b 0e 55 bd e6 1a 7e 3d 44 2e 08 bd
       -0.009641026 -0.052015346 0.06203737 -0.033247247
000140 29 ea b7 3b e1 41 1f bc 0e a6 ac 3d 5a eb 88 3d
       0.005612631 -0.009720297 0.0843011 0.06685515
000150 60 34 41 3d 93 d9 71 3d 4b 12 9c 3b b9 90 cf bc
       0.04716909 0.059045386 0.004762923 -0.025337564
000160 f4 83 a4 3c 8a 1c a5 bc f9 02 5b 3c 79 13 99 bd
       0.020082451 -0.02015521 0.013367408 -0.07474417
000170 b8 48 a9 bc cf ed 7f bd 05 f6 ae 3c ae b7 e3 3c
       -0.020664558 -0.06248265 0.021357546 0.027797546
000180 91 74 3a bd 0b ea 71 bb d8 81 3a bd 1f f8 d7 bc
       -0.045521323 -0.0036913182 -0.045533985 -0.02636343
000190 32 76 40 3d 58 04 9c bc 34 e4 b9 3c 36 7f d7 3c
       0.04698772 -0.01904504 0.022691824 0.026305776
0001a0 47 23 2d bd ea 9b b6 bc b0 93 6d bb f3 87 38 bd
       -0.04226997 -0.022291142 -0.0036251359 -0.045051526
0001b0 6c b6 8f 3c aa 84 22 3c 16 05 79 bc 43 ad 2d bc
       0.01754304 0.009919325 -0.0151989665 -0.010600391
0001c0 a5 64 11 3d d9 49 fa 3b b5 64 15 3d d1 22 35 3d
       0.035496373 0.007638198 0.036472995 0.044222657
0001d0 5a e0 75 3d 86 64 c4 3c 06 df 58 bd dc 89 38 bd
       0.06002841 0.023973715 -0.052947067 -0.045053348
0001e0 38 fd 7f 3c d8 23 e3 3b 68 d2 77 bd ec d5 98 3d
       0.015624337 0.006931763 -0.060503393 0.07462677
0001f0 25 ae d1 bc 54 95 97 3d 0d 43 0a 3d aa 01 82 bd
       -0.025595734 0.07401529 0.03375535 -0.06347974
000200 6c 96 89 3c 27 2c b2 bc 42 60 09 3c bf 19 7c 3c
       0.01679536 -0.02174957 0.008384766 0.015386998
000210 51 02 90 3d 0c e4 cb 3c 1b 2b 89 3c 5d d6 0e bc
       0.07031692 0.024889015 0.016744187 -0.0087181
000220 60 3d 87 3d 29 6c a3 bc 16 e9 3f bd f7 26 12 ba
       0.06603503 -0.019949036 -0.046853147 -0.0005575264
000230 f7 d8 04 3c 2e 61 41 bd d4 1c d7 3a f4 c8 87 3b
       0.008108369 -0.04721182 0.001641179 0.0041438285
000240 f4 70 c1 3c 13 7d e3 3c 1b 07 09 bd e5 f2 5b 3c
       0.02361343 0.027769601 -0.033454042 0.01342461
000250 13 7a 26 3d 7e d9 88 3c 18 e8 7d 3d b6 a9 01 3c
       0.040643763 0.01670527 0.06198892 0.007913997
000260 47 66 14 bd 23 c0 13 bb 4e 1e be bc 5f 8c 30 3c
       -0.03623035 -0.0022544942 -0.02320781 0.010775655
000270 60 70 3b 3c a1 3a 38 bd 44 c0 1f 3d 02 d2 28 3d
       0.0114403665 -0.044977788 0.03900172 0.041215904
000280 fd 89 9a bc 96 73 30 bd 75 2e ca ba a0 52 11 3d
       -0.018864626 -0.04307898 -0.0015425222 0.035479188
000290 f6 5b 8f 3d 0b 26 a3 bd 77 ad 2a 3d 28 e8 17 bc
       0.06999962 -0.079662405 0.041669335 -0.009271659
0002a0 47 14 40 bb e3 df 49 bd 21 1f 10 3d d3 eb 6a bd
       -0.0029308961 -0.04928578 0.035185937 -0.057353806
0002b0 24 0c a9 bc e5 71 0f bc 91 3b 24 bd da 65 09 bd
       -0.020635672 -0.008755182 -0.04009587 -0.0335444
0002c0 49 c0 8c 3c 2c 82 6b 3d 67 cb 98 3d 34 80 6f 3d
       0.017181532 0.05749719 0.07460671 0.058471873
0002d0 ac e1 de bc 38 2c 6c 3b 54 78 a0 ba 61 e8 9e bc
       -0.027207218 0.0036037099 -0.0012242892 -0.019397916
0002e0 86 30 22 3d d6 64 aa 3d 14 3b 98 bd 69 3f dd bd
       0.039597057 0.08320014 -0.07433143 -0.1080311
0002f0 8f 9a e9 b9 c8 2f 4a bb 2f 6a 6d bd a9 09 19 3d
       -0.00044556378 -0.0030851234 -0.057962593 0.03736273
000300 37 74 9d bc a1 c0 7d 3c 2f cc 21 3c 16 6a 7e b9
       -0.019220455 0.015487821 0.009875341 -0.00024262848
000310 86 bd 57 3d 61 96 86 bb bb 4a 95 3d 68 30 be 39
       0.052670978 -0.004107282 0.07289644 0.0003627569
000320 dc b5 fd 3c d1 a4 84 bc b6 7e 19 3d 42 bd 59 3d
       0.030970506 -0.016191872 0.037474357 0.053159006
000330 f7 69 32 bd e5 e2 3b 3d 75 65 86 3d 68 e4 ae bd
       -0.043558087 0.04587068 0.0656232 -0.08539659
000340 9a 12 2c 3b bc e9 03 bc 4e ff 49 3d bb da 73 bd
       0.0026256205 -0.008051332 0.049315743 -0.05953477
000350 73 4f c1 3b 6a 8f 7f 3c 3c 72 24 3d 9f a9 17 bc
       0.0058993637 0.015598157 0.040148005 -0.009256749
000360 f3 3f 22 3c 62 9d 41 bb b3 56 a9 bd 29 9b 50 bc
       0.009902942 -0.002954327 -0.0826849 -0.012732306
000370 99 e2 81 3d d2 35 be 3b 3b 20 06 bc 20 07 3e 3d
       0.06342048 0.0058047557 -0.008186395 0.046393514
000380 58 ae 74 3d cb ac bb 38 79 7d 30 3d e9 e6 0d 3d
       0.05973658 8.94904e-05 0.04308841 0.03464404
000390 87 ca 4e bc 51 32 9d 3c fe 95 db bb 11 98 09 3d
       -0.0126215285 0.019189032 -0.00670123 0.033592287
0003a0 09 6e 88 3c b1 33 b9 bc 6e 33 e6 bc fb c1 85 3c
       0.016654031 -0.022607656 -0.028100695 0.016327849
0003b0 fd 63 b5 bc f2 8a 32 3d 1b b2 9d 3b 4c 41 93 3d
       -0.022142405 0.04358954 0.0048124916 0.07190189
0003c0 d8 46 05 bd 10 a1 4e 3d 8d b6 27 bb 2d 19 b6 bc
       -0.032538265 0.05044657 -0.0025590986 -0.022228802
0003d0 a8 dc f4 3c c0 a7 64 3c 8b c5 9d bc 71 42 5a 3d
       0.029890373 0.01395601 -0.019259235 0.05328602
0003e0 22 fe ec 3c cd d2 e0 3b ba 7f b8 3c fb 6b 30 bd
       0.028929774 0.006861067 0.022521842 -0.04307173
0003f0 a0 9c ea bc 9c 0c 06 3d 01 76 61 3d 82 01 09 3d
       -0.028639138 0.03272687 0.055044178 0.033448704

action_model._discrete_distribution.branches.0.weight f4 [5, 256]
000000 d1 4c 94 3d fe 02 2f bd f6 56 7b 3d 28 75 b3 3c
       0.07241214 -0.042727463 0.06136223 0.02190645
000010 35 db 09 be 85 a0 02 3c 88 92 17 bd 00 1f eb bc
       -0.13462527 0.007972841 -0.037004977 -0.028701305
000020 f4 ff c2 bd 1a 35 04 3d f5 ac ce 3d 0a 8d 07 3b
       -0.095214754 0.032277204 0.10091583 0.002068343
000030 5e 06 38 3c 36 5b 82 3d 43 42 f1 3c 59 d3 3e 3d
       0.011231987 0.06365053 0.029450541 0.046588276
000040 66 e6 26 3d 30 f8 74 3c a0 32 6c 3d af cf 81 bd
       0.04074707 0.014951751 0.057665467 -0.063384406
000050 58 8a f2 3d b8 74 61 3c 99 bd 38 3d fd 94 81 3d
       0.11842793 0.013760738 0.04510269 0.063272454
000060 67 d9 9c 3c ae 6c ad bb fc a4 5c 3d 9c ba 7e bd
       0.019146634 -0.0052924966 0.05386828 -0.062189683
000070 ab 7f 07 3c 84 69 67 3d 54 55 15 bd 48 a8 1c ba
       0.0082701845 0.056497112 -0.03645833 -0.00059760036
000080 b7 42 56 3d 95 f7 19 bc 10 f7 6e bc 69 12 27 3d
       0.052309718 -0.009397407 -0.0145852715 0.04078904
000090 d7 8a c4 3c 2a 4f 0b 3d 9d e4 98 bb c0 32 96 bd
       0.023991985 0.034011044 -0.0046659247 -0.073338985
0000a0 ae 3b da bd 64 08 9b bc 89 ea 3d 3d 84 77 4e bd
       -0.10655914 -0.0189249 0.04636625 -0.050406948
0000b0 23 99 12 3d 77 65 fd 3c d5 46 ce bb 28 27 d0 3c
       0.035790574 0.030932171 -0.006295065 0.025409296
0000c0 cc 4f ca 3d 2c 48 f9 3c 59 34 e9 3c a9 a1 27 bd
       0.09878501 0.030429922 0.028467344 -0.040925656
0000d0 9b 22 12 bb 97 7f c8 3c 79 4a af 3c f4 d7 77 bc
       -0.0022298458 0.024474902 0.021397816 -0.015127171
0000e0 c4 1f 80 bc 89 fa ed 3c 5d ac 38 bd 27 de 73 3d
       -0.015640147 0.029050129 -0.045086253 0.059538033
0000f0 af ce 01 3d c0 66 10 3c b7 76 b2 b9 16 84 62 3d
       0.03169125 0.00881356 -0.00034039255 0.05530175
000100 94 0e 42 bd af 96 33 3e cc 30 db 3c e5 f9 ce bc
       -0.047377184 0.1753795 0.026756667 -0.025265643
000110 a9 58 80 bc 63 bf 00 3e d8 5b ac 3d 75 c0 c9 3c
       -0.015667276 0.12573008 0.08415955 0.024627903
000120 c9 93 96 3c 42 3c 20 bc f0 73 35 bd 6e 02 64 3d
       0.018381016 -0.009779992 -0.04430002 0.05566638
000130 fc cb 4d 3a 11 3a 9c 3d 0c 39 34 bd 2f 51 8d 3b
       0.00078505254 0.07628263 -0.043999717 0.0043126564
000140 65 33 eb bd e3 0d 95 bd 6d c9 66 bd fe 11 6a 3c
       -0.11484412 -0.07278039 -0.05634444 0.014286516
000150 42 eb 84 bb 63 00 41 bc 3c 94 a2 bd a7 b0 96 bc
       -0.004056365 -0.011779877 -0.0793843 -0.018394781
000160 ef 74 07 3d e2 5e 96 3c 8c a1 6a bb d6 f7 59 bd
       0.0330705 0.01835579 -0.0035801856 -0.05321487
000170 eb 34 73 bb 72 37 83 3d f4 48 9d bc c7 f9 f0 bc
       -0.00371104 0.0640706 -0.019199826 -0.029415978
000180 ea 2b 5f bb 9d e2 77 bc 44 72 ce 3d 73 b3 ff 3c
       -0.0034053274 -0.015129712 0.10080388 0.031213498
000190 7f af dc bb 03 bc 18 bd dd 5f 6d bd ce 19 84 bd
       -0.006734788 -0.037288677 -0.05795275 -0.06450234
0001a0 b3 1a 45 bd 65 59 22 3d 64 14 90 3c 53 f2 b4 3c
       -0.048121165 0.039636035 0.017587848 0.022088205
0001b0 2a b5 2f bd 4f 9a 9e bc 8d 03 10 3c 7c d2 04 be
       -0.04289738 -0.01936069 0.008789909 -0.12970918
0001c0 56 de 17 3d dd 8e 81 3d c3 1a 91 bc c0 9c d5 bc
       0.03707727 0.06326077 -0.017712956 -0.02607572
0001d0 b1 17 82 3d 70 12 d3 3d a0 c3 f1 3c 1a 28 f8 3d
       0.06352175 0.10306251 0.029512227 0.12117024
0001e0 84 05 a3 3d 41 77 40 bc dd 2e 88 3d 4e cd 89 ba
       0.079600364 -0.011747182 0.066495635 -0.0010513456
0001f0 e0 76 14 bb 5d 57 81 3d fc ec 87 3c 4a 53 be bd
       -0.0022653863 0.06315491 0.016592495 -0.0929323
000200 a5 a7 32 3c ad 69 e7 3b 28 40 d6 3d 5d 07 38 3c
       0.010904227 0.007062158 0.104614556 0.011232224
000210 71 1e 85 bb 14 5f 61 3d 57 1b 3c 3d 9c 22 c3 3c
       -0.004062467 0.055022314 0.04592451 0.023820214
000220 fc f0 b6 bb d2 82 84 bc 90 0e 97 3d 46 73 91 3c
       -0.005582927 -0.016175661 0.073758245 0.017755162
000230 de 6f 92 bd 65 04 a2 3d a5 a5 75 bd 86 1c ec bc
       -0.07150243 0.079109944 -0.059972424 -0.028822195
000240 54 16 39 3d 5d 84 50 bc 05 70 55 3d ca 39 b2 bc
       0.04518731 -0.01272687 0.052108783 -0.021756072
000250 e1 c3 04 bd b9 d8 21 bd 64 c8 1d bd b0 32 c7 3b
       -0.032413367 -0.039513323 -0.038521186 0.0060790405
000260 87 c9 a9 bd 76 46 16 3d 22 dc 40 3d af 85 38 3c
       -0.082903914 0.03668829 0.047084935 0.011262341
000270 d3 bf 2d bc 61 ff f2 3b 09 0e e2 bc 5d b8 36 bd
       -0.0106048165 0.0074156974 -0.027594583 -0.044609416
000280 60 8c 9d 3b 47 de 00 bd 56 25 c3 3d 83 cf eb 3c
       0.004807994 -0.03146198 0.09528606 0.028785473
000290 76 e9 25 3d fe 89 e5 3d 64 b5 8c 3c ce d9 18 3d
       0.04050585 0.112079605 0.017176338 0.03731709
0002a0 a5 69 83 3d d4 b7 e8 3c d7 3e 90 3c 6d c3 a0 3d
       0.064166345 0.028407969 0.01760809 0.078497745
0002b0 57 2a 72 bc 14 bf 15 bd 0e fa b1 3c cd a1 e8 3d
       -0.014780602 -0.03655918 0.02172568 0.11358986
0002c0 df 21 64 3d a2 ad 5b 3d f2 7c 16 3d 4d 0f 08 3c
       0.055696364 0.053632386 0.03674025 0.008304429
0002d0 fd 71 0d 3c a1 94 41 3d 0e 99 9c 3d 9e 8c c4 3c
       0.008633134 0.047260884 0.0764638 0.023992833
0002e0 a1 b4 ae 3d 60 0f 1f bd 37 4c 19 3d 3d b3 bb bb
       0.08530546 -0.038833022 0.0374262 -0.005728154
0002f0 cc 1e 84 bd ce a1 4d 3d ad 19 a4 3c a2 a7 e8 bc
       -0.064511865 0.050203137 0.020031774 -0.028400246
000300 da b3 0a bd 04 f2 68 3c 3c ed 00 3d a9 43 1a 3d
       -0.033862926 0.014217857 0.031476244 0.037662182
000310 7c b0 ae bb c3 26 55 bc a9 13 ff bc 70 44 91 bc
       -0.005331097 -0.01300973 -0.031137304 -0.017732829
000320 6b 64 b9 bd 6c 1d 94 3d bd 23 11 3d d9 b3 e2 3c
       -0.09052356 0.07232174 0.035434473 0.027673649
000330 21 1e 60 3d 9a 08 9f bd 5a 29 26 bd bc 25 a9 3b
       0.054716233 -0.077653125 -0.04056678 0.005161969
000340 f1 bc 50 bd 49 79 e5 3c de a0 0b 3c ef a8 e5 bc
       -0.05096144 0.028011935 0.00852224 -0.028034655
000350 ab 16 98 bd 7c 56 80 bd 5a 36 bd bc 55 b5 89 3c
       -0.074261986 -0.062664956 -0.023097206 0.016810099
000360 ec 34 d5 bd 68 d0 5b bc 69 5b 8c 3d 79 9e aa 3c
       -0.10410485 -0.013416387 0.068533726 0.020827519
000370 5e f0 0e bd 85 40 8d 3d 58 8e 16 3d bc c9 94 bd
       -0.0348972 0.06897072 0.036756843 -0.0726504
000380 1c dc 8a bc 92 c0 a1 3d fa fc da bc f4 45 e4 3c
       -0.01695066 0.07898058 -0.026731957 0.027865387
000390 ce 37 14 bc 6d 7f 13 bd a7 54 f2 bc 64 13 c0 3d
       -0.009046508 -0.036010195 -0.029581381 0.093786985
0003a0 30 5d 09 be 71 06 07 bb 8f b8 11 bd 43 0f 68 bd
       -0.13414454 -0.0020603205 -0.0355764 -0.05665518
0003b0 67 43 41 bd c8 71 e1 b9 e4 e3 4f 3d 8b 9b 9b bc
       -0.04718342 -0.00043000118 0.050754443 -0.018995067
0003c0 2e 46 c8 3d 82 8d 43 3c a9 24 6e bc 9c e5 85 3d
       0.09779011 0.011935594 -0.014535108 0.06537935
0003d0 7c f3 fa 3c 2d 9e 2e 3d 2f 81 84 bc 80 49 44 bd
       0.03063368 0.042631317 -0.01617488 -0.047921658
0003e0 9b e8 0b 3d a6 fb 1e bc a7 03 ba 3d df 28 1a bd
       0.034157377 -0.009703552 0.09082728 -0.037636634
0003f0 b7 9f e0 3d 9e 9d af bd 17 10 33 3b c8 bb 4b 3d
       0.10967963 -0.08574985 0.0027322823 0.04973963

action_model._discrete_distribution.branches.0.bias f4 [5]
000000 84 15 39 bd 86 79 df bd 6b de 90 3c da df 72 3d
       -0.045186535 -0.10911851 0.017684182 0.059295513
000010 25 05 95 3d
       0.07276372

action_model._discrete_distribution.branches.1.weight f4 [2, 256]
000000 97 64 da 3c 34 1a 86 bc 2b d8 11 3d 2f 73 54 3d
       0.026659293 -0.016369916 0.035606544 0.05186766
000010 23 f6 cc 3c 19 54 08 bd 10 d1 56 3d 37 32 b6 3c
       0.02501971 -0.033283327 0.05244547 0.022240741
000020 19 40 0c bd 9e fd ab 3b c4 c3 31 3d 4e 9b 37 bd
       -0.034240816 0.0052487394 0.043399587 -0.044825844
000030 11 0c 23 bd c4 0e 15 3d 8f 29 fa 3b 5d 9d d4 bc
       -0.03980643 0.036391035 0.0076343487 -0.025953943
000040 82 9c 76 3c 69 65 89 3c d5 9c 93 bc 26 ea 31 bc
       0.015051963 0.016771989 -0.01801912 -0.010859048
000050 a1 3b c5 3c c9 06 8b bd b5 98 8c bc 8a 92 df bc
       0.024076285 -0.067884035 -0.01716266 -0.027291555
000060 7f 57 63 bc 09 9e 30 3b d8 ef 82 bc 0e 7d a7 3c
       -0.013875841 0.0026949665 -0.015983507 0.020445373
000070 81 c9 da 3b f0 f5 25 bd 85 00 d1 bc 35 73 1b 3d
       0.006676853 -0.040517747 -0.025512943 0.037951667
000080 0c 5e 02 bd d7 0e 0d bd 81 5c 80 3b 9e e4 49 bd
       -0.03182797 -0.03443798 0.0039172773 -0.049290292
000090 21 f8 09 3b 2c 8b 64 3d ec 48 0e bd 3b 18 1a bd
       0.0021052437 0.055796787 -0.034737512 -0.037620764
0000a0 5f d5 46 bc 7e f4 06 bd 84 d3 95 3b 3a 7f ef bc
       -0.012135833 -0.03294801 0.004572334 -0.029235471
0000b0 07 e3 b3 3c 54 6b bd 3c d4 fc 11 bd 4b 58 87 3d
       0.021958841 0.023122467 -0.035641506 0.066086374
0000c0 7e 31 c6 3c 50 e5 85 3d a0 b5 98 3d a3 33 1c 3b
       0.024193522 0.065378785 0.07456517 0.0023834489
0000d0 7d eb 24 bd 64 df 8e 3d 0b 3e d0 3c 6b 93 aa bd
       -0.04026364 0.06976202 0.02542021 -0.08328899
0000e0 2d 95 5c 3d a6 57 fb bc 90 90 ed bc a2 c7 41 bd
       0.053853203 -0.030681442 -0.028999597 -0.047309525
0000f0 12 ff 48 3d 24 ac 74 3d 91 72 35 bc 1c e0 25 3d
       0.04907138 0.05973448 -0.011074678 0.04049693
000100 78 42 19 3c 50 32 16 bc 66 83 18 bd 13 fc e0 bc
       0.009354226 -0.009167269 -0.037234686 -0.027463948
000110 32 07 4e bc 7d 04 f6 3c ee 4d 41 bd e1 a9 a2 3c
       -0.012574958 0.030031437 -0.04719346 0.019856395
000120 f1 1f d2 bc 96 d8 61 3d 40 71 66 bd 35 d0 86 bb
       -0.025649996 0.055138193 -0.056260347 -0.0041141757
000130 22 48 b4 bc 8c da a9 bc 7b dc 25 3d 19 41 6a bc
       -0.022007052 -0.020734094 0.04049347 -0.014297747
000140 03 0f 37 3c 81 de 22 bc ed 55 35 3d 61 c7 05 3d
       0.011173013 -0.009940744 0.0442714 0.032660846
000150 c6 f8 a0 b9 31 b9 b5 3c 9e 22 33 bd a8 7b 7b bd
       -0.0003070293 0.022183033 -0.043734185 -0.061397225
000160 2b ca 02 bd d9 0d da ba 91 30 08 bc 17 41 47 bd
       -0.031931084 -0.0016636207 -0.00831236 -0.04864606
000170 e2 d8 3b 3d 2b c8 62 bc 2f 36 74 bc ef c1 65 bd
       0.045861132 -0.013841669 -0.0149054965 -0.056093153
000180 86 74 2b 3d 30 4a 72 bc 18 8e 22 3d f0 8c 0a 3d
       0.041859172 -0.0147881955 0.039686292 0.033825815
000190 03 d1 04 3d 87 f6 a3 3c 55 e6 06 3d 3d 9b ae 3b
       0.03242589 0.020015014 0.032934505 0.0053285644
0001a0 1c f0 a9 3b 0a 76 8e bd f1 9f 9a bc 6f 7f 0d 3d
       0.005186094 -0.06956108 -0.018875094 0.03454536
0001b0 6a f0 42 3d 3d 7d a9 3d ec e6 1a bd fe b0 96 3d
       0.047592558 0.082758404 -0.03781788 0.07357977
0001c0 ae 7c 99 bc db a2 34 bd 66 02 d4 b9 c9 14 ee bb
       -0.01873621 -0.044100624 -0.00040437578 -0.0072656614
0001d0 f2 0c d8 3c 84 41 41 3d eb 61 00 bd 10 f9 58 bc
       0.02637336 0.04718162 -0.03134338 -0.013242975
0001e0 02 cf 90 bc 66 46 ac 3c ec 6c 23 3d fb ee 74 bc
       -0.017676834 0.021029662 0.039898798 -0.0149495555
0001f0 b4 21 57 bd 28 53 e3 3c d8 6a bc bc 31 90 22 bc
       -0.052522376 0.027749613 -0.023000166 -0.009922073
000200 6f 5d 99 3c 25 11 8a 3d 71 e1 7a bc 66 04 95 bd
       0.01872131 0.06741551 -0.0153125385 -0.072762296
000210 0d 76 28 bc 90 d6 eb bc f2 a1 ae 3a 74 5d ae bd
       -0.010282052 -0.028788835 0.001332341 -0.085139185
000220 3b 1d 1d bb 40 4a f6 3b ad 47 96 bd 17 95 ff 3d
       -0.0023973722 0.0075161755 -0.0733789 0.124796085
000230 77 6e 1b 3c 29 d5 bb 3b f4 6e c4 3c 1a d8 cb 3c
       0.009486786 0.005732198 0.023978688 0.024883319
000240 14 23 25 3d 1f 92 f7 bd 23 a0 1b 3c a5 04 a4 3c
       0.040316656 -0.12088417 0.009498629 0.020021746
000250 ac 0e bd bc c9 b0 7e 3c 6d 74 f1 3b 78 38 10 3d
       -0.023078285 0.015545079 0.0073686154 0.035210103
000260 9f 27 16 bc af d1 ca bd 1e 5d a0 3d 94 f0 80 bc
       -0.00916472 -0.09903275 0.07830261 -0.015739717
000270 84 86 4f 3c db e6 d2 3b d5 38 b4 bb 08 47 0a bc
       0.012666348 0.0064362115 -0.005499939 -0.008439787
000280 d4 02 aa b9 5e 5a 68 3d 99 f5 15 be 36 aa 3f 3c
       -0.00032427034 0.056726806 -0.1464447 0.011698296
000290 d1 4f 3b bc c2 5a d9 3c 01 a2 3e bd 77 7c d0 bb
       -0.011432604 0.026532535 -0.046541218 -0.0063624936
0002a0 ea f1 16 3d b6 7e 7f 3d 5b c9 47 3c cf 36 07 bd
       0.0368518 0.0623767 0.012194003 -0.033011254
0002b0 52 ac d2 3c fd 95 10 bc cf 8f 4f 3d 89 da d1 bc
       0.025716934 -0.0088248225 0.050674256 -0.025616901
0002c0 ff e4 4c 3d 9c c6 22 3c 27 d8 94 ba cb 03 98 3d
       0.050023075 0.0099350475 -0.0011355922 0.074225985
0002d0 88 16 53 bc 71 df db bc e8 72 77 bd 81 a4 a8 bc
       -0.01288379 -0.026839944 -0.060412318 -0.020586254
0002e0 b3 de ac 3d 9e 43 98 3c eb 7d 9a bd 38 9c 9c bd
       0.08440914 0.01858693 -0.07543548 -0.07646984
0002f0 17 1c 37 bd a3 e1 cc 3b 6d 91 2b bd ba 4b 46 bd
       -0.044704523 0.006252484 -0.041886736 -0.048412062
000300 f4 82 ad 3b 24 1e 7b 3d 9f 60 ed bc 83 aa 91 bd
       0.005295152 0.06130804 -0.028976737 -0.07112601
000310 f9 c6 45 bd f3 28 7a bd f5 0a d1 bc 0c f7 4e bd
       -0.04828546 -0.06107421 -0.02551792 -0.05052857
000320 f7 a8 f2 bc a4 80 fa bc 37 a9 8b 3c 26 8f 0d 3c
       -0.029621584 -0.030578919 0.017048461 0.008640086
000330 c7 49 b7 3b 2d e5 4d bc 7c 72 ea 3c 39 0a 79 3d
       0.0055935117 -0.012566847 0.028619044 0.060800765
000340 00 39 28 bc 08 07 5f 3d 8f 83 d1 bc c7 5b 85 bd
       -0.010267496 0.054450065 -0.025575427 -0.06511646
000350 1d d5 69 3d 60 77 29 3d 1b 91 89 3c b3 f9 e8 3b
       0.057088006 0.04137361 0.016792824 0.0071098446
000360 f8 66 59 bc 3e 1f e8 bc d1 56 f1 bd a1 c5 92 bc
       -0.013269179 -0.02833521 -0.11784137 -0.017916502
000370 10 36 35 bd 6f 0f e7 bc 93 bb a3 bc 8f 27 c2 3b
       -0.04424101 -0.028205601 -0.019986903 0.005925126
000380 0c 57 a6 bc db de 30 bd 1d 6e 47 bc e2 e3 53 3c
       -0.020305179 -0.04318128 -0.012172249 0.012932749
000390 50 ec 6d 3d 1e a1 e2 bb cb 19 ac 3d 26 f4 1e 3d
       0.058086693 -0.0069161793 0.08403357 0.038807057
0003a0 5f 36 dd 3c 2f 09 5c bd e8 5b 30 bd b6 23 ca bb
       0.027003465 -0.053719696 -0.0430564 -0.006168808
0003b0 da 62 b7 3d 44 61 43 3d 13 76 43 3d 39 a3 23 3d
       0.08954401 0.04770018 0.047720026 0.039950583
0003c0 e6 f7 f6 bc 75 9e c0 bb 3b a8 5e 3b 0f dd 92 3c
       -0.030147504 -0.0058782646 0.0033974785 0.017927675
0003d0 ab 35 d9 bd 11 e0 9b 3c b7 aa 93 bd 80 b2 dc bc
       -0.106059395 0.019027742 -0.07210296 -0.026940584
0003e0 ed ec 48 bc b0 61 95 bd 63 45 68 bd 88 10 6a bb
       -0.012263519 -0.07294023 -0.056706797 -0.003571542
0003f0 e5 7c 1f 3d be d2 7a bc a0 5a c4 bc 83 cc e5 bc
       0.038937468 -0.015309034 -0.023968995 -0.02805162

action_model._discrete_distribution.branches.1.bias f4 [2]
000000 8f 9b 40 3c 74 9b 40 bc
       0.011755838 -0.011755813
