Assets/ML-Agents/Models/BattleSystem_poca 4.onnx (onnx, 33245 bytes, 18 tensors)

discrete_act_size_vector f4 [1, 7]
00000000: 0000 a040 0000 0040 0000 0040 0000 5041
00000010: 0000 803f 0000 8040 0000 8040
5.0 2.0 2.0 13.0 1.0 4.0 4.0

network_body._body_endoder.seq_layers.0.weight f4 [32, 49]
00000000: eb92 653e c6c1 04bd 9ec0 953e 84b8 07be
00000010: a1f5 c6bc a6bf 83be 6b27 003c 810e 7b3e
00000020: 6ae5 09bd 740f 893d 7334 083d 45b8 ee3d
00000030: 637c 29be b98f 173e 66c1 1d3e 156d 8e3e
00000040: de9b 3fbe 3011 053c cda4 f5bc 6368 f0be
00000050: 36c7 64be e1e9 debd ab04 22be e565 9d3e
00000060: b2a1 ddbc 917f 95be 2e3b 19be 65af 57be
00000070: 91dd 1abd 951e 21bd db14 703c daf0 8c3d
00000080: 1ad4 cb3d f9c8 7d3d 5383 2ebd 70e8 28be
00000090: 47c5 60be 4076 9b3d 2d0e 713c 3fc4 9a3e
000000a0: 6b0d 35bd 8ab4 b83e e822 113c c6fe 11be
000000b0: 98bf 0fbe cb40 9e3d 5ad5 27be fbe2 613e
000000c0: ced5 0ebe 2083 8f3d b425 eebd 0d0a ae3d
000000d0: 3e1c d13c c74a 393e 06b5 5f3e aeed e0bc
000000e0: cb48 163e 0788 94be 435c 8abd c3d5 9a3e
000000f0: cb79 843e ca08 bc3d a24f ac3d 1bd9 8c3e
00000100: d762 16be 7b7e a7bd 4ffa c93c b0b5 92be
00000110: bb50 7cbe 7055 9a3d 7728 60bd 3df1 c23d
00000120: def3 a53d 8e39 363e ef7e e8bd 2f8a ba3c
00000130: bc83 26be 155c f0bb eb13 b63d fd0d a0bd
00000140: 57a4 41be c221 393d edbe 40bd f96a 1e3d
00000150: a61e 073e 97af 53bd 3a5d 183e ee4e 05be
00000160: 240a 2c3d ac57 23bd d86d 80be 8e98 cf3d
00000170: 6d83 a33c 39f5 c63d f3f9 bdbd 6b6b e43d
00000180: d697 9c3d eca1 6d3e 4f71 cc3d a440 c13c
00000190: a400 e1be 64aa 98be bf76 44be af48 b9bd
000001a0: 4f1f 24be 5daf 34be 7c36 583c cd1f 913c
000001b0: a0c6 433e 831d 87bd 7723 64be 8b35 33be
000001c0: c0f8 5abe 2696 043e da6c 2d3d b073 ac3d
000001d0: b1e8 4cbd ecd4 69bd c7a7 b83d 739e 523e
000001e0: b853 34be d644 783e fc7e eebd 7445 b53d
000001f0: 2071 e1bd 98a6 ce3c dacc 193d 26ed ce3d
00000200: 5a9f cdbd 3e01 b9bd c3f8 31bd 6e69 bc3c
00000210: 7965 79be 7554 13be f3f3 3ebe 6e36 7e3d
00000220: 2d97 c5bd 3c65 6a3d c67a aebd f8c0 613d
00000230: 83ca 88be 80c7 083e 81a8 373e 09df 1d3e
00000240: 82b7 1abb b025 93be 98c5 48be b1fa 91be
00000250: 2ae0 0ebe d378 b4bc 515f 6c3e 43db 393e
00000260: 190b acbd 6d11 2dbe 4dc7 cf3d c51b af3d
00000270: 3c96 b9be d19c 863c ae56 fa3d a81f 2dbd
00000280: 131b 88be 8967 0e3c 9859 853e 889e 993e
00000290: 7c5d f0bd 9fbb 873e b8b9 9c3d 7e69 f2bc
000002a0: a1c6 c8bc 3105 8dbd 0543 22be ad7c a5bc
000002b0: ff4a 223d 715f b3bd c8c9 fabd 17b3 1d3e
000002c0: 09a0 80be 3616 093e fb53 91bd 2aba f03c
000002d0: bf7e 863e a875 7dbd a5e9 ad3c d404 16be
000002e0: 3bbe cabd bd00 c43e 2653 86bd f895 613e
000002f0: e8fa 113e 91a2 b6be a3ae 6e3e fc88 2fbc
00000300: 8e10 0b3e 2510 953d d566 333e 6b84 7e3d
00000310: 6673 2cbd 1156 d23d 0d05 b5bc cef3 5bbe
00000320: 2b2f 043e 5cab c1bd 450c be3d cab5 153e
00000330: 5ef9 bc3d 05f0 ad3c 24f8 973d d235 81be
00000340: 6f3a babd bb57 aabd c58a 5ebe 86ad 933c
00000350: a666 9abd 9757 a6bc afdf 88bd 4136 5fbe
00000360: f41d 623d 84f7 173e 0662 f8bd 9ecf 28be
00000370: 5a1e 16bd 8efa 043d 405f 99bd 27d1 c1bd
00000380: 2f2a a9bc 75ed a33d 502a 70bc 0878 84bd
00000390: 1115 c33d 55fe 543d 15a9 6dbd 92ef 9a3e
000003a0: 2006 83be f218 8b3c 2046 0a3d 342f 5a3d
000003b0: 3024 913d 6ea9 a8bd c893 103d a5a3 73bd
000003c0: ba28 47bd f3de 923c 93c5 863d ecd5 6cbe
000003d0: d859 78be b78c 52bd 78d7 093d 4de8 cb3b
000003e0: d48e 5e3c e726 62be 816c 533d 363d 0bbd
000003f0: 60e2 78bd 11ea 293e fd66 983d 6033 203e
0.22419326 -0.03241136 0.29248518 -0.13253981 -0.024287047 -0.25732154 0.007821898 0.24517252
-0.033666052 0.066924006 0.033253144 0.116562404 -0.16551356 0.1480092 0.15405807 0.27817598
-0.18711802 0.008121774 -0.02998581 -0.4695464 -0.22341618 -0.108844526 -0.15822093 0.30741802
-0.027054641 -0.29198888 -0.14963982 -0.21063001 -0.03780896 -0.039335806 0.01465341 0.06881876
0.099525645 0.06195924 -0.04260571 -0.16494918 -0.21950255 0.07590914 0.014712852 0.3022785
-0.04420225 0.3607524 0.00885842 -0.14257345 -0.14037931 0.07727202 -0.16389981 0.22059242
-0.13948748 0.07007432 -0.11628285 0.08498011 0.025526162 0.18094932 0.21846399 -0.027457085
0.14676206 -0.2901003 -0.06755879 0.30241212 0.2587417 0.09181364 0.08413626 0.27509388
-0.14686142 -0.08178421 0.02465549 -0.28654242 -0.24640171 0.07535827 -0.05472609 0.09518669
0.081031546 0.17795393 -0.11352336 0.02277097 -0.1626119 -0.007335196 0.08890518 -0.07815168
-0.18910347 0.04519821 -0.04705708 0.038676236 0.13195285 -0.051681127 0.14879313 -0.1301839
0.04200186 -0.039878532 -0.25083804 0.10136519 0.01996013 0.09714741 -0.0927619 0.11153301
0.07646148 0.232063 0.099825494 0.023590393 -0.439458 -0.29817498 -0.19185923 -0.090470664
-0.16027568 -0.17645021 0.013196584 0.01771536 0.19118738 -0.06597426 -0.22279154 -0.17500894
-0.21383953 0.12947902 0.042340137 0.08420503 -0.0500266 -0.057087824 0.09016376 0.20568256
-0.17610061 0.24245009 -0.11645314 0.08851138 -0.11007905 0.025225922 0.037548877 0.10103826
-0.100401595 -0.0903344 -0.04345013 0.022999492 -0.24355115 -0.14387687 -0.18647747 0.062063627
-0.09647975 0.05722545 -0.08519511 0.05511567 -0.26717004 0.13357353 0.17935373 0.15417112
-0.0023607914 -0.2873969 -0.19606626 -0.28511575 -0.139527 -0.02203027 0.23083235 0.18150048
-0.08400554 -0.16901179 0.101454355 0.085502185 -0.36247432 0.016432198 0.12223564 -0.042266518
-0.26583156 0.008691677 0.26044917 0.30003762 -0.11736581 0.2651033 0.076526105 -0.029591318
-0.024508776 -0.06885756 -0.15845878 -0.020201052 0.039622303 -0.087584384 -0.12245518 0.15400349
-0.25122097 0.13387379 -0.07096096 0.029385645 0.26268575 -0.061879784 0.021229574 -0.1465028
-0.09899565 0.38281813 -0.06558828 0.22029865 0.1425587 -0.35670903 0.23308806 -0.010713812
0.13580534 0.0727847 0.17519696 0.062138002 -0.04210224 0.10270322 -0.022097135 -0.21479723
0.12908618 -0.09456512 0.09279684 0.14620128 0.092272505 0.021232614 0.07420376 -0.25236374
-0.090931766 -0.083175145 -0.21732624 0.018027078 -0.0753911 -0.020305438 -0.06683289 -0.2179804
0.055204347 0.14840513 -0.121280715 -0.1648545 -0.03665004 0.03246551 -0.074888706 -0.09463721
-0.020649998 0.08004276 -0.014658526 -0.06468207 0.095255025 0.052000362 -0.058022577 0.30260903
-0.2559061 0.016979668 0.033758283 0.053267673 0.0708698 -0.08235441 0.035297185 -0.059482235
-0.048622824 0.017928576 0.06580653 -0.2312848 -0.24253023 -0.051403727 0.033652753 0.006222761
0.013583858 -0.22085153 0.05161715 -0.033993922 -0.060762763 0.16593195 0.074415185 0.15644598

network_body._body_endoder.seq_layers.0.bias f4 [32]
00000000: fb4c 6fbd dffc 573c 8d54 aabd 5088 efbb
00000010: 3ca5 580e e6aa 2fbd 0395 46bd 3942 7cbc
00000020: 2f17 9d3b f574 aebc 07f1 80bc f756 adbc
00000030: 7ef7 6d3c 2bb1 263c e829 fdbc 4da3 393c
00000040: 5d5a a53c 0748 a5bc ce73 27bd f313 66bc
00000050: 4c5f abbc 1d70 78bc fb67 e2bc e3d4 70b6
00000060: 2851 88bd b51e cabc a6ca 21bd 204a 17bc
00000070: 679c 07bd fe4d 38bd 80de 33bb 6296 a8bb
-0.058423024 0.013182848 -0.08316908 -0.007309951 2.6703613e-30 -0.04288759 -0.048481952 -0.015396648
0.0047940235 -0.021296004 -0.01573993 -0.021159632 0.014524339 0.010174076 -0.030903772 0.011330438
0.02018469 -0.020175947 -0.040881924 -0.014042842 -0.020919465 -0.015163449 -0.027637472 -3.5886703e-06
-0.06656104 -0.024672845 -0.0394999 -0.009233981 -0.03310814 -0.044996254 -0.0027445853 -0.00514488

network_body._body_endoder.seq_layers.2.weight f4 [32, 32]
00000000: 8da7 6abe 06f8 993e ae8b 9b3d f162 d63e
00000010: 7ee1 ba3c 7142 2dbe 4e52 01bd 3af7 2f3e
00000020: be2d 1e3f c78b e3bd 3f6b 89be dde6 ffbc
00000030: 908c 263e e3c8 28bd 002e aabc 0b91 9ebe
00000040: 60a9 a0be 7dce a4bd 6ecc ae3e c095 adbd
00000050: d3bc 2b3c e15b 503e 3620 07be 0654 5abd
00000060: 2955 19be a105 34be 1ca1 54bd cd06 afbd
00000070: b7ce 9cbe e111 2e3d 49a7 cabd b521 acbe
00000080: 58fc b93d 61c8 69bd 1f7c acbe a505 ae3e
00000090: cd88 083d 5c43 f83d c72f 303e d0b5 ab3e
000000a0: 5d71 c53b 1a88 67be 4d25 1fbe 3a4a e7bd
000000b0: 6cba 953e 3715 3d3e 72ac 1a3e 2bf1 5cbd
000000c0: acbf 1ebe cedd 84be 1025 60bc 3405 74be
000000d0: e000 14be 61a5 c33d 2a92 0ebe ead5 1e3d
000000e0: bbfe 4ebe 98ca 10bc d775 a93e 114f bbbd
000000f0: 09c8 9c3e 95bc 9a3e 19f8 76be a964 73be
00000100: cb56 c73d c308 9f3b 4658 a7bd cd29 15be
00000110: 7fb0 363e 5b59 1abe f546 0cbe 66fa 753d
00000120: 3a54 573e a18e a93e c55e 2c3d 5edf 5c3e
00000130: f7ac d93d 91a7 02be 42a5 923c f30c 21be
00000140: 79c7 773d cc08 c9bd 78cc d93e c469 e53e
00000150: 8de7 f7bd 71f9 413d 80a1 b2bd 0b24 e5bd
00000160: 1c4f 47bd ad4d 913d 0cdb 56be 7503 063e
00000170: 40bb 823e 61ae 7ebd 5deb 47be 3dce c3bd
00000180: c9e4 a33c 42a6 f2bd 89fa 733b 46cd fd3d
00000190: abe0 68be d9dd 183e 0c9a 9e3d 0f96 ee3d
000001a0: a8f5 d5be 8728 493d 61b0 993e ced0 603e
000001b0: 39fc 1e3e eb45 bdbd b144 2e3e fcee d8bd
000001c0: 3849 55bd 755a 8bbe 574f 263e 9650 b7bd
000001d0: cb8d a7be c3bb 02bb 181e f7bd af34 5abe
000001e0: e40b 8fbd d106 8f3e 4074 edbd 7214 7dbd
000001f0: 0055 133e dd29 8b3d 630d 773d 281b 063e
00000200: 19cc 5dbc c80d dc3d a6b9 b23d b370 a53d
00000210: 5227 ca3d 2059 643e 3ead fc3d 684a 7a3d
00000220: 1f08 073e 63f2 7d3e 4037 203e 39df 503d
00000230: 7a45 9abd 237e fa3d f157 f13d 8a4e fb3c
00000240: 58e7 92bd ecbe 93be 99a4 4fbe fa7b 0bbe
00000250: 49ed 363e 04bb 12be 117b e5be 4f33 c93c
00000260: 7dd8 c9bd ca13 cebe 6b93 023e db28 26bc
00000270: 2436 6c3c 85e1 d0bd d1be 00be f24b 003e
00000280: 272f a23e fa55 6dbe db83 723c de0a 863d
00000290: a169 deba 3422 653e dcc5 86bd 2089 863e
000002a0: 0104 cb3e 9910 b2bc 12c3 be3d 1c27 473e
000002b0: 6232 a23d 4155 01bd 565e 58be 49b8 8abd
000002c0: 87ce 543b 4343 3f3d 6879 e03d 9e55 323d
000002d0: f028 163d b987 a83d 5664 96be 00e1 a63e
000002e0: 270d f73c 508d 0bbe de5b 9e3e e4fa a6bd
000002f0: 6b0c bf3e 2736 ddbd be05 9e3d 5a8a 2a3d
00000300: 4be9 de3d 1363 2f3e 3978 f23d 56a7 363e
00000310: 0d07 acbc d330 ec3d 5a1b 2e3d 28e6 e3ba
00000320: 9b5d 82be 00c4 39bd 4e9d 0ebe d609 58be
00000330: cec0 63be 35ae 7f3d 3258 c43c bb49 eabc
00000340: c99a bfbd 216e 223c fd76 27be 26db 8a3d
00000350: 84d2 f23e f454 d5bd bb72 3bbe 8b56 35be
00000360: 11b9 3f3d 3aef 5fbd 31cb 0dbe 13a9 a13d
00000370: 0ccc cdbd 488f c53d 151a 9a3c f611 9dbe
00000380: 9b95 593e a45b 133d d0d6 7e3e 4f98 afbe
00000390: ecc8 5e3d e5f2 04be ab96 02bc 7534 6f3d
000003a0: ac29 353d 9f0f 2cbd 6dac b13b 4438 8abe
000003b0: 099a 1f3e 946e 92bc 82e7 14be e103 323c
000003c0: 1e40 9abe f7a4 a33e 7a24 993e 9a4e ce3d
000003d0: 04b8 393d a3b9 68bd 4f8e 2e3e d1a6 3c3e
000003e0: c81d 15be e45d ca3d 1ade 68bd 863a 17ba
000003f0: 4d6a 6f3e fc11 89be 0140 69be 8549 43be
-0.22915478 0.3007204 0.07595001 0.4187236 0.022812601 -0.16919877 -0.031572632 0.17184153
0.6178855 -0.11110645 -0.26839635 -0.031238014 0.16264558 -0.041207206 -0.020773888 -0.30970034
-0.31379223 -0.08047197 0.34140342 -0.08475828 0.010482031 0.20347549 -0.13195881 -0.053302787
-0.14973892 -0.17580272 -0.05191146 -0.08546219 -0.3062646 0.04249752 -0.09895188 -0.33619466
0.09081334 -0.05707586 -0.33688447 0.3398868 0.03333359 0.12122223 0.17205726 0.3353715
0.006025477 -0.22610512 -0.15541573 -0.112934545 0.2924379 0.18465124 0.15104845 -0.053940933
-0.15502805 -0.25950474 -0.013680711 -0.2383011 -0.14453459 0.09553028 -0.13922945 0.038778223
-0.2021436 -0.008837365 0.33097717 -0.0914594 0.30621365 0.30222002 -0.24118079 -0.23768868
0.09733351 0.0048533394 -0.08171134 -0.14566727 0.17840765 -0.15073149 -0.13698943 0.06005325
0.21028224 0.3311663 0.042082567 0.21569583 0.106286936 -0.12759234 0.017901067 -0.15727596
0.060492966 -0.09816131 0.4253881 0.44807255 -0.12104712 0.047357026 -0.0872221 -0.11188515
-0.04865943 0.070948936 -0.20981997 0.13087256 0.25533485 -0.06217802 -0.19523378 -0.09560821
0.020006554 -0.118481174 0.0037228188 0.123926684 -0.22741954 0.14928378 0.07744226 0.11649715
-0.41788983 0.049110916 0.3001738 0.21954653 0.15525903 -0.092418514 0.17018391 -0.10592458
-0.05207178 -0.2721745 0.16241203 -0.089509174 -0.32725367 -0.001994834 -0.12066287 -0.2130916
-0.0698469 0.27934888 -0.115944386 -0.061787076 0.14387894 0.06795094 0.0603155 0.13096297
-0.01353743 0.10744816 0.08726816 0.08078136 0.09870781 0.22299623 0.12337731 0.061106116
0.13186692 0.24799494 0.15646076 0.05099413 -0.07532783 0.1223109 0.117843516 0.030677099
-0.071730316 -0.288566 -0.20277633 -0.13621512 0.17863955 -0.14329153 -0.44820455 0.024560599
-0.09855745 -0.40249473 0.12751548 -0.010141577 0.014417205 -0.101992644 -0.1257279 0.12528971
0.316766 -0.23177329 0.014801945 0.065450415 -0.0016968736 0.22376329 -0.065807074 0.26276493
0.39651492 -0.02173643 0.093145505 0.19448513 0.07919766 -0.031575445 -0.21129736 -0.06773431
0.0032471733 0.046695005 0.109606564 0.043538682 0.036660135 0.08229012 -0.29373425 0.32593536
0.030157639 -0.13628125 0.30929464 -0.08153322 0.37314162 -0.10801344 0.07715939 0.04163585
0.10884341 0.17127638 0.11839337 0.17837271 -0.020999456 0.1153275 0.042506553 -0.0017387317
-0.2546204 -0.045352936 -0.13927194 -0.21097502 -0.22241518 0.062421996 0.023967836 -0.02859961
-0.09355695 0.009913952 -0.16353984 0.067800805 0.47426236 -0.10416594 -0.18305485 -0.17708795
0.046807352 -0.054671504 -0.13847043 0.078935765 -0.100486845 0.09646469 0.018811265 -0.30677766
0.21248476 0.035976067 0.24886632 -0.3429589 0.054390833 -0.12983282 -0.007970492 0.058399636
0.044229195 -0.042007085 0.005422166 -0.26996052 0.15586103 -0.017874993 -0.14541438 0.010865183
-0.30127043 0.31961796 0.29910642 0.10073586 0.045341507 -0.056817662 0.17046474 0.1842301
-0.14562142 0.098811895 -0.056852438 -0.00057689135 0.23380394 -0.26771533 -0.22778322 -0.19071014

network_body._body_endoder.seq_layers.2.bias f4 [32]
00000000: 6888 5abc 9140 083c 2a9f cdbc 2744 11bd
00000010: 17ec 4dbb f55e b2bd 3e93 9ebc 1687 3d3c
00000020: 3995 8ebb 2015 b5bc 8f17 553b 626f c3bc
00000030: 2165 93bd 043d 0ebd 7c1f a5bc ab4d 0dbd
00000040: 78dc b9bc c1a0 a8bc 713c bcbc 1e78 87bb
00000050: 3a57 233c a737 31bd 81ea 07bd 1d58 d8bc
00000060: cbd9 72bd 5896 74bd 3a39 e9bc df60 e1bc
00000070: e537 71bd f097 a8bc 37a8 05bd 2798 80bd
-0.013338186 0.008316175 -0.02510031 -0.035465386 -0.0031421238 -0.08709518 -0.01935732 0.0115678515
-0.004351285 -0.0221048 0.0032515263 -0.023856822 -0.07197023 -0.034726158 -0.020156614 -0.034497898
-0.022688136 -0.020584466 -0.02297804 -0.004134192 0.009969527 -0.043265965 -0.033182625 -0.026409203
-0.059289735 -0.05971369 -0.02846967 -0.027512012 -0.058891196 -0.020580262 -0.032631125 -0.06279021

action_model._discrete_distribution.branches.0.weight f4 [5, 32]
00000000: 5624 c1bb f220 60bd 016b f33b df7a 913c
00000010: fc3d 0c3d 6ef9 5a3c f95d d3bc 9630 ac3c
00000020: 4c48 cabb 7ee1 8abd 8e09 c23c fa48 e23b
00000030: c9cd 243d 191c 353c 7a54 02bc e7f6 163c
00000040: b61e 03bd bdb0 b1bc 9b63 673c 65d2 1fbd
00000050: 529c 4f3d 7a6c 56bc c4a4 813c f307 463c
00000060: 436c cb3c 3940 243d 0b18 05bc d7c6 8b3c
00000070: 522b 753d e995 bb3a f690 d13c dc04 71b9
00000080: 00d0 303c 4b58 a5bb 806b b23c 6149 253d
00000090: 8029 8ebb 30ca c5bc f697 0cbc f7d8 d6bc
000000a0: 70e5 dd3c 0284 063c b4bb 86bc 68bc 363d
000000b0: d7cd 163d 9715 093d 6d7b e0bc 66ab e03c
000000c0: 1008 6fb9 1c51 563c 9ffb 8c3c e563 1abc
000000d0: 7483 7e3b 8a41 8b3c e3cf a0bb 1792 9d3c
000000e0: 0662 503d c73c 293d 0cc6 0d3b 8554 c23c
000000f0: ebb5 ce3b ff84 a3ba b823 cabc d233 9ebc
00000100: bcbc d9ba 1894 3e3c 0abf 0a3d 99e2 3fbc
00000110: a637 82bc b670 103c f15e 2b3d 49c8 433b
00000120: 7671 af3c 0956 463c 064a cf3c 560a 313d
00000130: 6703 8fbc 7b9d 673d 678c 5d3c 77e2 2ebd
00000140: f1e4 53bc 686d 83bd 9a43 bdbc bf5f d63c
00000150: b510 203d 7de0 f03c 2ec3 09bc 131d bb3b
00000160: 47fb 4e3d 8ad0 e83c 0407 80bc 45e2 953d
00000170: 671b f03b d1b2 31bd 2be7 e6bb bda0 32bc
00000180: 4f36 8f3c 141d c8b8 7f4e 803c 48e8 54bc
00000190: 04eb 503d b351 6a3a 05e3 c93c daa5 aa3c
000001a0: 5abb 153d fdd2 073c e15f 95bc 709a dd3c
000001b0: 6acd 16bc 7a4b 3c3d a92b 453d 4f0d 993d
000001c0: b930 ac3c e8f1 a23d 2d9e 693b c9fd 843d
000001d0: 9c46 333c 9bc9 1f3c c431 c03c e08e 9cbc
000001e0: 6042 523c cb3d be3c 897d 1c3d 6aa8 d9bc
000001f0: 4ed4 bfbc 61a5 cfbc af17 d73c 8704 21bb
00000200: dc5a 2bbd 41ff 1c3c 1d66 54bb c692 ccba
00000210: c2c7 edbb 617c 153d 8b97 8f3c f912 13bd
00000220: 7057 ebbc fedb 8a3b 8cbb 0d3d 28a7 a73c
00000230: 634e a43c 7ada ccbc 7b89 dd3c 1884 0e3c
00000240: a4e7 233d 0c6b 4f3d 763e b83c f349 1d3d
00000250: 9c5b 47bd 1b04 1a3d 155e 5e3a 411e 343b
00000260: d01d 593c 3856 65bb 25fb 1c3d 0fc0 9b3d
00000270: b72e 3abb 8475 103d c216 bb3c 558c 2d3d
-0.005894224 -0.05471892 0.0074285273 0.017758785 0.0342388 0.013365133 -0.025801646 0.021019261
-0.0061731692 -0.067812905 0.023686197 0.006905672 0.040235315 0.011054062 -0.007954711 0.00921414
-0.03201171 -0.02169072 0.014122869 -0.039019007 0.050686188 -0.013087386 0.015825637 0.012086856
0.024831897 0.04010031 -0.008123408 0.017062588 0.059855767 0.0014311644 0.025581818 -0.00022985361
0.010791779 -0.0050459257 0.021779776 0.040353183 -0.0043384433 -0.024144262 -0.008581152 -0.026226504
0.027086943 0.008210184 -0.016446926 0.044613272 0.036817398 0.033467855 -0.027402604 0.02742548
-0.0002279582 0.013080861 0.017209826 -0.009423231 0.0038835676 0.016999025 -0.0049075945 0.0192347
0.050874732 0.041317727 0.0021632938 0.023721943 0.0063083074 -0.0012475549 -0.024675235 -0.01931182
-0.0016612033 0.011631988 0.033873595 -0.01171174 -0.015895676 0.008815935 0.04183859 0.0029874018
0.021416407 0.012105473 0.025303852 0.043222748 -0.017457677 0.05654667 0.013522244 -0.042696442
-0.012933002 -0.06417352 -0.023103524 0.026168702 0.039078433 0.02940392 -0.008408351 0.005710253
0.050532605 0.028419752 -0.015628345 0.07318548 0.0073274854 -0.043383423 -0.0070466003 -0.010902581
0.017481951 -9.5421594e-05 0.01566243 -0.012994833 0.05100538 0.0008938566 0.024644384 0.020831037
0.036555625 0.00829005 -0.018234195 0.02705118 -0.009204248 0.045970418 0.04813734 0.074732415
0.021019327 0.07956296 0.0035647259 0.06493718 0.010942128 0.009752656 0.02346123 -0.019111097
0.012833208 0.023222825 0.038205657 -0.026569564 -0.023416664 -0.025347413 0.02625641 -0.002456935
-0.041834697 0.009582342 -0.0032409497 -0.0015607707 -0.007256479 0.03649557 0.017528316 -0.035906766
-0.028728217 0.004237651 0.034602687 0.020465448 0.020056909 -0.025006521 0.027043095 0.008698486
0.04001583 0.050639197 0.022490721 0.0384006 -0.04867135 0.03760157 0.0008482647 0.0027483853
0.013251737 -0.0034994017 0.038325448 0.07604992 -0.0028409192 0.03526832 0.022838 0.04237016

action_model._discrete_distribution.branches.0.bias f4 [5]
00000000: 5bfe e53c 67b1 92bd e6f3 b3bd b0ea 113d
00000010: 593c c63d
0.028075388 -0.07162743 -0.08786754 0.035624206 0.09679479

action_model._discrete_distribution.branches.1.weight f4 [2, 32]
00000000: b461 093d 3097 0839 2f5f d0bb c430 02bd
00000010: 941b d43b 4f1b 093d eebe 583d 0522 34bd
00000020: f53b 0abd 66b0 333c 72e8 8cbc 9646 8bba
00000030: daef 5a3c 8072 fe3a 68d3 7f3c 5248 84b9
00000040: d246 043d 159b 043d dc8d 0ebc 8f2e 063c
00000050: 5ae6 1e3d 5c95 d13c ae0a f63a 948d 433c
00000060: f001 19bc b200 13bb 21cb 053c 795b 42bd
00000070: 4a5d 003c 001a bbbc 2c41 453b feb6 d13b
00000080: 1c26 c43b cdcf 1abc 77ae 383b 10d1 d63b
00000090: 3a8d 453c 93f5 24bb c0ea bebc 5276 a63c
000000a0: 2c28 2ebb c9e5 05bc 1c92 fd3b 17f3 20bd
000000b0: aac5 d2ba e05e e63c 8951 45bc a188 9d3a
000000c0: e3a1 44bd 072d de3b 65dd 5fbc e1af ddbc
000000d0: 3884 47bd 5624 9b3a db62 1e3d 3003 54bb
000000e0: 37dc 973c 3da1 d53c 7bd4 dbbb 866e 4f3d
000000f0: e8c9 2abc aa43 933b 5929 b43b e317 8ebb
0.033540443 0.00013026292 -0.006359003 -0.031784788 0.006473014 0.03347331 0.05291646 -0.043977756
-0.033748586 0.01096735 -0.017200682 -0.0010625895 0.013362849 0.0019412786 0.015614368 -0.00025230885
0.032294102 0.03237446 -0.008700814 0.008189811 0.0387939 0.025583915 0.0018771493 0.01193561
-0.009338841 -0.0022430834 0.0081661055 -0.047450516 0.007834742 -0.022839546 0.003009866 0.006399988
0.0059859883 -0.009448958 0.002818016 0.006555684 0.012057597 -0.0025170788 -0.023305297 0.020320091
-0.0026574237 -0.008172461 0.007738365 -0.03929433 -0.0016080637 0.028121412 -0.012043365 0.0012018868
-0.04800595 0.00678027 -0.013663624 -0.027061405 -0.048710078 0.001183639 0.038668495 -0.0032350533
0.018537624 0.026077861 -0.0067086793 0.050642513 -0.010424115 0.00449415 0.005498093 -0.0043363436

action_model._discrete_distribution.branches.1.bias f4 [2]
00000000: 32a6 deba 5ca6 de3a
-0.0016986786 0.0016986835

action_model._discrete_distribution.branches.2.weight f4 [2, 32]
00000000: 4391 8abc 29a3 67bc ff86 79bd 6a56 bb3c
00000010: 757c d33c 15df 86bb 0632 113b 1993 4bbd
00000020: 12fe 80bc 7eea e43c 18ed 02bd 51be c6bb
00000030: a14e 02bc 05be 673b 562c 54bb b58d 143d
00000040: 4114 8dbc c9f0 8d3c 9dd1 9e3c eebd b73c
00000050: 8bf9 d3bc 8a2b 693a e952 24bb 26e9 953c
00000060: a919 51b9 ca5c c53c d618 d13b 166b c73b
00000070: c8e3 0b3d 0839 91bc eca5 843c 5117 48bb
00000080: b848 d33c 34b5 3f3c 069d 0f3c efef 5e3c
00000090: d528 16bc 7a23 2cbc 5cff 6b3b 2d86 693d
000000a0: 3e60 033c 3445 42bd cce3 c7bb 04b7 11bc
000000b0: 8222 163c 7a75 06bd d02c a53c b3f1 47bc
000000c0: f878 07bd 6043 d93c 51f1 f53b ce29 ec3b
000000d0: 4dbb 87bc a9dd cb3b ec70 3a3c 5f5f 693c
000000e0: 2c15 933c ff94 52bc de4b 3a3a d410 11bc
000000f0: 7cf9 86bb b623 0d3d d0b0 5b3c d10a 473c
-0.01691497 -0.0141380215 -0.060919758 0.022868354 0.025816182 -0.004115949 0.002215506 -0.04970083
-0.01574615 0.027943846 -0.03196439 -0.006065168 -0.007953317 0.0035361063 -0.003237506 0.036267955
-0.017221572 0.01732673 0.01938706 0.022429433 -0.025875827 0.00088947325 -0.0025073832 0.01829965
-0.00019941352 0.024092097 0.0063811345 0.0060857637 0.034152776 -0.01772739 0.016192399 -0.0030531476
0.025791511 0.011700917 0.008765465 0.013607009 -0.009165009 -0.010506505 0.003601036 0.057012726
0.008018551 -0.04742928 -0.0061001536 -0.008893732 0.009163501 -0.032826878 0.02016297 -0.012203622
-0.03307435 0.026521385 0.007505574 0.007207132 -0.016568804 0.0062214923 0.011379462 0.01424393
0.017954431 -0.012852906 0.0007106642 -0.00885411 -0.0041190963 0.034457885 0.013408855 0.012148575

action_model._discrete_distribution.branches.2.bias f4 [2]
00000000: ef01 963c e001 96bc
0.018311469 -0.018311441

action_model._discrete_distribution.branches.3.weight f4 [13, 32]
00000000: d52a ae3b 19df 9a3c f9ef 133d 3f09 3c3d
00000010: 339f bd3c 803b 923c 57a7 a63b c6cc a63c
00000020: c2f6 433d 1fd0 0fbd ac22 f03c fa38 763d
00000030: 875a 0d3d 576b 363d 9ce4 5a3d d73c 433d
00000040: bc7f 153c ba9e 8f3d edc7 d73c b1aa 443d
00000050: 396a 143d a4b6 983c 22f6 e73c b0ce 79bc
00000060: 4b18 c63c 3aa0 f93c e0bc b73c f12b d13c
00000070: bb4b 763c d7c3 a93c 0dba dd3c 30e3 2cbb
00000080: b46c b8bc 1ba6 4abd 9359 3d3d b487 963c
00000090: 7c41 1a3d 6370 103d a0e4 a63d c816 d4bb
000000a0: ff56 32bd a46c 763c 274f a4bc b415 003d
000000b0: a748 cc3c 3105 2d3e 30cd cc3c 4581 4b3c
000000c0: 70d6 143d 1e28 f13c 6d64 603d 6cfe 073d
000000d0: c7d9 86ba 4d48 193d 18ab 213d 485b 073d
000000e0: 1ec3 793c 2f43 0d3c 3900 533d c2f9 43bd
000000f0: cd32 60bc 0638 fa3c 4e7c 85bb a9f3 d83c
00000100: 9a9b 8f3b b93a 8abd 589d c73c f8b4 813c
00000110: 7e48 2f3d 86fa cfba 6508 8d3c 0d8d 833b
00000120: 6d14 7f3d 14ae 4f3d e849 813c 5530 f83c
00000130: ea74 f33c daf0 f33d 1b55 b03c 0def c53d
00000140: aca7 d2bc 1250 1a3d 1297 c73c fa2a af3d
00000150: bb85 b4bb 74cf 713c 3097 903c b90b 0d3d
00000160: 42d0 9a3d f2d2 593d 8bc6 083d 2c9d e73b
00000170: e439 8d3c aeef 373d 87bb 7b3c 6de4 283c
00000180: f69c 83bc 0a71 f2ba 0974 75bc 95b9 533d
00000190: 757d 0c3d 5862 1a3d bf54 1d3d c1ac 23bb
000001a0: 24e5 6f3d c8d5 0c3d 94f4 fe3c bf49 d23c
000001b0: 2034 8d3c 9c42 1d3e deda e93b d8fc a33d
000001c0: 0c11 96bd 1b19 8c3d 861a 083d adb5 b53d
000001d0: 09fc 9fbc 8b83 bd3c 2459 173d 75cb e53a
000001e0: f33c 343d 8552 603d f3b0 693c c591 123d
000001f0: 2de8 503b 5764 4abc df5e 1a3c 6972 de3c
00000200: 17be 813c 5e02 13bc 6192 3c3d a1ef 153d
00000210: aa9c 0d3d 3af1 f0bc e21d b43c 06cd 8c3c
00000220: 8acd 8d3d 199a 4bbc d25b a6bb 56f7 fc3b
00000230: ebbd 843c 3e9c 943d 9dfa e13c 90b5 c93d
00000240: 3e4e 8cbc 70ee f13c d909 213d dd26 443d
00000250: 57af 833c 7435 4b3d cff8 263d 62aa 3b3d
00000260: e6ed d33d 2abc 683c 9e93 b03c 61c7 2b3d
00000270: 2b10 633c 9e29 0e3d a153 223d 7492 febb
00000280: e785 c93c 07e7 0bbc 6a31 343d 31bb 4f3d
00000290: fc06 c43c 1c4c 4d3b 0bf3 f43c c89a b1bc
000002a0: 7b03 e03c 77c1 273c d729 55bb c7c5 8a3d
000002b0: a410 7d3c a917 b63d ca90 543b 0f18 dd3c
000002c0: 6743 b23c e504 a23d f80b 213d 01de 61bb
000002d0: d463 233d b56f c33c 199c 453d fb9f f03b
000002e0: 504e 943d b5c3 7d3d 4420 613d cfec 3b3c
000002f0: c44e 853c 098d 00bd c83a e93c 19f1 f33c
00000300: ad15 44b9 0906 a63b d2d1 523d f428 433d
00000310: 6f3b 463d 964c bc3c 7dce 333d 8899 33bd
00000320: 36ea 583c 2784 423c 8ebd bbbc fe6a 193d
00000330: 3877 843c 5319 9d3d da8c 873d a460 9f3d
00000340: 8475 9fbb 02f8 203d b6b3 f03c 9291 c93c
00000350: a4d2 16bd e625 e33c d893 883d 37be 5f3d
00000360: d037 813d b660 a9bc bbde 1e3c 3db0 523d
00000370: 5ce3 0b3c b43e e43a b546 673c 2416 b93c
00000380: 101a 623b c95c dcbc 92ea 6f3d b058 643d
00000390: 2978 893c 7cd9 edbb 87de 023d 8d2e 98bc
000003a0: e3f5 403d 4f14 05bc d3ea 543c d1a0 40bb
000003b0: dbb8 e63c 1ccf 913d 8585 d8bb 365b 523d
000003c0: 57b5 e2bb bd2e bb3d e026 e53c cc11 7e3d
000003d0: 1d87 7cba ffda 3c3d ae1d 893c 7658 b13d
000003e0: 85b3 863d 7ad8 193d ce28 1c3d eabe 413d
000003f0: f9f8 8c3b 72de ce3c 145b 323d d028 f93b
0.0053151646 0.01890521 0.036117528 0.045907255 0.023147201 0.017850637 0.0050858664 0.020361315
0.04784275 -0.03511059 0.029313408 0.06011293 0.03451016 0.04453596 0.053440675 0.047665443
0.0091246925 0.070126966 0.02634045 0.048014347 0.036234114 0.018641777 0.028315607 -0.015247032
0.024181506 0.03047191 0.02242893 0.025533648 0.015032704 0.020723267 0.027066255 -0.0026380531
-0.022512771 -0.049474817 0.046228003 0.018375255 0.037660107 0.03526343 0.081490755 -0.0064724423
-0.043539997 0.01504055 -0.020057274 0.031270698 0.024936987 0.16896512 0.025000185 0.012420957
0.036337316 0.029438075 0.054783273 0.03320162 -0.0010288291 0.037422467 0.03946981 0.033046037
0.0152442735 0.008621975 0.051513884 -0.04784561 -0.013683987 0.030544292 -0.004073656 0.026483374
0.004382563 -0.06749482 0.02436702 0.015833363 0.042793743 -0.0015867508 0.017215917 0.0040146173
0.06227534 0.050703123 0.015782312 0.030296484 0.029718835 0.11911173 0.021524956 0.09664736
-0.025714718 0.037674017 0.024364028 0.08553119 -0.005509106 0.014758933 0.017650217 0.034435008
0.07559253 0.05317969 0.03339247 0.007068297 0.017239518 0.04490631 0.015364534 0.010308367
-0.016066056 -0.0018496823 -0.014981278 0.051690657 0.034299333 0.037691444 0.0384109 -0.0024974796
0.058568135 0.034383565 0.031122483 0.02566993 0.01723677 0.1535744 0.0071366867 0.080072105
-0.0732747 0.06840726 0.03322842 0.088725425 -0.01952936 0.023134014 0.036950245 0.0017531948
0.04400344 0.054766197 0.014263379 0.035783548 0.0031876669 -0.012353024 0.009422033 0.027154164
0.015837712 -0.008972732 0.046038035 0.03660548 0.034573235 -0.0294119 0.021986905 0.017187607
0.06923969 -0.012426876 -0.005076864 0.0077199144 0.016203841 0.07256363 0.027585322 0.098490834
-0.017127153 0.029532641 0.039316032 0.047888625 0.01607482 0.049611524 0.040764626 0.045816787
0.1034811 0.014205018 0.021554764 0.04193819 0.013858835 0.034707658 0.039630536 -0.0077689234
0.024599982 -0.008538968 0.043992437 0.05071563 0.023929112 0.0031325882 0.029901048 -0.02168025
0.02734541 0.010238997 -0.003252616 0.06776004 0.015445862 0.088912316 0.0032434934 0.026989011
0.021760656 0.0791109 0.039318055 -0.00344646 0.039890125 0.023856977 0.04824457 0.00734329
0.072414994 0.06195422 0.05496241 0.011470034 0.01627291 -0.0313845 0.028470412 0.02977805
-0.00018700091 0.0050666374 0.05146963 0.047646478 0.048396524 0.022985738 0.043898094 -0.04384759
0.013239434 0.011872328 -0.022917535 0.03745555 0.01617013 0.07670846 0.06618662 0.077821046
-0.004866304 0.03929902 0.029382568 0.024605546 -0.036821976 0.027728032 0.06668824 0.054624762
0.063094735 -0.020675998 0.009696658 0.051437605 0.008538093 0.0017413707 0.014115979 0.022593565
0.0034500398 -0.026899712 0.058573313 0.05574864 0.01678093 -0.007258592 0.0319505 -0.018576885
0.047109496 -0.008122518 0.01299544 -0.002939273 0.028164318 0.07119581 -0.0066077136 0.051356517
-0.00691859 0.09139774 0.027972639 0.06202869 -0.00096331706 0.04610729 0.016737785 0.08659451
0.065772094 0.037559964 0.038124852 0.04730121 0.004302141 0.025252555 0.04354389 0.007603742

action_model._discrete_distribution.branches.3.bias f4 [13]
00000000: 71a8 ed3c f92e fb3b cff5 03bb f3eb 723c
00000010: d332 9f3b 37e4 99bc cda6 cf3c 4268 49bd
00000020: 382f bb3d 12fc eb3c 2e1e 9b3d 0c0f 12bc
00000030: d60d 25bd
0.029010983 0.0076655117 -0.0020135527 0.0148267625 0.0048583536 -0.01878558 0.025348091 -0.049171694
0.09139866 0.02880672 0.07574116 -0.00891472 -0.040296398

action_model._discrete_distribution.branches.4.weight f4 [1, 32]
00000000: 8f75 093c 2e82 163c 3c02 183c 97dc 29bc
00000010: 4513 72bb e33e 04bc e72d b0bb d9da c8bc
00000020: 567c 473c 7773 ffbc 0e4f 9b3b faf0 a83b
00000030: df48 1e3c c03f dcbb f8f6 05bd 3b06 bf3b
00000040: cc22 843c 643c 20bc 16c9 8e3c 92de 9eb9
00000050: 7a5a 10bb 958c cd3c 072f 6e39 8464 c93a
00000060: 4de5 ba3c ed3c 223c f323 e3bc e7cf 243c
00000070: 1728 093d 1f48 9d3b f3f8 f63c d878 603c
0.008389845 0.009186311 0.0092778765 -0.010367534 -0.0036937755 -0.008071634 -0.0053765657 -0.024518417
0.01217564 -0.031182988 0.0047396487 0.00515568 0.0096609285 -0.006721467 -0.03270623 0.0058296
0.016129874 -0.009780023 0.01742987 -0.00030301936 -0.0022026584 0.025091449 0.00022714968 0.0015365039
0.022814417 0.009902221 -0.027727103 0.010059333 0.0334855 0.0047998573 0.030148005 0.013700686

action_model._discrete_distribution.branches.5.weight f4 [4, 32]
00000000: fbcd 57bc 8d3a 84b8 aa96 033d 9380 a13c
00000010: a5f0 3b3c cba5 1d3c 81f7 25bd bda5 ff3c
00000020: d121 073c 9790 8cbc 5ab3 823c 632e 0b3c
00000030: 2505 883c b273 bebc 5080 713d e32d a83c
00000040: 9713 52bc a129 ff3b d18c 383c 03ca 64bb
00000050: 65f8 3bbc 4f67 663c c4e5 cebc aadb 8e3c
00000060: ddee 683b 46df 063c 3186 753b a007 af3c
00000070: fbfc 7dbb 4567 6d3c 7ff7 223c b21c 013d
00000080: a30c b1bc 653a 2f3c e6e6 9dbc 5825 1d3c
00000090: 35d3 e03b b127 d83c b678 c73c acf4 bbbc
000000a0: ce79 8d3c da79 b03b 7893 babc 1397 6c3c
000000b0: 892e 333b 0c9b cdbc dbf0 a83c 0d7e 823d
000000c0: 3686 b0bb c90b 0dbd 3ecc a03c 6ec5 2d3d
000000d0: 52c0 2a3d 0bdc e13c 5c70 d83b 57cf 05bd
000000e0: a888 393d ad5d 2ebc a4ed 85bb 038d 1b3c
000000f0: d034 edbc 863f 3fbd 580e b9bb 2a00 95bb
00000100: b94c 01bb 9987 343d 4df0 f83b 3672 3b3c
00000110: 6e0a a73c 97d4 613b a2bc 8e3c 7440 09bd
00000120: 2bb1 d43b a5d8 813d c73b 3038 8f85 9abc
00000130: a516 babc d968 eebb 25ae 293d 1bb9 f83c
00000140: add9 4b3d 2561 a43c bf75 ff3a cb0d d73a
00000150: 7d27 78bb b173 083d d762 e33c d9e3 4d3d
00000160: 4864 ef3b 837b ec3c 0c0c 223d be61 dabc
00000170: 9642 083d 52d8 b93c 0e36 8ebc 8f4e c63b
00000180: c84d 11bc a677 70bd f589 bf3c efcb ce3b
00000190: 8142 133c 4de9 b739 d8cd c33c c00d 843c
000001a0: 5de4 3e3d bc01 3ebd ddb3 92bc b5ec c5bc
000001b0: 875b c7bc 87eb 93bc b4bf 71bd c371 0c3c
000001c0: a454 a7bd 1bbe 2bba 994a 233c b3e6 3abc
000001d0: 932b ea3c d62a 9e3c a783 d7bb 971e 31bc
000001e0: dda6 6ebc 6575 11bc df85 0b3c 4738 303c
000001f0: cafe 9b3c 51bf 12bd e53e 203d 9474 903c
-0.013171668 -6.3051564e-05 0.032126106 0.01971463 0.011470948 0.009622048 -0.04051924 0.03120696
0.008247809 -0.01715879 0.015954662 0.008494946 0.016604016 -0.023248527 0.05896026 0.020529693
-0.012822053 0.007786945 0.011264042 -0.0034910447 -0.011472796 0.014062717 -0.025256045 0.017438728
0.0035542764 0.0082319435 0.0037464018 0.02136594 -0.0038755524 0.014489953 0.009946703 0.031521507
-0.021612471 0.010695075 -0.01927514 0.009591423 0.0068611153 0.026386114 0.024349552 -0.022943817
0.017269995 0.0053856196 -0.022775397 0.014440316 0.002734097 -0.025098346 0.020622661 0.063716985
-0.005387093 -0.034435067 0.01962864 0.04242461 0.041687317 0.027570745 0.006605191 -0.032668438
0.04529634 -0.010642451 -0.004087167 0.009494069 -0.028955847 -0.04669144 -0.005647462 -0.0045471387
-0.0019729568 0.04407463 0.0075970055 0.011440804 0.020390715 0.0034458989 0.017423932 -0.033508733
0.0064908466 0.0634015 4.2017342e-05 -0.018862514 -0.022715876 -0.0072756824 0.041425843 0.030361703
0.04976814 0.020065853 0.0019490047 0.0016407309 -0.0037865334 0.033313457 0.027757091 0.05026612
0.0073056556 0.028867489 0.03956227 -0.026657935 0.033266626 0.022686157 -0.01735976 0.0060518454
-0.008868642 -0.058707856 0.023381213 0.006310932 0.008988024 0.00035078303 0.023901865 0.016119838
0.046604503 -0.046388373 -0.017908031 -0.024160722 -0.024335636 -0.018056644 -0.059020713 0.008572045
-0.08170441 -0.000655146 0.009966516 -0.011407542 0.028585231 0.019307535 -0.0065769735 -0.010810516
-0.0145661505 -0.008878087 0.008515804 0.010755605 0.019042391 -0.035826985 0.03912248 0.017633714

action_model._discrete_distribution.branches.5.bias f4 [4]
00000000: 1cd6 ae3b e637 553c 89ee c83b 7a20 34bc
0.0053355824 0.0130138155 0.006131951 -0.010994071

action_model._discrete_distribution.branches.6.weight f4 [4, 32]
00000000: e23f d0bb a4e3 b03c 5796 ba3c 1e81 b03b
00000010: fa15 c5bb 37b0 093c 2fde 07bb 8ef2 3f3a
00000020: 0a9e 0b3d ad4c f93b fbe0 183c d8ba 983a
00000030: d928 ffbb 846b cbbc 89d5 52bd 494c 473c
00000040: df2b 52bc a9b4 5b3d 8eb1 0ebc 9c9d a93d
00000050: 08c3 453b 19da 59bb 1298 8e3c ede8 bfbc
00000060: 24f3 533d 8a58 c4ba 05ff 943c a967 c43c
00000070: da06 cb3c 44d8 8bbc 0f19 66ba 2d85 0c3c
00000080: 1eb4 873c 1555 1ebc be98 523d fbe4 353c
00000090: e99f 863b fbd1 87bc c42e 7fbb ab7e a53c
000000a0: 93a6 1f3c c088 05bd 0f1a bbbc 45d8 063c
000000b0: 8d45 f43c 033c c03d 52e5 13bb c807 76bc
000000c0: c6a0 a93b 4e52 033d 859c 953c c225 0d3c
000000d0: e68d 57bc 959b 9f3c e68b 47bc d1a9 983d
000000e0: a6b0 473c d91e 80bb 958e 76ba ff4c 48bd
000000f0: 95e9 203d 630c 333d 2d30 203d 9b8b 1a3c
00000100: fbbb b2bb 145a 96bc 18d3 cc3c 049e 15bb
00000110: 9d89 463c 98ed e03b 9d3c 8bbc 968b 12bc
00000120: a21d 653d 8369 19bd 5c70 623d 67a1 18bd
00000130: fc43 0fbb 64bf 103d 9860 353c 6372 1a3d
00000140: 2b34 d13c ab03 3b3d 9e4b d73c 3018 e73c
00000150: 210c 793d 84c5 7abc 2ab4 7a3c 8f54 28bc
00000160: 2e55 303d ac9d 3e3c 8797 dabb 474b 353b
00000170: 28be bcba 7a05 df3a b918 61bc 0c33 913b
00000180: 55d1 263c e332 d3bc 6c68 253c ff95 b0bc
00000190: 7742 783b 13cf 38bc c5d7 fe3c ff4f 7eba
000001a0: 44c0 043c 8fcc c73a f7af 033c d042 df3c
000001b0: 2a05 8c3a f4ab f13c 3aac e13c 7c68 a13c
000001c0: 6cc0 64bd 5476 0d3d 088f 183d 8e97 583b
000001d0: dd8b 7cbb f9c7 633c a88e 4b3c 927d 84bc
000001e0: 3272 d73b 75a3 9abc bdae a03b 78cb 9e3c
000001f0: 9b96 0dbd 22e4 1fbd 03ac bb3c 0c2d 353c
-0.0063552717 0.021592923 0.022776766 0.0053864857 -0.0060145827 0.008403829 -0.0020731797 0.0007322215
0.034086265 0.0076080174 0.009330983 0.0011652363 -0.007786852 -0.02483154 -0.051473174 0.012164184
-0.0128278425 0.053639088 -0.0087093245 0.08282015 0.0030176062 -0.0033241569 0.017406497 -0.023426497
0.05174555 -0.001498 0.018188009 0.02397521 0.02478354 -0.017070897 -0.0008777538 0.008576673
0.016565379 -0.00966384 0.051415198 0.0111019565 0.0041084182 -0.016579619 -0.0038937787 0.020202002
0.009744304 -0.032601118 -0.022839574 0.008230274 0.02981832 0.09386446 -0.0022567105 -0.015016504
0.0051766364 0.032060914 0.01826311 0.008614959 -0.01315639 0.019483367 -0.0121793505 0.07454265
0.012188112 -0.0039099273 -0.00094054017 -0.048901554 0.03928526 0.043712985 0.039108444 0.009432699
-0.005454538 -0.0183535 0.025003001 -0.002282978 0.0121177705 0.006864261 -0.016996676 -0.008944413
0.055936463 -0.03745414 0.055282936 -0.0372633 -0.002186059 0.035338774 0.011070393 0.037706744
0.025537571 0.045657795 0.026281174 0.028209776 0.060802583 -0.01530588 0.0153017435 -0.010274067
0.043049984 0.011634272 -0.0066708955 0.0027663277 -0.0014399933 0.0017015182 -0.0137388045 0.004431134
0.010181745 -0.0257811 0.010095697 -0.021555899 0.0037881413 -0.011279839 0.031108746 -0.00097012514
0.00810248 0.0015243458 0.008037559 0.027253538 0.0010682691 0.029500939 0.027547944 0.019703142
-0.05584757 0.034536675 0.03724578 0.0033049318 -0.0038535513 0.013902658 0.012424149 -0.016173158
0.0065748924 -0.01887677 0.004903643 0.01938413 -0.034567457 -0.039035924 0.02290917 0.011058103

action_model._discrete_distribution.branches.6.bias f4 [4]
00000000: 7da3 e53c e380 c2bc 8c49 ca3c c2ec 0dbc
0.028032059 -0.023743099 0.024693273 -0.0086624045
