Assets/ML-Agents/Models/BattleSystem.onnx (onnx, 141746 bytes, 40 tensors)

discrete_act_size_vector f4 [1, 18]
00000000: 0000 a040 0000 a040 0000 a040 0000 a040
00000010: 0000 0040 0000 0040 0000 0040 0000 0040
00000020: 0000 0040 0000 0040 0000 0040 0000 0040
00000030: 0000 4040 0000 4040 0000 4040 0000 4040
00000040: 0000 803f 0000 8040
5.0 5.0 5.0 5.0 2.0 2.0 2.0 2.0
2.0 2.0 2.0 2.0 3.0 3.0 3.0 3.0
1.0 4.0

network_body._body_endoder.seq_layers.0.weight f4 [128, 8]
00000000: d21b edbe ac3e 013f cd2a b63d 1320 9c3e
00000010: 4516 af3d a39c bd3e ade2 203e aa88 2cbf
00000020: a591 3d3e 4056 a2bd 158e 533e 2322 2cbe
00000030: e539 8b3c 8bba 18be a2d5 84bf 9bac 6c3e
00000040: 3dcc d7be d3f6 29be f815 fd3e a40d f1be
00000050: dcf2 a8be fb77 a8be 31e8 313e f1f4 89bd
00000060: 83b8 b1be 14fe 30be 5792 bcbe 2a02 563e
00000070: 9063 663f 5b34 c03e 2569 18bf a0e5 3d3e
00000080: b376 41be 599a 683d 29d1 9b3e 901c c83e
00000090: 39a3 643e 1661 acbe 74c2 363e cbc9 e73d
000000a0: 93dc 36be a4e1 14bd 45b5 bc3c 86c3 0f3e
000000b0: 465e 00bf 0e0f 123f a94b ce3d aeb7 41bd
000000c0: b787 9ebe f818 a8be e206 8a3e f56d e1be
000000d0: f4de bfbd 7e84 853e 8316 593e 94f3 ce3e
000000e0: 1efc 133d d1f1 653e 36f1 cf3e b79d 773f
000000f0: 4236 3dbf 7b35 9ebe 601d 8abd 0ce7 19bf
00000100: 9bed f538 51b0 103e 6ee6 3dbe 812f 523e
00000110: 0406 d83d cff5 813e 56bd 15be a5e2 ce3e
00000120: 1ea7 40bf ab68 6abf 0a85 3cbe 0466 f5be
00000130: 1d64 1bbd 0ba7 dabe 3492 853f 7c89 323f
00000140: 5752 743f bec1 c93a b7f1 9cbe 88ab 1d3f
00000150: a301 a2be b0b4 c7bd ba36 883d 442f d3be
00000160: 4eab b4bd d66e 75bb 113b 073f 95e1 3e3e
00000170: bbac 08bf 4b11 31be 2a78 e43d 15db 463d
00000180: c183 7cbe ebee 78be 9d7d eebe e9f2 e53d
00000190: b63f 563d 2ba2 7dbf e212 c0be 0d59 733e
000001a0: 0686 ae3d 1495 e03e 2c6d b63d 1ec0 eebd
000001b0: 694d c2be 071d 1e3e cc22 b13d daad c2be
000001c0: d31e 19bf 52c4 033f a46a 05bf be3c a33d
000001d0: 5fa1 a9be e7c6 5cbf 6fab 1a3d 2e78 88be
000001e0: eedf e7be 7052 a53e 536d 21be 96d8 353f
000001f0: 60bd 183e 17ed a0be d9ab 043d 2a5a 4c3c
00000200: 9065 26bf 0d08 aa3d c877 24b9 d2a7 533e
00000210: 98db 873e 47c8 463f b4ee 06be 35e5 1a3f
00000220: 7fb2 2e3e 98eb 52bd deff e9bd a9dc 103e
00000230: cf1c 8c3e 511f 2fbe 394a d3bd c5f2 5ebe
00000240: 9653 52bf 3264 403f 7d8a 443d c02e 98be
00000250: 7537 dabc fcaa 8dbe 71e3 b9be 5e9b 033d
00000260: 4b9b 083e 07d8 2ebf a87b 33be 95a3 01bf
00000270: a279 8bbd 3aa0 76bd 9ea6 b3be 239e 8bbe
00000280: 44f1 cc3e bb25 943e d3d2 afbc 8325 c13e
00000290: 31a4 0fbe 1552 73be d7ad f53e 128e 993e
000002a0: 389e 013f b565 cbbe 1f4b a1be 036d 813e
000002b0: 867a 673e c60e 3d3e 4f60 a1bd 980a ebbe
000002c0: 97b5 20bf 8794 7e3e 899b 03bd aa27 1c3e
000002d0: 24a6 b7be 790c 353e 7dd5 babe 331c 253e
000002e0: c83f 323e 4bd2 a43e 71ec 863e d633 313e
000002f0: 00d8 963d bd6c aabe 32ad 0cbf c43a 42be
00000300: 856a aebd f4c3 883e 3c31 c2bd 2701 ce3e
00000310: 9604 64be 747c f23d f939 343d 9d03 843c
00000320: 68d6 b53d 2d5c d2be fd9e 293f 798e a7be
00000330: 996c c73e b39c 08be e0d1 93bb 2d5a 9bbe
00000340: 6740 b73e 19a4 f1be b941 663e b2f1 05bf
00000350: c0ce b9bd 5bf6 6b3e ed1d 713e 2a2c edbd
00000360: dfaa 15bf a73e 0d3e 3b2a 8ebd 2e0a 7c3e
00000370: 0863 1a3e 14e2 94bc f68c 7abe 908f 303e
00000380: f9d1 9abd 66c4 d0be 794e 3bbe 908e 393e
00000390: aca6 ab3e 8956 30bf a7df 9cbe 74c4 343f
000003a0: 0343 86be f0a3 033d 7a15 5d3f 789a 34bf
000003b0: 78ba 45bf 1c20 14be 48be 213f e520 8e3e
000003c0: e117 ac3e 6a9c 92be 9007 cc3e 8fe5 853d
000003d0: a0d7 ed3c 670e 4fbf af96 14bf f850 f7be
000003e0: 51f1 5ebe be9a ba3e cc28 883e f595 823e
000003f0: 42e3 283e f393 063f 864f 08bf 09d3 0cbf
-0.46310288 0.50486255 0.08894882 0.3049322 0.085491695 0.37033567 0.1571147 -0.6739603
0.1851259 -0.07926607 0.20659669 -0.16809897 0.01699538 -0.1491491 -1.0377696 0.23112719
-0.4214801 -0.16598062 0.49430823 -0.4708072 -0.32997787 -0.32904038 0.1737373 -0.06736172
-0.34711084 -0.17284423 -0.36830398 0.20899263 0.8999567 0.37539944 -0.5953544 0.18544626
-0.18892936 0.056787822 0.30433014 0.3908429 0.2232789 -0.3366782 0.17847615 0.11317786
-0.1785758 -0.036348 0.023035655 0.1403943 -0.5014385 0.5705422 0.10073025 -0.04729431
-0.30962917 -0.3283155 0.26958376 -0.44029203 -0.09368697 0.26077646 0.21199994 0.4042021
0.03612911 0.22455527 0.40613717 0.9672503 -0.73910916 -0.30900177 -0.06743884 -0.60118175
0.00011726768 0.1412976 -0.18544933 0.20525934 0.105480224 0.2538285 -0.14623007 0.4040729
-0.75255 -0.9156596 -0.18410125 -0.47929394 -0.037937272 -0.4270557 1.0435243 0.69741035
0.9543814 0.0015392823 -0.30653164 0.6158986 -0.31641874 -0.0975126 0.06651063 -0.41246998
-0.08821736 -0.0037450097 0.52824503 0.1864074 -0.53388566 -0.17291753 0.11155732 0.048548777
-0.24659635 -0.2430989 -0.4658021 0.11227972 0.052306853 -0.99075574 -0.37514406 0.23764439
0.08521657 0.43863738 0.08907542 -0.11657737 -0.37949684 0.1544076 0.08649215 -0.38023263
-0.5981266 0.51471436 -0.52115846 0.0797057 -0.3313093 -0.86241 0.037761148 -0.2665419
-0.45288032 0.32289457 -0.1576436 0.7103361 0.14915991 -0.31430885 0.03239045 0.012472669
-0.6499872 0.08302317 -0.00015684881 0.20669487 0.26534724 0.7764935 -0.13176996 0.6050599
0.17060278 -0.05149421 -0.11425756 0.14146675 0.2736573 -0.1710179 -0.10316891 -0.21772297
-0.8215879 0.75152886 0.047983635 -0.29723167 -0.026637772 -0.27669513 -0.36306337 0.03213059
0.1334049 -0.6829838 -0.1752764 -0.5064023 -0.06810309 -0.060211398 -0.35088056 -0.27269086
0.4002782 0.28935036 -0.021462834 0.37723932 -0.14027478 -0.2376178 0.47984192 0.29991204
0.5063205 -0.39726034 -0.31502625 0.25278482 0.22605333 0.18462667 -0.078796975 -0.4590652
-0.62777084 0.24861346 -0.03213075 0.15249506 -0.35868943 0.17680539 -0.36491004 0.16124038
0.17407143 0.3219169 0.26352265 0.1730493 0.073654175 -0.33286086 -0.54951775 -0.1896773
-0.08516411 0.26712 -0.09482047 0.40235254 -0.22267374 0.11840144 0.0440006 0.016115004
0.08878785 -0.4108595 0.6625822 -0.32725886 0.3895004 -0.13341026 -0.004511103 -0.30342236
0.35791323 -0.4719551 0.22486009 -0.5232192 -0.090726376 0.23043196 0.23546572 -0.11580689
-0.58463854 0.13793431 -0.069416486 0.24613258 0.1507684 -0.018174209 -0.24467835 0.17242265
-0.0755958 -0.4077484 -0.18291654 0.1812079 0.33525598 -0.6888204 -0.30639383 0.70612264
-0.26223 0.032138765 0.86360896 -0.705482 -0.77237654 -0.14465374 0.6318097 0.27759472
0.33611968 -0.2863496 0.3984952 0.065379255 0.029033482 -0.8088135 -0.58042425 -0.48303962
-0.21771742 0.36446184 0.26593626 0.25505033 0.16492942 0.525695 -0.53246343 -0.55009514

network_body._body_endoder.seq_layers.0.bias f4 [128]
00000000: 7cce 063d 0fde 21bd 43e0 dfbc 869d a03c
00000010: 1c9e d63c 387b 823d c568 ae3c 3c44 24bb
00000020: 2268 84bc 953d 263d 78e5 f03a bab3 6b3d
00000030: 702a 80bd 38eb 16bd 0625 60bd cb67 b4bc
00000040: 8077 133d 4411 8ebc 31aa 42bc c1c7 b4bd
00000050: a533 0f3d a16b 3ebc 767f 12bc 5f05 9fbc
00000060: 62fd 4f3d 376e 74bc fe8b d63c d345 123c
00000070: 16b6 1cbd 662c 533d 0542 a0bd 1bd5 e5bc
00000080: e4c5 9cbd b5ed 5dbc d239 173d 44e5 41bd
00000090: 654b 1a3d 419e 60bd e7fd 213d 0f7c 4a3c
000000a0: 087d 99bd ce75 a7bd 6262 0d3d 0190 313d
000000b0: 57b8 503d 4236 203d 54e8 dcbc d54c 313c
000000c0: de28 193d 5eb4 583b 925c 1c3d 1b57 673d
000000d0: 2a37 b1bc 1fc4 4d3d abdd 103d 21bb 58bd
000000e0: 48c3 25bd 686f fd3c 21e2 86bd 99c0 203d
000000f0: 6467 753c c351 bcbc eccb c3bc 8875 2abd
00000100: c8ce 143d b05d 833d 41a3 75bc 030d 74bd
00000110: cddb fbbc e6c5 1c3d 8209 3bbc 4d1d 813c
00000120: 6631 bebc 4873 3f3d 918d 5b3d 38c5 73bc
00000130: ac58 27bd e7c0 6fbd 7d34 2e3d 2426 1dbd
00000140: 8ebe 9bbc 44db a63c 0ffc 76bc 739b 243d
00000150: 1593 f0bb 6f71 dd3c fa7d 163c 4eb7 5abd
00000160: ba88 243d e00e 1f3b e25e ac3c b717 fa3c
00000170: 724e 633d b51b eabc f100 103d d0a8 04bb
00000180: 2596 5b3d 2116 cd3c 748f c13c 019e f03c
00000190: f269 95bc 3f3e 17bd b833 433d 694b 1f3d
000001a0: 212d 79bd 532c 44bc 1399 433d 8971 8a3c
000001b0: 64ca 11bd 6341 4cbd c7fe 2b3d 0ef5 a9bd
000001c0: d3ac e83c 2523 0bbc ec71 8dbd c4d6 ea3c
000001d0: 9339 f23c 7e9c 93bc 1be1 343d f14c efbc
000001e0: d938 f83c 32ad 8a3c 0c86 c43c abc3 403d
000001f0: 7b24 7bbd 1041 c93c c639 abbc 41e6 083d
0.032911763 -0.039518412 -0.027328616 0.019606363 0.02619844 0.06371158 0.021290192 -0.0025065085
-0.016162936 0.040586073 0.0018378934 0.057544447 -0.06258094 -0.036845416 -0.05472281 -0.022022149
0.036002636 -0.017342217 -0.011881397 -0.088271625 0.03496136 -0.01162234 -0.008941522 -0.01941174
0.050778754 -0.014918855 0.0261898 0.00892778 -0.03825959 0.051556014 -0.07825092 -0.028055718
-0.07654932 -0.013545443 0.036920376 -0.047337785 0.037669558 -0.054838423 0.03954878 0.012358679
-0.07494551 -0.08176766 0.034517653 0.043350223 0.05095705 0.039114244 -0.026966251 0.010821541
0.03739249 0.0033066492 0.03817422 0.056479555 -0.02163275 0.050235864 0.03536765 -0.052912835
-0.040469438 0.030936912 -0.065860994 0.039246175 0.0149782635 -0.022988206 -0.023900948 -0.041615993
0.036330014 0.06414354 -0.014992536 -0.05958272 -0.030744458 0.03827467 -0.011415841 0.015761042
-0.023216914 0.0467408 0.053601805 -0.014878564 -0.04085605 -0.058533575 0.042530525 -0.03836645
-0.019011762 0.020368226 -0.015074744 0.04018731 -0.0073417523 0.027031628 0.009185309 -0.05339747
0.040169455 0.002427034 0.021041337 0.030528886 0.055494733 -0.028577665 0.035157148 -0.0020242222
0.053609986 0.025034966 0.023627974 0.029372217 -0.018238995 -0.036924597 0.047656745 0.038890276
-0.060834054 -0.011973458 0.047753405 0.01689984 -0.035593405 -0.049867045 0.04199102 -0.082986936
0.028402722 -0.008492266 -0.069064945 0.028666861 0.02956847 -0.018018957 0.04415999 -0.029211493
0.030300545 0.01692829 0.0239897 0.047061604 -0.061314087 0.024567157 -0.020901572 0.033422712

network_body._body_endoder.seq_layers.2.weight f4 [128, 128]
00000000: ccea db3b 045f 783d 835c 1ebe 9e89 9abd
00000010: 72a7 debb 9e7c 3bbd 9924 943d aa47 f63d
00000020: b53c 803d 3802 afbd 59e3 5f3d e5e1 90bc
00000030: dc7b f33d 1196 18be e9a7 efbb 0b1e 8bbd
00000040: 9dda 703e bdfb b33d bf45 2b3e ed0e 23bd
00000050: 05bf 5b3e 5c46 6dbd 5041 39be 2fbe 86bd
00000060: c0b6 523e 1d70 49be 0376 be3d 5165 ddbd
00000070: dac2 0a3e 3960 8a3d 09f5 ca3c 3014 7bbd
00000080: 96fa f8bd d055 fdbd 0d62 2bbd 1ba5 9bbd
00000090: 9683 e33c 995e 5ebe 0b42 033e c0a9 163d
000000a0: 1e3c 6e3d 70a2 c93c bb1e e0bc 3278 71bd
000000b0: d558 97bc 5d43 d43d 681c 273d 69a8 993c
000000c0: bd71 36bc 8d99 1abe c672 d13d 1a65 793c
000000d0: 48c5 a53c e4b7 963c 12dc 073d 8025 0ebd
000000e0: 0392 21bd b5db 0c3e 900a 7f3c a77c 06bd
000000f0: 7566 42bd e44f 6b3d ddff 803d 10fd 84bd
00000100: bdb7 bd3c 375b 633d 002b 10bd 82ca 0ebe
00000110: bdb9 ccbc 795f 7f3d 1269 4ebd c0d1 013d
00000120: 36ae dc3c ebdb 9c3d fcf7 c73d f949 95bd
00000130: f4a6 0dbe ea6b 023e f55d 323e 98e8 013e
00000140: 73a1 493d d864 943d abf7 a73d 63b8 813d
00000150: 2038 1a3e adfe 7bbc c713 2c3d d4c7 c8bd
00000160: 1187 dd3c 69e3 2e3c 4c9a 973d d354 10bd
00000170: 9bc1 373e b498 5d3e c505 0b3d a62d dd3d
00000180: ac87 8d3d 2a81 c63d a142 69be 5198 213d
00000190: 3ade e4bd 1211 bd3b 381b 0a3e 0f6f ca3d
000001a0: 2179 19be a697 aa3d d07a c93d dd84 2cbe
000001b0: 5921 fb3d 053c 22be cdab c13d a3ce 00be
000001c0: 4e2f cc3c 63e7 eabd 28d7 c63d 695b b63d
000001d0: 086d 733d a5d8 0cbe 6808 b03c 7bc1 17bc
000001e0: fd5c a73d 5363 b83d 3cce 86bd 51b4 673e
000001f0: 0959 123e c5b5 ba3d bcd3 d2bd 0745 dbbc
00000200: 58c0 7a3a f0ea 023e c108 183d 41b8 25bd
00000210: 5a9f ecbc 04f5 e33c d1ef 97bd 7653 7d3e
00000220: 4863 4abe fdc8 97bd f790 3d3e 24f4 14be
00000230: 5b12 833d ecda 7c3d b526 cabd bb85 a2bd
00000240: bd92 613d 2f87 b53c d415 073c 538e bb3d
00000250: 457e 05bd dbce 163e f0f5 1e3d d3d8 eabd
00000260: 8a27 4cbd 75b3 6fbd 3828 a33d 99b8 83bd
00000270: da7b 753d b414 97bd 44ed a63d 9ed2 463d
00000280: 12b8 97bb 2333 723d baf2 5fbd 051a 00be
00000290: 83ec e73d bf88 323e 9809 89bd 6e66 7e3d
000002a0: 9e29 3dbd e308 033d 9592 2a3e 3a92 053c
000002b0: 5279 54be 64e3 093d b2bf 96bd 5d61 3b3e
000002c0: 8d40 6e3d 90fb 83b8 c871 93bd d325 24bd
000002d0: cd2a 913d c268 c03d e670 9bbc 5563 d1bd
000002e0: 934b 063e f279 013e 2961 a9bc c90c f3bd
000002f0: 78ed 113d 3aee e0bd f0b0 5b3d d132 5dbd
00000300: a3ae 993d 54e6 34be afaf e03d 1ab4 59bc
00000310: d718 de3c e5be 1ebd da6e 6fbd 04ed 38bd
00000320: b890 fd3c ebdd 83bc 82d0 99bd 3837 84bd
00000330: f98d 84bd 2550 4c3d b8da b03d 22de 4abd
00000340: b57f 0a3d 4e91 8cbd f2c0 4abe 0218 ea3c
00000350: 25e2 bd3d 5a6b 453e f3cf 16bd 7dd6 67bd
00000360: 63ed a7bc a5b5 62bc 66aa e2bd 7c3d 27be
00000370: 4935 dc3d ecc6 9d3d 9e39 a43c de9c eabd
00000380: 7e86 26be a816 2b3c fa01 083d 883b 7bbd
00000390: 2ba5 0ebd b5cf e6bd d6d7 1a3e ca29 a2bd
000003a0: 7003 813b febd b53c 5eac 863d 01d0 cbbd
000003b0: e075 ab3d e7d1 3cbd 7fca 1ebd 24ff 3fbc
000003c0: c821 6f38 67a6 9ebd 8b86 1dbd 5b14 723d
000003d0: eb79 78bd cc7d ba3d a92d c2bd a50b 9b3d
000003e0: 83ba 89bd 4f6f 8a3d 5304 87bc 63f7 f8bc
000003f0: fcb3 84bd 576c dd3c 3019 1c3d f2fe 1c3e
0.0067113396 0.06063749 -0.15464978 -0.0754578 -0.0067948634 -0.04577314 0.07233543 0.120253876
0.06261579 -0.08545345 0.054660175 -0.01768584 0.11888859 -0.14900996 -0.0073137176 -0.067928396
0.23520894 0.0878825 0.16725825 -0.039809156 0.21459587 -0.057928428 -0.18091321 -0.065792434
0.20577526 -0.19671674 0.09299853 -0.1081034 0.13550892 0.06756634 0.024775045 -0.06129855
-0.121571705 -0.12369883 -0.041841555 -0.07599851 0.027772706 -0.21715774 0.12818162 0.03678298
0.0581628 0.024613589 -0.027358403 -0.058952518 -0.018474976 0.10364411 0.040798575 0.018757062
-0.011135516 -0.15097637 0.102269694 0.015221858 0.020235673 0.018398233 0.03316886 -0.03470373
-0.03944589 0.13755687 0.015566483 -0.03283372 -0.047460992 0.057449237 0.06298802 -0.0649358
0.023158902 0.05550691 -0.035197258 -0.13944438 -0.02499091 0.06234691 -0.05039317 0.031694174
0.026938539 0.076591335 0.09764096 -0.072895 -0.13833219 0.12736478 0.17418654 0.12686384
0.049226236 0.07245797 0.08201536 0.06333997 0.15060472 -0.015380544 0.04201105 -0.09803739
0.027041944 0.010674336 0.07402477 -0.035237145 0.17944948 0.21640283 0.03394105 0.107997224
0.06910643 0.09692605 -0.22779323 0.0394519 -0.11175199 0.005769857 0.13486946 0.09884464
-0.14987613 0.08329706 0.09837878 -0.16847558 0.1226222 -0.15843208 0.094565965 -0.12578826
0.0249249 -0.11469915 0.097090065 0.08904154 0.059430152 -0.13754518 0.021488383 -0.009262438
0.08172033 0.090033196 -0.06582305 0.22627379 0.14291777 0.09116701 -0.102942914 -0.026766313
0.00095654046 0.12784934 0.037117723 -0.04045892 -0.028884578 0.027826793 -0.07418788 0.24738869
-0.19764435 -0.07411382 0.18512331 -0.14546257 0.063999854 0.061732218 -0.09870664 -0.07935663
0.05507158 0.022159187 0.00824495 0.091580056 -0.032591123 0.14727347 0.038808763 -0.11467137
-0.049842395 -0.058520753 0.079666555 -0.064316936 0.059932567 -0.07376996 0.081507236 0.048540704
-0.004630097 0.0591308 -0.05467484 -0.12509926 0.11324408 0.17434977 -0.06691283 0.062109403
-0.046182267 0.031990897 0.16657479 0.008152539 -0.20749405 0.033664122 -0.07360782 0.1829886
0.05816703 -6.293424e-05 -0.071994364 -0.040075134 0.07088242 0.09394981 -0.018974733 -0.10224024
0.13114767 0.12644175 -0.020676212 -0.11867673 0.03562686 -0.10982938 0.053635538 -0.05400354
0.075040124 -0.17665988 0.10971009 -0.013287568 0.027111454 -0.03875627 -0.058455326 -0.04514791
0.030952796 -0.01609703 -0.07510473 -0.06455845 -0.06472392 0.04988112 0.08635467 -0.04952825
0.033813197 -0.06863652 -0.19800165 0.028575901 0.09271649 0.19279233 -0.03681941 -0.056601036
-0.020498937 -0.013837253 -0.11067657 -0.16332048 0.10752351 0.07703957 0.020047005 -0.11455701
-0.16262242 0.010442413 0.03320501 -0.06133607 -0.034825485 -0.11270086 0.15121397 -0.07918127
0.0039371774 0.022185322 0.06575845 -0.09951783 0.08372092 -0.046098616 -0.038767334 -0.011718545
5.70135e-05 -0.077465825 -0.03845839 0.059101444 -0.060663145 0.09106025 -0.09481365 0.075705804
-0.067250274 0.06759512 -0.016481554 -0.0303914 -0.06479642 0.0270292 0.03810996 0.15331629

network_body._body_endoder.seq_layers.2.bias f4 [128]
00000000: 2bd4 f33c 1d32 03bc ed0f 26bd 810f 053d
00000010: 5882 aa3c 048a b2bc 11b9 f0bc 4766 153d
00000020: 85a0 0cbd 5f84 4f3d 4270 7dbc 5f8b 153d
00000030: 7e5e c23c 8587 2cbd 4a0e be3c 8d22 10bd
00000040: dd38 2e3d 90a1 5f3c 43d3 efbc bb76 923c
00000050: b7cf 043d cfc5 b23c 55b0 d43c 032e 343c
00000060: ff11 36bd 9381 fd3c 7d66 a6bc 80ce a23c
00000070: f482 49bd d9d8 3abc 7790 a9bc ba96 32bd
00000080: 9b12 4c3d 4ce3 373d 4ad2 003d eb42 ef3c
00000090: b367 033d 2c01 273d 3208 cbbb 1755 053d
000000a0: c91b 0abd 5a89 2c3d 844c 35bd eb0e efb8
000000b0: e1af 7abc df3c 0f3d e2ba 1d3d f354 edbc
000000c0: 8ff7 9ebc be2a a53c 5344 13bd 1115 b03c
000000d0: d0d4 223d bf89 cb3c c57f 3bbd 9b88 43bd
000000e0: a902 d33b bf6d ab3c 5b48 d13c f695 c3bc
000000f0: ae7b 24bd 656a 223d 0644 38bd b15a 9d3c
00000100: ba6e cc3c ccf9 013d 9581 4f3d ad4c 173d
00000110: 0595 1bbd 190d 1e3d e20c 303d d281 903c
00000120: f426 f13c 01cc 18bd 230c 38bd 4455 1c3d
00000130: dbe5 cc3c f029 003d aa51 b4bc f2bb 7dbb
00000140: 3e10 343d 3bfb b83c 67fe 3d3c 0e90 4fbb
00000150: cc51 01bd b2c2 38bd 60d2 2dbd de91 02bd
00000160: 5195 6bbc f0a1 9dbb 0f99 c63c 638c d23c
00000170: 7bb8 4f3c 337c a23b fdb0 9a3c 21e8 2e3d
00000180: 147b 4ebd d8cd b73c 549f 253d 0e09 813b
00000190: 70c8 203d c32a d1bb 0e2f 1d3d ae2d 393d
000001a0: ca0f d2bc 6586 93ba 2dd9 d8bc 4c17 0a3d
000001b0: 5aea e8bc 14e4 063d 9c2e 9bbc 40ea c13c
000001c0: 7454 1c3d cedd 083d 52ec 623c 939a 21bb
000001d0: cc61 29bc ed55 a23c 5ec1 353d a23a e0bc
000001e0: c91b e8bc c6e1 9b3c 2fc1 15bd 5c39 44bd
000001f0: 7703 483d 33bf 5e3c c6ba ab3c f8eb 97bc
0.029764256 -0.008007553 -0.04054253 0.03248549 0.020814106 -0.021794327 -0.029385122 0.036474492
-0.03433277 0.05066335 -0.015468659 0.036509868 0.023726698 -0.04212143 0.023200173 -0.0351892
0.042534698 0.013649359 -0.029275542 0.01787888 0.032424655 0.021822838 0.025962988 0.010997298
-0.044450756 0.030945575 -0.020312542 0.019873857 -0.049197152 -0.01140424 -0.020698769 -0.043600775
0.04982243 0.0448945 0.031450547 0.029206714 0.032081317 0.040772602 -0.0061960453 0.03255185
-0.033717904 0.042123176 -0.044262424 -0.00011399187 -0.015300722 0.03497016 0.038508303 -0.028971171
-0.019405155 0.020161983 -0.03595383 0.02149442 0.039753735 0.024845956 -0.045776147 -0.0477377
0.006439526 0.020926354 0.025547197 -0.023875218 -0.040157013 0.039652247 -0.044986747 0.019208284
0.024955142 0.031732365 0.05066069 0.036938358 -0.037983913 0.03858671 0.042981036 0.017640028
0.02943752 -0.03730393 -0.04493345 0.038167253 0.025011947 0.031289995 -0.022011597 -0.003871676
0.043960802 0.022580734 0.011596299 -0.0031671557 -0.03157215 -0.04510755 -0.042436957 -0.03187739
-0.0143788615 -0.004810564 0.024242906 0.025701707 0.012678261 0.0049586534 0.018883223 0.042701844
-0.050410345 0.022437021 0.04043515 0.003937847 0.039253652 -0.0063832714 0.038374953 0.04520958
-0.025642294 -0.0011255263 -0.026470745 0.033713624 -0.02843206 0.032932356 -0.018943124 0.02367127
0.03816648 0.033414654 0.013850288 -0.0024658784 -0.010338258 0.019816363 0.044373862 -0.027371708
-0.028333561 0.019028556 -0.036561187 -0.047906265 0.04883143 0.01359539 0.020963084 -0.018545136

action_model._discrete_distribution.branches.0.weight f4 [5, 128]
00000000: 436a 803b d155 e8bb 0caa 11bc fb71 d03c
00000010: 4868 af3c 23b5 49bc 1961 9ebb 9148 06bc
00000020: b594 d0bc 3179 b53c a963 653b 440a dc3c
00000030: 73da f33c 7acd e2bb 5ad9 96bc d177 60bc
00000040: 146c 9f3c 749c 97ba 52c7 a1bc d1d9 f1ba
00000050: 258d 983c 6985 3cbc ef2b 87bc cf6a fc3c
00000060: ec09 b2bc 55b8 36bb 5ba7 bfbc 164b e93b
00000070: a64c c2bc ef1e 513c d499 44bc 4bcb 2abd
00000080: ae91 7e3a 8f90 e93b 8b91 7abc e4aa e339
00000090: 88aa b83c cea8 103d 1cc9 163d 32be 4ebc
000000a0: 9d80 debb 4c64 7c3b 5d70 85bc ad41 e63b
000000b0: 07c3 0abc 3211 063c b562 053d 6387 bebc
000000c0: c06e 1ebc a25a 223d 393d 37bb 14ee 8c39
000000d0: e3b8 6f3c fa3a b63c b230 55bc d2ee d0bc
000000e0: 3089 98bc ce13 e7bc e8f0 343c fb21 33bc
000000f0: 534e d6bc a8ba 883c afc7 d1bc 16ee 1a3b
00000100: 29b2 9b3c 0525 b3ba 680b 563c d7f5 0c3c
00000110: 2e1c cebc 59ac 983c 34ae 4d3c 4b6c 08bc
00000120: 5171 ab3c e5d7 b5bc 9aa3 3dbc 55b5 e33c
00000130: 24cc b23c 07a3 8dbb 1b59 65bc 58c7 03bd
00000140: 266b b43c 4e52 073b 94b2 a43c bb80 8abc
00000150: 936a 09bd e508 99bc fd9c 05bd 717f a3bc
00000160: c1e1 7dbb e9b5 94bc 6f59 993c ddfb 983c
00000170: a5e4 c13c 021a 02bb 0b0a 083a cde0 4d3c
00000180: 1a56 babc 0d44 2abc f55b 103b eda4 87bc
00000190: f14f 32bb 955f f73c 9c5b dd3c d691 903c
000001a0: 81a6 b2bc a98f f03c 674d 81bc 6e32 b33c
000001b0: a726 8fbc 3fe5 65bb aada 9dbc 0a04 b43b
000001c0: 49cb 29bc 2ad6 1a3c 8cb8 bb3c 18b9 52bc
000001d0: 0654 e53c b2fe 193d adbe 3d3c 342b 1a3c
000001e0: c190 2fbc 7706 88bc 9336 56bc 81d9 23bc
000001f0: ce01 383b 05f6 403c cb76 cb3c dc43 43bc
00000200: b618 68bc 7714 603c 4780 d03c a846 0abd
00000210: 0619 89bc 2dda 913c 7277 4b3c d038 99b9
00000220: 7df9 233b 1258 d7bc 3fa6 f9ba ba0c d9bc
00000230: 3d22 e1bc dae8 12ba 0790 4a3c 382c 953c
00000240: 3cb8 c1bc 1f5f 88bc 5779 c23b bc99 1cbc
00000250: e44c 51bc 9d78 d6bc eb0e 233c e17e 1dbd
00000260: 76b4 c93c d08e c7bc 1b0f ce3c 2cef 03bc
00000270: 501b ae3c 4429 4abc 58b8 ca3c dc30 fb3c
00000280: ca6d 423c d4e8 a53b 8874 113b 2d36 e938
00000290: 957a 10bd 9474 01bd a181 cbbc 5975 31bc
000002a0: d503 b13c 0d7d 52bc 1d7b 813c 28b2 a1bc
000002b0: 59dc 103c c269 95bc 066b eabc b079 cebb
000002c0: 1fa9 393c 7800 bcbc 54b0 b23c 3561 cf3b
000002d0: 1614 86bc ef8d f0bc 6123 e23b 3d45 fd3c
000002e0: 63e8 c83c 1a52 eebb 9397 bdbc eea5 083c
000002f0: 956b 943c 0b8a 8b39 2974 cc3c c34f 01bd
00000300: e2b3 3cbc 6be4 ebba 2105 8fbc b09f 0f3c
00000310: 00da 923c 3e7e abbc f810 83bc 0508 423a
00000320: 758e 81bc 7d45 483c 0f03 893c 0238 c5bc
00000330: c94c ed3b 109c 0c3b 5fea de3a bec1 4a3c
00000340: 241b f2bc be43 88bc 5ec3 21bb 1f8f 523a
00000350: c1f3 b239 546c b73c 7154 be3c 11da ef3c
00000360: d12e d6ba d2e2 fd3a f3da 88bc d214 b3bc
00000370: d5a7 91bc de5c 9dbc 889b a7bc b07c e6bb
00000380: b584 db3c e050 10bc c200 92bc dabb 083c
00000390: 1b1d cf3b b927 c8bc 820c eebc c200 c5bc
000003a0: c7ba 133d 1514 94bc 8207 8bb8 92c1 bcbc
000003b0: 6603 b13c b133 b43a ed86 833c 863c 81ba
000003c0: 4576 0e3c 46c1 393c 7c54 97bc 9d76 323c
000003d0: a73a 58bc 4329 0ebd 7059 d53b a56f 463c
000003e0: ec2b 983c 8b11 be3b a6ba a33c d80c 223c
000003f0: 9d5c c8bc b00f 13bc 981b 1cbd 46fa b43c
0.0039189174 -0.0070903082 -0.00889064 0.025444975 0.02141203 -0.012311253 -0.0048333523 -0.008196012
-0.025461534 0.022152515 0.003500203 0.026860364 0.02976725 -0.0069214674 -0.018414188 -0.013700441
0.019460715 -0.0011567012 -0.019748364 -0.0018451755 0.01862199 -0.011506417 -0.016500441 0.030812649
-0.021733247 -0.0027880867 -0.023395231 0.0071195466 -0.02371819 0.012763723 -0.011999566 -0.04169778
0.0009711039 0.0071278284 -0.015293489 0.00043424137 0.022542253 0.035317235 0.036812887 -0.012618588
-0.0067902342 0.003851193 -0.01628893 0.007026872 -0.00846935 0.008182811 0.032564837 -0.023257917
-0.00966996 0.039637215 -0.0027960076 0.00026880263 0.014631483 0.02224492 -0.013012098 -0.025504503
-0.018620104 -0.028207686 0.011043765 -0.010933395 -0.026160395 0.016690567 -0.025607912 0.0023640445
0.019005852 -0.0013667649 0.013064243 0.008603535 -0.025159921 0.01863687 0.01255374 -0.0083266
0.020928057 -0.022197673 -0.01157465 0.027796427 0.021825857 -0.004322413 -0.013998295 -0.03217253
0.022023749 0.0020648423 0.020104684 -0.016907087 -0.033548903 -0.018680999 -0.03262042 -0.01995823
-0.0038739296 -0.018153148 0.018719403 0.018674785 0.023668597 -0.0019851928 0.0005189485 0.012565804
-0.022746135 -0.010392201 0.0022027467 -0.016558135 -0.0027208293 0.030196944 0.027021222 0.017647665
-0.02180791 0.029365378 -0.015783979 0.021874633 -0.017474486 -0.0035079268 -0.019269306 0.0054936456
-0.010363408 0.009450475 0.022915147 -0.012861513 0.027994167 0.037596412 0.011581105 0.0094097145
-0.010715664 -0.016604645 -0.013074535 -0.010000587 0.0028077248 0.011777406 0.024836918 -0.011918034
-0.014166048 0.013676754 0.025451792 -0.03375879 -0.016735565 0.01780423 0.012418615 -0.00029224763
0.0025020533 -0.026287112 -0.0019046738 -0.026495326 -0.027482146 -0.00056041556 0.01236344 0.018209562
-0.02364742 -0.01664692 0.005934875 -0.0095581375 -0.01277468 -0.02618056 0.009952287 -0.03845108
0.024622183 -0.02436009 0.025153687 -0.0080526285 0.021253258 -0.01233894 0.024746105 0.030662946
0.011866996 0.0050631557 0.0022194702 0.00011120397 -0.035273153 -0.03160532 -0.024842085 -0.0108312005
0.021608273 -0.012847197 0.015805775 -0.019738272 0.0088415975 -0.018238906 -0.028615486 -0.0063011274
0.0113318255 -0.022949442 0.021812595 0.0063287267 -0.016367 -0.029364554 0.00690119 0.030916804
0.024524873 -0.007272971 -0.023143565 0.008340342 0.018117705 0.00026614996 0.024957733 -0.031570207
-0.011517497 -0.0017997151 -0.0174585 0.0087661 0.017926216 -0.02093422 -0.015999302 0.00074017077
-0.015815 0.012223599 0.016725091 -0.024074558 0.0072418195 0.0021455325 0.0017007104 0.012375293
-0.029553957 -0.016633864 -0.0024683098 0.0008032191 0.00034132416 0.022390522 0.023233624 0.029278787
-0.0016340857 0.0019369966 -0.016705966 -0.021860514 -0.017780224 -0.019209322 -0.020459905 -0.007033907
0.026796678 -0.008808345 -0.017822627 0.008345569 0.0063206083 -0.024433004 -0.029058699 -0.024048213
0.036066797 -0.018075982 -6.629435e-05 -0.02304152 0.021608066 0.0013748315 0.016055549 -0.0009859956
0.00869519 0.011337584 -0.018472902 0.010892537 -0.013197578 -0.03470732 0.006510906 0.012111579
0.018575631 0.005800431 0.019986462 0.0098907575 -0.024458224 -0.008975908 -0.038112253 0.022091996

action_model._discrete_distribution.branches.0.bias f4 [5]
00000000: e8b2 843c 663b 5cbc 7707 bfbc e503 d13c
00000010: c0a6 84bc
0.01619859 -0.013441896 -0.02331899 0.025514552 -0.016192794

action_model._discrete_distribution.branches.1.weight f4 [5, 128]
00000000: 7b3c 77ba c0c8 97bb 16fe fb3c 6b30 68bb
00000010: cc3c c6bc 1832 2a3c ce7b 073a 3998 d6bb
00000020: b9c4 923c b239 80bc 0a90 2a3c d03a f1bb
00000030: 55b5 2bbc fad5 8c3b 40b2 23bc 8a36 323c
00000040: 8bff b0bb 0811 21bc 1675 54ba 97a4 103b
00000050: 60e1 48bc cfc7 a23a c10c bcbb e857 a43a
00000060: 1a74 243c 4bab 0cbd cfff 333c bd96 a3bc
00000070: 8060 473c 03ee 493c 3093 b43c daec d03c
00000080: bdf6 24bc d8a3 aabb 1663 6abc f120 45bc
00000090: d9c7 b2bc ed07 edbb 17d2 67ba c0b3 173c
000000a0: d610 773c cb95 78bc 01ad 7a3c f038 10bc
000000b0: 31d2 2b3c eaf3 99bc b30a cbbc 8225 ab3a
000000c0: 3dc3 503c d32a 5ebc a884 263c f59e 64bb
000000d0: e0d6 70bc adbb 4ebc 6307 833c a4a0 8c3c
000000e0: 1581 983c 7fcd bebc f0b1 69b8 098c e73b
000000f0: 2bf8 303c c907 3cbc 362c 183c 9c47 bebc
00000100: 8dc5 31bc 8f58 84bc 0069 babb cb2a 11bc
00000110: abe6 ad3c 3911 d4bc 3318 dcbb ab5c f3bb
00000120: c813 31bc 4e78 533a 775d 663c 8c58 7bbc
00000130: 41d8 283a 92db 9b3a 6623 833c 590b c73c
00000140: 8258 89bc cf6f 1c3b b09e f7bb e871 243c
00000150: 9c80 5c3c 42fa 5d3c 29e2 833c 718a 253c
00000160: 8c86 783c 42a8 923b 1974 8c3c 53a0 9bbb
00000170: 91b7 e9bb 57a2 b4bc 11fa acbc ea59 8ebc
00000180: 5f18 8fbb 483c ba3a 87c4 69bc 6b63 2d3c
00000190: 8d5f 96bc b9e9 fc39 2236 e2bb 24e3 dc3b
000001a0: 78a5 243c 6452 28ba 20f0 fe3b c716 a0bc
000001b0: 0777 be3c bc26 9fbc 1404 aa3c e117 46bc
000001c0: adb5 f3bb 5b5d 95bb 692a 2c3b bfe8 6fbc
000001d0: baef 0dbb 06de 34bb c0c6 54bc 2373 853c
000001e0: 3920 7a39 3a62 ab3b e1ee c63c e6ac b43c
000001f0: 54bf 94bc 3c24 b1bb 9a9d a2bc 8391 ce3c
00000200: 9888 0abc 5a49 6f3c e484 eb3c e713 a3bc
00000210: 8cd0 24bc 3dd6 203c dd8f 323d fda4 9bbc
00000220: e4c8 ca3c a0ce 8dbc 99b7 0f3c 35a1 8dbc
00000230: d4c4 1cbd c436 113d 521d 763b 20ad 0e3d
00000240: 12b2 b7bc 70eb 2cbc 0d72 763c 0058 c7bc
00000250: 3489 19bb 1b23 92bc 676f 2abc ec9b 2bbc
00000260: cf86 d63c e55f 69bc eafa 133d 9667 23bc
00000270: cecd 8a3c 7f89 903c 1511 f43c cc96 af3c
00000280: 8dbd 03bd 9b91 e1bc 0613 a7bc 308b 06bb
00000290: a271 a4bc b841 0cbd eef7 91bc 9d75 7cbb
000002a0: e9ab fa3c ad74 85bc 247c cf3c b4b0 ba3a
000002b0: 7ecd 9fba e8b5 07bd a466 18bd 869a 653c
000002c0: 1121 a43c a30e aebc c209 8f3c 30cf b93c
000002d0: a300 50bc ea66 d9bc 8d29 803c 6dbe dd3c
000002e0: 42ea ad3c ed5b b1bc f187 abbc 9a22 d23c
000002f0: 1ab8 2c3d ed5e 0e3c 0780 b23c 113e 15bd
00000300: b2dd d4bc 685e 47bc 9919 98bc 615e 3abd
00000310: e8f4 133d a4af 1cbc 41b9 c5bc 0290 173c
00000320: 6a66 1abc 6f97 053d ae8d 273d d66a b9bc
00000330: 279b 89bc 946e 0c3c cfb0 b73c 5fda 793b
00000340: 8467 b4bc 44c2 3dbc b219 18bc 501b 88bb
00000350: ed59 2c3c 79b4 6c3c 604f eb3c 83f5 db3c
00000360: 5704 6f3b c70d ccba f755 a4bc e2b8 77bc
00000370: e31d 61bc 58d2 10bc cfd2 55bc 7a91 97bc
00000380: 11f0 913c b594 bcbc bb74 cebc 80bd d43b
00000390: 0b4f 8dbc ba2f 41bb 865d ccbc 0acd 8dbc
000003a0: 9e1d 883c 3a1d be3b 6266 5a3c 5845 e9bc
000003b0: 9a46 0f3d e973 5dbc d0ec ec3c a215 05bd
000003c0: 3761 55bc c36a 93ba fe71 0fbb c231 d63b
000003d0: f727 11bb 9082 8abb 229f d2bc 8109 9a3c
000003e0: 70fe a33c a7ea 95bc a352 213d 6357 a93c
000003f0: 17d6 30bd 91bd 0b3c bb44 83bc e2b6 063c
-0.00094313145 -0.0046320856 0.030760806 -0.003542925 -0.024198912 0.01038792 0.00051682896 -0.006548908
0.01791607 -0.015652511 0.010410318 -0.0073617473 -0.010480245 0.004297969 -0.009991229 0.010877261
-0.005401557 -0.009830721 -0.00081046054 0.002207076 -0.012260765 0.0012419167 -0.005738825 0.0012538405
0.010037446 -0.034343045 0.0109862825 -0.019969339 0.0121690035 0.012324813 0.02204284 0.025503565
-0.010068593 -0.00520752 -0.0143058505 -0.01203178 -0.02182381 -0.007233611 -0.00088432565 0.009259164
0.015079698 -0.015172432 0.015300036 -0.008802637 0.010487125 -0.018793065 -0.024785375 0.0013057443
0.012741861 -0.013560015 0.010163464 -0.0034884785 -0.014699668 -0.012617988 0.015994733 0.017166443
0.018616239 -0.023291348 -5.5717246e-05 0.007066254 0.010801355 -0.0114764655 0.009287884 -0.023227505
-0.010850322 -0.01615551 -0.0056887865 -0.0088603 0.021228155 -0.025887119 -0.006716752 -0.0074268184
-0.010807939 0.0008066938 0.01406037 -0.015340935 0.0006440916 0.0011890999 0.01600809 0.024297403
-0.016765837 0.0023870354 -0.007556759 0.010036923 0.013458397 0.013548436 0.016099053 0.010103808
0.015168797 0.0044756243 0.017145203 -0.0047493367 -0.0071324785 -0.022050066 -0.021115335 -0.017376859
-0.004366919 0.0014208639 -0.014268047 0.010582785 -0.018356109 0.00048239322 -0.006903426 0.0067409445
0.010049216 -0.00064209686 0.00778009 -0.019542111 0.023250116 -0.01942765 0.020753898 -0.012090654
-0.007437429 -0.004558248 0.0026270396 -0.014642893 -0.002165778 -0.0027598157 -0.012986839 0.016290253
0.00023853862 0.0052302154 0.024283828 0.0220551 -0.018157639 -0.005405931 -0.01985054 0.02521587
-0.008455418 0.014604891 0.02874989 -0.019906951 -0.010059487 0.009816703 0.04359423 -0.018999571
0.024753995 -0.01731044 0.0087718 -0.017288784 -0.038273647 0.03545262 0.0037554097 0.034833074
-0.022423778 -0.01055418 0.01504184 -0.024333954 -0.0023427727 -0.017839005 -0.010402537 -0.010474186
0.026187329 -0.014244054 0.036127962 -0.009973427 0.016943838 0.017643688 0.029793302 0.02143421
-0.03216319 -0.02753525 -0.020394813 -0.002052974 -0.020073716 -0.03424236 -0.017818417 -0.0038522251
0.030599551 -0.016290987 0.02532775 0.0014243335 -0.0012191979 -0.033132464 -0.03720726 0.014013892
0.020035299 -0.021247214 0.017460708 0.022681803 -0.012695464 -0.026538331 0.015644813 0.027068341
0.021229867 -0.021650279 -0.020938845 0.025651265 0.04216776 0.008689624 0.021789564 -0.036436144
-0.025984619 -0.012168504 -0.018566893 -0.045500163 0.036122233 -0.00956336 -0.024136188 0.009250643
-0.0094238315 0.03261512 0.0409066 -0.022633951 -0.016797615 0.008571286 0.022423176 0.0038124544
-0.022022016 -0.011581961 -0.00928347 -0.0041536465 0.010519487 0.014447325 0.028724372 0.026850468
0.0036471093 -0.0015568071 -0.020060522 -0.015119763 -0.013740036 -0.008839212 -0.013050749 -0.018501986
0.017814668 -0.023020128 -0.025202146 0.0064923167 -0.017249605 -0.002947791 -0.02494694 -0.017309684
0.016615685 0.005801824 0.013330074 -0.028475448 0.03497944 -0.013516405 0.028921515 -0.032491334
-0.013023666 -0.0011247027 -0.0021888013 0.0065366933 -0.0022149065 -0.00422699 -0.025710646 0.01880336
0.020018786 -0.018300368 0.03938545 0.020671552 -0.043172922 0.008529083 -0.016023984 0.008222314

action_model._discrete_distribution.branches.1.bias f4 [5]
00000000: 30cf 54bc 5cc6 b5bc 039a cebb 86b0 80bb
00000010: f927 193d
-0.0129888505 -0.022189312 -0.0063049807 -0.0039272932 0.037391637

action_model._discrete_distribution.branches.2.weight f4 [5, 128]
00000000: 69fa e2bc 511e 013c afef f43b 060e 57ba
00000010: 6d47 d0bc fe9f 343c 1552 833c 4487 14bd
00000020: c280 413d 8dcb 38bc c3fc 70bc c23f b6bb
00000030: 604f a9bc 0cdf 92ba f4e0 73bb 0012 ca3b
00000040: 6315 99bc 6ec6 b23b b9ec 0a3b 1191 88bc
00000050: 2532 2fbc 47d9 76bb 2e0e 53bc 054d 1cbc
00000060: b478 a23c ceac 21bc 2e18 f33b 9ccf 11bd
00000070: dd67 d83c 9bfb f13c 1978 863b e7fd fd3b
00000080: f297 b7bc 7592 c8bb 4146 0bbd a066 2bbd
00000090: 589a 8abb c23b 04bd e93c 18bc b775 28bc
000000a0: 1d5c b13c 5bc5 9fbc ebb6 a43c 0bf0 1dbc
000000b0: cf11 a93c a17d bbbc e422 36bb a618 21bb
000000c0: 587c 093a 0d61 ae3c 3a88 0f3c a0a0 e53b
000000d0: 69ad ea3b 02b1 e7ba 2065 903c 4b78 b23c
000000e0: 3a13 5cb9 174b 82bc 0810 7fbc 7aa8 bd3c
000000f0: fc0b 9f3c 0cb8 14bd efa6 c83c 83f4 2fbc
00000100: f314 81bb ed79 90bc 7695 313b 98e3 efbc
00000110: cdce 7c3c 7cb5 93bc 62f4 18bd 465d cdbc
00000120: f54f c53a ddec 433c c8c1 063c e595 27bc
00000130: 223a 3ebc d46f 303b 99b9 0a3d e591 d23b
00000140: 6b25 08bc 0b18 40bc 2472 19bc 4f3e f93a
00000150: 7196 c83c b383 a83c b790 963c 1feb f13b
00000160: 3f6a 88bc 2ab3 25bb 2e09 09bd d501 66bc
00000170: 6731 c3bc 28f0 0abb 1b19 23bc 931e c3bc
00000180: 1d06 e03c 2b7b d4bc 0316 f4bc d095 3c3a
00000190: 33d9 95bc 46fa 8f3c 1ca3 b7bc b48d 95ba
000001a0: ae42 a4ba 3370 af3c ca1a 83bb 2075 e8bb
000001b0: 31bb 003d 11f4 a9bc 8a6e a33a 9a2d 95bb
000001c0: 2cc4 c9bc 4584 92bc 2615 ef3c ac85 b8bb
000001d0: 3993 813b d116 afbc 0c43 4bbd 2445 c83c
000001e0: cdc4 8d3c 130f 8bbc d47a aa3c 65f7 933c
000001f0: a3a9 9dbc 15c1 c5ba b952 77bc 10b2 2f3c
00000200: d8cb f2bc 75a9 ee3c cf5b f93c 5e52 01bb
00000210: 0207 59bc eba2 113c 2d2e 573d 29ad 03bd
00000220: 3513 393d 10d4 05bd 7db9 013c ada3 f2b9
00000230: 6c9c 83bc f7e4 2a3d 15d9 eebb de50 f83c
00000240: 5599 0fbd 194c b3bc 55c1 ca3c 980e 4abd
00000250: 48b9 d6bc debc 28bc 1c60 c9bc 8c0c 3ebb
00000260: 704e e03c 18ea 1ebd 5a17 e53b b821 26bd
00000270: ce3c 0a3d 7f26 113c 0613 303c 271f ee3c
00000280: 7b07 f9bc 2b09 bdbc e89c 90bc 712f 03bd
00000290: 6918 ebbb 93d2 46bc 1ffd b43c e5e8 c1bc
000002a0: 9c65 bc3c 18f8 47bd ecea 393d 49f7 a3bc
000002b0: 13ee 0f3c 215a d9bc 26e0 ecbc 2aa4 f33c
000002c0: d3da cf3c ae2f 19bb 8c75 043d 2f2e a1bc
000002d0: 8b09 a0bc c141 6dbc 7d3c 023d 75e9 ce3c
000002e0: a247 6f3a 49ef 12bd 9253 72bd e42c 043d
000002f0: 1c4a eb3c dcea 95bc feb3 e93c c6b6 15bd
00000300: 2aa0 45bd 891d 07bd bb2d 43bd 87aa 29bd
00000310: 894a 473d fee2 c7bc 02d8 09bd e40e d3bc
00000320: 0907 2cbc 5f9c eb3c 502f d83c 8581 45bd
00000330: f990 aebc 0151 bcbc fbbd 303d 20b1 28bc
00000340: 2028 a6bc 6068 d1bc 83ae c03b 7622 6dbc
00000350: 4c53 083d 8479 a93c e4c5 fa3c f026 ce3c
00000360: 2a4c eb3c 3fb3 713b deb0 36bc 12d8 febc
00000370: 2a98 d6bc bb3e e3bb 5617 173a 258b 29bd
00000380: 5ad8 433d b138 3dbd e455 11bd c814 003d
00000390: 6477 abbc 46bc 453b 45b5 6cbc cc8d 2abd
000003a0: e9b9 093d 6898 b63c 2c6a 383c 59d4 26bd
000003b0: 5039 db3c 733b 3dbd b852 ce3c 4533 26bd
000003c0: 4ccf e4bc 42bf 00bd ae1e 143c 50db debb
000003d0: fe65 263c ca47 8abc 9b7f d1bc 82f3 233d
000003e0: cecc a93c 5a68 2bbd 5886 0b3d 20cd 1f3d
000003f0: 8bc1 85bc b053 d33c d83f 55ba 65c3 243d
-0.027707295 0.007880763 0.0074748616 -0.0008203689 -0.025424683 0.011024473 0.01603035 -0.03626181
0.047241934 -0.011278999 -0.014708701 -0.0055617997 -0.020667732 -0.0011205389 -0.003721294 0.0061666965
-0.018686956 0.0054557836 0.0021198227 -0.016670736 -0.010693108 -0.0037666128 -0.012881799 -0.009539847
0.019832946 -0.00986786 0.007418654 -0.035598382 0.026416713 0.02953892 0.004103672 0.007751215
-0.02241132 -0.0061209747 -0.034002546 -0.041845918 -0.004229825 -0.032283552 -0.009291866 -0.010281972
0.021650368 -0.019503286 0.020106753 -0.00963975 0.020638375 -0.022887053 -0.0027791793 -0.0024581342
0.0005244664 0.021286512 0.008760506 0.0070076734 0.0071617854 -0.0017676654 0.017626345 0.021785876
-0.00020987997 -0.015904946 -0.015567787 0.023151625 0.019414894 -0.036308333 0.024493663 -0.0107394485
-0.003939265 -0.017636264 0.0027097142 -0.02928333 0.0154301645 -0.018030874 -0.037342437 -0.02506889
0.0015053736 0.011958328 0.008224912 -0.010228609 -0.01161054 0.0026922124 0.033868406 0.0064260834
-0.008309702 -0.011724482 -0.009365592 0.0019015762 0.024485799 0.020570612 0.018379552 0.007382765
-0.016652225 -0.0025283792 -0.03345602 -0.014038523 -0.023827268 -0.0021200273 -0.009954716 -0.02381829
0.027346665 -0.025937637 -0.029795652 0.00071939547 -0.018292045 0.017575394 -0.022416644 -0.0011410029
-0.0012532079 0.021415805 -0.0040009962 -0.0070940405 0.03142852 -0.020746263 0.0012468856 -0.0045525553
-0.024629675 -0.017885337 0.029184889 -0.0056311693 0.003954318 -0.021373184 -0.049624488 0.024447031
0.017305756 -0.016974961 0.020810522 0.018062303 -0.019245928 -0.001508745 -0.015095406 0.010723606
-0.029638216 0.029133538 0.030439286 -0.0019732933 -0.0132463 0.00888894 0.05253427 -0.03214756
0.045184333 -0.03267294 0.007917759 -0.00046279785 -0.016065799 0.041722264 -0.007289062 0.030311998
-0.03505834 -0.021886872 0.024750391 -0.049330324 -0.026211396 -0.010298936 -0.024581961 -0.0028999178
0.027381152 -0.038797468 0.006991309 -0.0405595 0.033749394 0.008859276 0.010746723 0.029067589
-0.030399075 -0.02307566 -0.017652944 -0.032027666 -0.007174541 -0.012135166 0.022093354 -0.023670623
0.02299767 -0.048820585 0.045390055 -0.020015376 0.008784789 -0.026532235 -0.028915476 0.029741365
0.025372898 -0.0023374367 0.032338664 -0.019675342 -0.0195358 -0.014481009 0.031795967 0.025257805
0.00091278006 -0.03587273 -0.05916173 0.032269374 0.028721862 -0.018300466 0.02852821 -0.03655126
-0.048248447 -0.03298715 -0.047651034 -0.041422393 0.048655067 -0.02440023 -0.033653267 -0.025763936
-0.010499724 0.028761087 0.026389748 -0.048219223 -0.021309363 -0.022987844 0.04314993 -0.010296136
-0.020282805 -0.025562465 0.0058801784 -0.014473548 0.033282563 0.020687826 0.03061194 0.025165051
0.028722841 0.003688052 -0.011150567 -0.03110889 -0.026195604 -0.0069349683 0.000576367 -0.041392464
0.04781375 -0.046196643 -0.035482302 0.03126982 -0.020930953 0.0030172034 -0.014447515 -0.041639134
0.033624563 0.02228947 0.011255782 -0.040729854 0.026760727 -0.046199273 0.025185928 -0.04057624
-0.027930878 -0.031432398 0.009040518 -0.0068010464 0.010156153 -0.016879935 -0.025573542 0.04002715
0.020727541 -0.041847564 0.034063667 0.03901398 -0.01632764 0.025796741 -0.00081348186 0.040225405

action_model._discrete_distribution.branches.2.bias f4 [5]
00000000: aec0 82bc bdb7 f8bc f338 223b 9f61 08bc
00000010: cba9 273d
-0.015961017 -0.03036105 0.0024753183 -0.008324056 0.04093341

action_model._discrete_distribution.branches.3.weight f4 [5, 128]
00000000: aa8d 173c fdad 18bc a781 5fbc a3fb b53b
00000010: 1d71 e13b 3cc4 97bb 8a06 95b9 a1d1 9c3c
00000020: 1726 2dbc 1cb9 ee3b cdff c9ba 3da2 023d
00000030: e8c1 953c 8eba 4abb c582 193d 01b6 44bc
00000040: a857 e63c bfe2 1dbc 226c bdbc ad45 003a
00000050: 6bc6 423c 855d 453c 8f0b e63b de83 c8bb
00000060: 994f a7bc aa7b 29bc 17e8 babb ec33 30bc
00000070: 072b 46bc c66d c03a 22b1 5ebc 00f7 0dba
00000080: cfd9 af3b 005d cc3a 46fd fd3c 2297 fd3b
00000090: a14f a63c 73bc 383c 9217 d5bc e497 633c
000000a0: 9175 a1bc d2b0 35bb 3d72 9d3a 37be 853c
000000b0: 61d9 24bc a166 6e3c 93b1 4f3c cd26 c8bb
000000c0: 9c76 a63c fcfc 95bb 0467 413b 4c68 c03c
000000d0: 2a72 4f3c 6983 efbb 52f7 0abc e774 ab39
000000e0: 3a00 533c 0a91 6ebb 2de9 9fbb 1baf a1bb
000000f0: dad1 973b 55f6 b33c a740 60bc 813c bebc
00000100: 67b4 21bb 0be7 ae3c 788c 073d 3ada 673b
00000110: 025c 163c ac41 a33c 077b 8e3c 4d95 573b
00000120: e138 de3a eb09 1abc 9037 cebb 27ef 1b3c
00000130: a4bc 963c ac7f 43ba ff30 bab9 8ba9 d6bc
00000140: bf25 3d3c 9038 7fbc 2b8d 2d3d d712 0dbc
00000150: bdb6 98bc ac98 acba 4687 50bc cf89 85b9
00000160: fc3d 823b 4ffb 213d a50a 6b3c 51c2 b83b
00000170: 3b7e 5bbb 09b1 c9bb c348 8c3c a795 373c
00000180: 3178 e4bb 88c0 dbbb cb3a 263c 8eb6 023d
00000190: e715 e03c b0dc 4fbc ee56 dc36 5d7f 183b
000001a0: 69cd ea3b 8198 49bc 5e8e 53bc 4f62 8d3c
000001b0: f0fc 88bc 6fde 183b 3109 9cbc 837c 093a
000001c0: db5c d43c a4ab 8d3c 2dde 1b3b 506f 16bc
000001d0: 36ea 87bb ed07 e73c 7ee7 ab3c 9268 593b
000001e0: b32b e7bc 8ca0 c9ba 631a 31bc c718 80bc
000001f0: bc09 833c 4fd6 0d3d 9bb1 b23c 7111 58bc
00000200: 63ed 4bbc c30f 023a bf83 4b3c 6b32 84bc
00000210: a4ae 45bc 9764 823c 8bed b13c 3f99 e5bc
00000220: 0f71 283c 1540 a1bc 6c57 133c e914 7fbc
00000230: de81 1ebc 6b33 103d 092b 81bc bd78 dd3c
00000240: d0fa 21bc 9653 b5bc bcde a73c 535b 17bc
00000250: 1dcb c1bb 02e2 833a d44d 8abb 3f15 913a
00000260: d1e8 b33c a098 3cbc 56fe 953c 3ad4 cabc
00000270: bb1b ba3c efc6 8f3c 067f 503c fdb4 da3c
00000280: 10d1 b4bc 145c 98bc 4b74 7cbc 086f 29bc
00000290: 9321 21bd 1fab 61bc 1183 b7bb 5062 47bc
000002a0: 5de3 e53b fb2a 96bc 1396 013d eb59 afbb
000002b0: e278 1c3b 3074 a4bc dc66 92bc b9d8 2f3c
000002c0: 1c37 b23c 15f8 823b a13c 603c 4405 7cbc
000002d0: 033a bebc 593e 3cbd fc01 8b3c 37c0 d43c
000002e0: 4d97 ea3c ba83 89bc 6612 1fbc 6b31 403c
000002f0: 0875 a53b e603 f7bb 90e9 bf3b 1916 05bc
00000300: f173 85bc 6248 afbc 23af 0fbb 1edb c43b
00000310: cf29 993c 9c5f 94bc 30b6 44bb 4da3 9b3b
00000320: d3c9 98bc fa5e f73c 253a cb3c 7348 10bd
00000330: f5a1 d2bc 3e7c 30bc acf7 0a3c 00a2 863b
00000340: 730a eabc a3df 96bc 2c2b 92bc 28b3 3e3c
00000350: 859b 8c3c 0540 a43c 2ab7 c13c da0e 0d3d
00000360: 2254 363c c956 9bba 6254 0ebd 3b5c 88bc
00000370: 0dd8 e9bb 62de 81bc 776c 58bc 92d2 18bc
00000380: 3260 8f3c 5e97 973a 58e9 32bc dc58 033c
00000390: 563d cbbc 2a46 1fbc 61d1 58bc b22e adbc
000003a0: 7a6e 373c 1a85 e43b 3103 513c f7e1 2dbc
000003b0: 499e fa3c 3475 a5ba c961 ae3c 867e 55bc
000003c0: 544e c1bc 1ba1 02bb 4bff c8bc 853c 5d3b
000003d0: 870e 39bc 8069 ccbc 2080 dfbc 2df6 da3c
000003e0: b467 bc3c 3fbf 8dba 5098 f63b 7040 f63c
000003f0: a020 75bc 20c0 8c3b 93f8 11bc caf3 713c
0.009250084 -0.009318826 -0.013641751 0.005553679 0.006879939 -0.0046315473 -0.00028424367 0.019142928
-0.010568163 0.0072852504 -0.0015411318 0.031893004 0.018280938 -0.003093395 0.037478227 -0.012006284
0.02811797 -0.00963658 -0.02312285 0.0004893195 0.011888127 0.012046223 0.007020421 -0.0061192354
-0.020423697 -0.010344425 -0.005703937 -0.010754567 -0.012095219 0.0014681153 -0.013592036 -0.0005415529
0.005366541 0.0015591681 0.03100456 0.0077389637 0.020301642 0.011275399 -0.026012216 0.013891194
-0.01970938 -0.0027723801 0.0012012195 0.016326053 -0.010061593 0.014550836 0.012676614 -0.006108141
0.02032023 -0.004577277 0.0029510865 0.023487233 0.012661496 -0.0073093665 -0.008481817 0.0003270276
0.012878472 -0.0036402368 -0.0048800916 -0.0049342043 0.0046331706 0.021968046 -0.013687289 -0.02322221
-0.0024674179 0.021350404 0.033092946 0.0035377876 0.00917721 0.019928776 0.017392648 0.0032895387
0.0016954207 -0.009401779 -0.0062932447 0.009517468 0.018400498 -0.0007457684 -0.0003551319 -0.026203891
0.011544644 -0.01557745 0.042370956 -0.008610449 -0.018641824 -0.0013168058 -0.012727564 -0.00025470412
0.0039746743 0.039546307 0.0143458 0.0056383987 -0.0033491987 -0.0061551374 0.01712454 0.0112051135
-0.0069723357 -0.006706301 0.010145853 0.03191238 0.027354194 -0.012686893 6.566631e-06 0.0023269274
0.0071656 -0.012304426 -0.012912361 0.017258791 -0.016722172 0.002332594 -0.019047352 0.0005244689
0.025923183 0.017293759 0.002378355 -0.009181812 -0.004147793 0.028202021 0.020984408 0.00331739
-0.02821908 -0.001538293 -0.010809514 -0.015636815 0.015995853 0.03462821 0.021813205 -0.013187752
-0.012446734 0.0004961455 0.012421547 -0.016137322 -0.012065563 0.015917106 0.021719715 -0.028027175
0.0102808615 -0.019683877 0.008993011 -0.01556895 -0.009674517 0.035205286 -0.015767591 0.027035112
-0.0098864585 -0.022134583 0.02049195 -0.009238082 -0.0059141056 0.0010061862 -0.0042207036 0.0011068954
0.021961601 -0.011510998 0.018309753 -0.0247594 0.022718301 0.017550914 0.012725597 0.02669763
-0.022072345 -0.018598594 -0.015408586 -0.010341413 -0.03933866 -0.013773709 -0.005600341 -0.012169436
0.007015629 -0.018331042 0.031637263 -0.005351295 0.0023875763 -0.020074934 -0.017871313 0.010732823
0.021754794 0.003996859 0.01368633 -0.015382115 -0.023221022 -0.045957897 0.01696872 0.025970561
0.028636599 -0.016786445 -0.009708976 0.011730532 0.0050493516 -0.0075383065 0.0058567002 -0.008122944
-0.016290637 -0.02139682 -0.0021924458 0.006007566 0.018696694 -0.018111996 -0.0030015819 0.0047496916
-0.018650925 0.030196656 0.024807999 -0.035225343 -0.025711993 -0.010771809 0.008481901 0.0041086674
-0.028569436 -0.018417185 -0.017842852 0.011639394 0.017164001 0.020050058 0.02364691 0.03443799
0.011128457 -0.0011851426 -0.034748442 -0.016645541 -0.007136351 -0.01585311 -0.013209454 -0.009327548
0.017501924 0.0011565497 -0.010919891 0.008016791 -0.02480952 -0.009721318 -0.013233514 -0.02114043
0.011195773 0.0069738748 0.012757109 -0.010612956 0.030593054 -0.001262343 0.021286862 -0.013030654
-0.02359692 -0.0019932452 -0.024535796 0.0033757996 -0.0112949675 -0.02495265 -0.027282774 0.026728714
0.022998668 -0.0010814442 0.0075254813 0.030060023 -0.014961392 0.004295364 -0.008909362 0.0147675965

action_model._discrete_distribution.branches.3.bias f4 [5]
00000000: 7496 1c3c 0c05 89bc 607e 13bc 9b32 513c
00000010: 0000 0000
0.009557355 -0.01672604 -0.009002298 0.012768413 0.0
