Assets/ML-Agents/Models/BattleSystem_poca.onnx (onnx, 33641 bytes, 18 tensors)

discrete_act_size_vector f4 [1, 7]
000000 00 00 a0 40 00 00 00 40 00 00 a0 40 00 00 50 41
       5.0 2.0 5.0 13.0
000010 00 00 80 3f 00 00 80 40 00 00 80 40
       1.0 4.0 4.0

network_body._body_endoder.seq_layers.0.weight f4 [32, 49]
000000 88 22 5b be 1b 07 38 3d 0c 72 84 3d 15 41 1c bc
       -0.21399891 0.04492865 0.06467065 -0.009537001
000010 5c ab ce bd 20 2c aa bd 71 e8 5f 3d 06 6c e0 bd
       -0.10091278 -0.083091974 0.054665033 -0.10958104
000020 67 a1 00 be cd e3 5a 3e 3b 61 82 3d d6 a3 40 be
       -0.1256157 0.21375962 0.063662015 -0.18812498
000030 b7 2a 2a bd 1a f1 90 3e 8c ee 89 3c ed 33 06 3e
       -0.041544642 0.28308946 0.01683738 0.13105746
000040 85 2a ed 39 95 41 4d be 03 ac 79 be 99 74 61 bc
       0.00045235842 -0.20044549 -0.24382024 -0.013760709
000050 42 20 18 3e 22 4a d0 bc 63 54 cd bb 54 7a 0e bd
       0.14856055 -0.025425974 -0.006266163 -0.03478463
000060 36 8d 43 be ee 5b a0 3d af aa 6e be 5c 14 5d bd
       -0.19096836 0.07830034 -0.23307298 -0.053974494
000070 96 d1 f2 bc 07 86 62 3e 52 c6 60 3d 62 e4 a8 bd
       -0.029640954 0.2212144 0.054876633 -0.082466856
000080 5f 84 c9 bc 63 25 51 be 13 20 02 3b ee 2f cf 3d
       -0.024599252 -0.20424418 0.0019855544 0.10116564
000090 f9 76 52 3c a9 10 7d bd 62 87 48 bd 81 10 c8 3d
       0.012845748 -0.061783466 -0.048957236 0.09768773
0000a0 b1 8d 26 3d ad 94 a2 3d 79 a3 9d 3e 9b 67 f4 bd
       0.04066247 0.07938514 0.30788782 -0.11933824
0000b0 23 70 5b bd 85 3f 63 3e 1f 57 80 bd 3f 7c 0f 3e
       -0.05357374 0.221922 -0.06266617 0.1401224
0000c0 9a fe 4e 3c fe 8d 17 be 1f 1c 3c 3d 80 2b 80 be
       0.012633944 -0.1480026 0.045925256 -0.25033188
0000d0 65 ee f8 3d 39 9b 5d bd 11 0b 4b 3e 8b 2c 3a bd
       0.12154845 -0.05410311 0.1982844 -0.045452636
0000e0 30 f0 46 38 ad 81 f8 3d 18 d9 94 3c f3 90 fb 3d
       4.743057e-05 0.12134109 0.018169925 0.12283506
0000f0 4d 93 f3 3b 34 b3 20 be f3 e5 f9 3d 00 e6 5c 3e
       0.007433331 -0.1569336 0.122020625 0.21572113
000100 ee 9f d1 bd 1c d0 84 be ce 8e e0 bd 55 cf 4b 3d
       -0.10235582 -0.25940025 -0.10964738 0.049758274
000110 21 be b1 3c ac 5f e7 3c 21 22 b6 bd fc c4 35 be
       0.021697106 0.028243862 -0.08893228 -0.17750925
000120 ab a2 64 bc 4f f0 81 3e aa c5 5a bc 8b 23 b7 bc
       -0.013954799 0.25378653 -0.013352791 -0.022355815
000130 6c b7 74 be 43 ae 2b 3e 44 aa 8f bd 0a 4d 7c bd
       -0.23898095 0.16765694 -0.070148975 -0.061596908
000140 77 19 31 bc 0d 4e 01 be 10 9d 36 3e c6 e2 3d be
       -0.010809294 -0.1262743 0.17833352 -0.18543538
000150 ef 06 b1 bd 40 91 18 3e 7c 3a 43 bd 0c bc d9 3d
       -0.086439006 0.14899158 -0.047663197 0.1063157
000160 ed 98 07 3e 1a 2e 2a 3e 09 c0 ca be 6e d1 e6 3c
       0.1324193 0.16619149 -0.39599636 0.028176036
000170 66 4e 78 3d 33 6a e1 bc b1 5a 34 be 95 43 b6 3e
       0.06062164 -0.02751646 -0.17612721 0.35598436
000180 bd 85 87 bb d5 26 37 be 77 bd 38 3e 1e 62 7c 3d
       -0.004135816 -0.17885907 0.18041025 0.06161701
000190 10 a6 48 3d f4 04 33 3c 1d 16 c6 bd 2c e7 24 be
       0.048986495 0.010926474 -0.096721865 -0.1610381
0001a0 3c 83 22 3e ff 3e c8 3c 79 9f 77 3d 72 c7 12 be
       0.15870374 0.024444101 0.06045482 -0.14333895
0001b0 0b 93 df bd 0f 36 ca 3a 74 69 90 bc 1e f0 75 bc
       -0.10916718 0.0015427488 -0.017628409 -0.015010862
0001c0 d4 ee 3d 3c 72 c4 5c be f5 80 a5 3d 9c e5 4a be
       0.011592586 -0.21559313 0.08081237 -0.19814152
0001d0 78 2c 52 be c3 86 36 3e d1 f2 d7 bd 76 7e b9 bd
       -0.20524776 0.17824845 -0.105443604 -0.09057324
0001e0 82 9e f2 bc 89 5e f6 3c 81 f4 a2 3d db 77 63 bd
       -0.029616598 0.030074375 0.07956792 -0.055534225
0001f0 ca 19 65 be 2a 77 e0 bc fe 98 b9 3b a3 f6 5a 3d
       -0.22373119 -0.027400572 0.00566399 0.053457867
000200 d6 c2 d7 3d b8 45 9b bd 46 01 82 bc cc 6d ea bd
       0.10535209 -0.07581657 -0.015869748 -0.11446723
000210 3a e8 1f 3e 5b 55 60 3d 6c 03 11 3d 7e b2 93 3c
       0.15615931 0.0547689 0.035403654 0.018029448
000220 bf f9 2f 3c f3 cc cd bd 3c 95 00 3c f7 99 b4 3d
       0.010740696 -0.100488566 0.00784808 0.08818429
000230 db d4 56 be 0e d5 2d be a2 cf 07 be 63 0f 01 be
       -0.20979635 -0.16975805 -0.132628 -0.12603526
000240 71 a0 27 be 5f 4b a7 3d d7 d9 94 bd ae b2 d3 3d
       -0.16369797 0.08168673 -0.07268112 0.10336815
000250 c3 5f 0e be cb 96 d4 bd 02 ec 2e be f7 5a 61 3e
       -0.13903718 -0.10380324 -0.17082217 0.22007357
000260 f8 09 17 3e c5 c8 6f 3e ca b7 72 3e ae bd 8d 3d
       0.14749897 0.23416431 0.23702922 0.06920944
000270 e9 ac 07 3e eb b3 cd 3d 24 c0 f9 3b 85 8d 1b be
       0.13249554 0.10044082 0.007621782 -0.15190704
000280 0c b8 b5 3d cb b7 3e bc fe 24 09 3e 23 63 d2 3d
       0.08872995 -0.011640499 0.13393018 0.10272815
000290 1e 34 07 3e f7 41 69 3d 9d 9e 9c bd aa 72 7e 3e
       0.13203475 0.056947675 -0.076474406 0.24848428
0002a0 40 d5 92 3e cf 2f 88 bd c7 81 51 bc d5 f6 b8 3d
       0.28678322 -0.06649744 -0.012787289 0.090314545
0002b0 a6 cc 6d 3d 0a 4b e0 3d d6 bc 3f 3c 10 fa ba 3c
       0.058056496 0.109518126 0.011702737 0.022824317
0002c0 0f f2 bf 3c 75 9f 03 3e 34 24 48 3d 47 ea b5 3d
       0.023430852 0.12853797 0.04886265 0.088825755
0002d0 84 d4 fd bd b4 99 28 3d 8e d7 2b be 92 4a 09 3e
       -0.1239405 0.041162208 -0.16781446 0.13407353
0002e0 cd d9 98 3d 10 a1 6e 3e 5d ec a1 be 9b bc cf 3d
       0.07463417 0.23303628 -0.31625643 0.101433955
0002f0 06 77 03 3d 34 d4 77 3d a7 5c 7b bc 2c 2e c5 3b
       0.03209593 0.060505107 -0.015341914 0.006017467
000300 6b 82 94 be 67 e5 9b 3d 9a 14 57 be 24 b5 08 3e
       -0.2900575 0.076121144 -0.21003953 0.1335035
000310 69 20 56 be 04 22 a0 3d 03 4c 84 be a4 50 9d bd
       -0.20910801 0.07818988 -0.25839242 -0.076813966
000320 5d 06 5a 3d 45 fe 0b be 95 44 a8 3d 26 79 87 bd
       0.053228725 -0.13671215 0.08216206 -0.06614904
000330 3f 6e 18 3c 6e 3a c8 bd bc 6b 66 3d 9a 9c c6 bd
       0.0093036285 -0.097767696 0.056255087 -0.09697838
000340 bf 57 41 3d 4a 6e 15 bc 8b 34 ec 3d c6 f4 3e bc
       0.04720282 -0.009120533 0.11533459 -0.011655038
000350 f4 26 5f be 5c 6a 81 3e a5 86 09 3e 64 26 a5 bc
       -0.21792203 0.25276458 0.13430269 -0.020159908
000360 87 58 d9 3d a7 ff a8 3e c7 5b 59 3e e8 a6 ea bd
       0.106125884 0.33007547 0.21226417 -0.11457616
000370 58 ac 91 3c be ae cd 3a a5 ff 10 3b ff 25 85 3d
       0.017782375 0.0015692336 0.0022125032 0.06501388
000380 e9 7a 64 3e be 62 0d 3e 03 72 e8 3c d5 20 75 3d
       0.22312512 0.13807198 0.028374678 0.059845764
000390 8b 03 d6 3d 9f 90 1e bd 48 60 72 be c1 90 b8 be
       0.104498945 -0.03871214 -0.23669541 -0.36047938
0003a0 9e 53 21 be b0 7e a1 bd c8 82 db bd b1 61 08 bd
       -0.15754554 -0.07885492 -0.10718304 -0.03329629
0003b0 c3 aa 62 be a6 54 e1 bd 75 e3 0b 3e 1b cb 88 3d
       -0.22135453 -0.110024735 0.13660987 0.06679364
0003c0 a8 80 12 be 9a cf 35 be d1 9e 08 3e 76 57 ab bc
       -0.14306891 -0.17754975 0.13341834 -0.020915728
0003d0 ee 22 0b be a7 95 ae bd 8a c4 56 be 6b 9a 57 3d
       -0.13587543 -0.08524638 -0.20973411 0.0526375
0003e0 5f b6 a1 be 85 f9 69 3e d4 f7 0c be 16 54 07 3e
       -0.3158445 0.2284909 -0.13766414 0.1321567
0003f0 e0 1b b0 3c 45 ab 25 3c 52 a0 32 be a3 20 7a 3d
       0.021497667 0.010111635 -0.1744397 0.06106628

network_body._body_endoder.seq_layers.0.bias f4 [32]
000000 27 e0 19 3b 53 cc b4 bb ab b4 80 bc 15 20 36 3a
       0.0023479552 -0.0055175214 -0.01571115 0.00069475296
000010 6b 5f 37 bb b6 bf 99 bc f1 74 89 bc ec a9 90 bc
       -0.0027980458 -0.018768173 -0.016779395 -0.01765915
000020 95 a7 01 3c cf bb 3a bc 1a 40 00 bd b1 7b 4e 3d
       0.00791349 -0.011397316 -0.031311132 0.05041093
000030 0c 54 07 bd 6a dd 25 bc 96 2b 10 bc f2 69 3e 3d
       -0.033039138 -0.01012359 -0.008799454 0.046487756
000040 5c ab 0a bd 1a 0b e3 bc 4a bf c2 bc 0b bf c2 bc
       -0.033854827 -0.027715255 -0.023772854 -0.023772737
000050 ca d4 3f bc 14 ef 48 bc 49 80 b6 bc be d8 80 bc
       -0.011708448 -0.012264032 -0.022277968 -0.01572835
000060 47 bc 81 bc de 26 a3 3b 04 67 12 3d 1a 18 52 bd
       -0.015836848 0.0049789986 0.035742775 -0.051292516
000070 d6 57 f4 3b 93 e7 f6 bc b4 0c f8 bc 95 e6 4f bc
       0.00745676 -0.03013972 -0.030279495 -0.012689252

network_body._body_endoder.seq_layers.2.weight f4 [32, 32]
000000 71 a3 22 be fd aa be 3c d1 31 fd 3c e2 3d 22 3e
       -0.1588266 0.023274893 0.030907543 0.15843919
000010 d1 a6 e5 3d d0 57 8f 3d 18 a9 9f be 44 70 a7 bd
       0.11213458 0.06999171 -0.31183696 -0.0817571
000020 d8 50 b9 be 71 a7 c7 be 91 77 76 be 42 12 16 3c
       -0.3619449 -0.38994935 -0.24069048 0.009159626
000030 5b ed 0d be aa 97 df 3d 51 16 71 bd 22 a3 92 3d
       -0.13860075 0.109175995 -0.058859173 0.07160021
000040 ab c1 82 3e 5b 56 4e be ed 96 2b bc 58 7f a2 be
       0.25538382 -0.2015013 -0.010472995 -0.3173778
000050 aa e8 e1 3c db 3a 81 bd 3c df e2 be a6 79 e7 3c
       0.027576763 -0.06310054 -0.4431094 0.028256249
000060 9e da 4a 3d 4e 34 d1 bd d2 63 f1 bd cf 70 f4 3b
       0.049524896 -0.102150545 -0.11786617 0.007459737
000070 64 23 a5 3d 35 e2 d9 3d 12 fa 3e bd 8d d7 b3 3e
       0.08063391 0.10638849 -0.046625204 0.3512539
000080 04 17 79 3d 37 e3 83 bd 4a d0 89 be e2 50 31 3e
       0.060812965 -0.06439822 -0.26916724 0.1731601
000090 1d ed 4b be ec 65 9c 3c db ea 8d be 6a df 14 3e
       -0.1991467 0.019091569 -0.27718243 0.1453835
0000a0 b7 4e 2e 3e 89 28 19 3e e9 45 2d 3e 17 32 bf bc
       0.17022215 0.14956869 0.169212 -0.023339314
0000b0 a9 b5 34 3d b8 53 b6 3e 11 fd 43 be e8 0b dd bd
       0.044118557 0.35610747 -0.19139506 -0.107932866
0000c0 01 dd 21 3e f8 4f 03 bd 33 eb c3 3d 12 5e 1c 3d
       0.15806963 -0.032058686 0.09566345 0.03817565
0000d0 16 90 c7 3d 3b 61 50 b9 21 58 7c be 89 51 f1 3d
       0.09744279 -0.00019872647 -0.24642994 0.1178313
0000e0 b9 05 d7 3a a2 b8 ae bd 8d 2c f8 bc 36 ee 8f bc
       0.0016404904 -0.0853131 -0.030294681 -0.017569643
0000f0 d5 dd 92 bd e6 f2 03 3e a2 e5 47 be b9 06 a0 3c
       -0.07171217 0.12885627 -0.19521192 0.019534456
000100 03 5f 72 bd b5 e3 10 be e5 9b ac bd d0 9e 93 3e
       -0.05917264 -0.14149363 -0.08428172 0.28832102
000110 e5 3e 65 3d f2 01 85 3e c9 40 29 3d 0f d7 34 bc
       0.055968184 0.25978047 0.04132155 -0.011037602
000120 09 eb 8c 3d ec 7d 21 be b6 af 1f be b6 89 84 3e
       0.06880767 -0.15770692 -0.15594372 0.25886315
000130 8a 73 b1 3d 28 99 4c 3e 59 d9 93 3e c9 bc c4 be
       0.086646155 0.199803 0.2887676 -0.38425282
000140 f4 37 d4 3d 4a b2 6f be 9d 42 cf bd 67 20 5f be
       0.10362235 -0.23407856 -0.10120127 -0.21789704
000150 35 b4 24 be 69 07 0a bc a0 17 9b 3c e3 43 b5 3d
       -0.16084369 -0.008424618 0.018932164 0.08850839
000160 5d 75 89 3e d9 e8 4e be dc 69 78 be 82 ca 95 3e
       0.26847354 -0.20206012 -0.24259132 0.29256064
000170 6b 12 72 be 8b 5c f1 bd 09 f5 01 be b2 6c b3 3e
       -0.23639838 -0.11785229 -0.1269113 0.35043865
000180 94 06 8d be 83 3e 2d be 1d 5d f7 bd 09 84 f1 bb
       -0.2754408 -0.16918378 -0.12078307 -0.007370476
000190 18 a0 cd 3d e2 54 38 3e f2 77 f9 bd 12 0c 28 3e
       0.10040301 0.1800113 -0.12181081 0.16410854
0001a0 78 38 73 3e a4 ee f4 3d 28 2d 04 be 60 6b 3e 3e
       0.2375201 0.119595796 -0.1290785 0.18595648
0001b0 9f 98 0a ba 8f fb 90 3d e5 21 43 be d4 ff 21 be
       -0.00052870245 0.07079231 -0.19055898 -0.15820247
0001c0 6a 18 8e bc a8 fd 9e be b5 bd a7 be 73 4c 52 be
       -0.017345626 -0.310529 -0.32761922 -0.20536976
0001d0 1f fc 9c 3d 17 52 52 bc 5d 6a d4 bc b4 fb 3d 3e
       0.07665276 -0.012836955 -0.025929624 0.18553048
0001e0 15 36 b4 3d 7f b0 95 bd 4b 64 28 3e 53 21 6f 3e
       0.08799378 -0.073090546 0.16444509 0.23352556
0001f0 86 6c a4 bd cb 6c 1f 3e d1 10 7d be d1 27 a5 3e
       -0.08028512 0.15568845 -0.24713446 0.3225694
000200 83 35 7e be e0 6b 55 3c c1 21 52 be 53 a0 02 be
       -0.248251 0.013026208 -0.20520689 -0.12756471
000210 e9 f2 d0 3c 26 80 9e be 15 a1 1c 3e 02 08 05 3e
       0.025506454 -0.30957144 0.15295823 0.12991336
000220 bf 65 34 be c2 df 32 3d b1 5d 42 3e 5e de ac 3d
       -0.17616938 0.043670423 0.18981053 0.08440851
000230 25 6b 32 3e 29 93 a7 3d ab 30 c8 be a9 a0 f1 3c
       0.17423685 0.081823654 -0.3909963 0.029495554
000240 e4 e2 22 bd 70 8a 44 3c be 75 98 3d 8c 46 a9 3d
       -0.03976716 0.011995897 0.074443325 0.08265409
000250 d0 d1 13 3e 3b ae 3b be 24 31 5f 3d d3 7e 8f bd
       0.14435506 -0.18328182 0.054490224 -0.07006612
000260 22 0c 75 3e f9 35 00 be 9c 32 f8 be ba 04 78 bd
       0.2393041 -0.12520589 -0.48476112 -0.060551383
000270 b7 f3 c6 3d 89 c0 ba be d5 32 4d 3e c7 97 24 3d
       0.09714454 -0.36475018 0.20038922 0.04018381
000280 61 35 45 be 4d 8e bf be 11 f6 ff 3d 77 63 18 be
       -0.19258644 -0.37413254 0.12498105 -0.14881693
000290 14 3a 95 3d fc a7 81 bd 59 43 5d be 4b f4 57 3e
       0.07286468 -0.063308686 -0.21607722 0.21089284
0002a0 2d fc a1 bb 0a 76 eb 3d bb 92 82 bb 52 4a 3d 3e
       -0.004943392 0.114971235 -0.003984777 0.18485382
0002b0 c8 7e c6 3e 7a 87 55 3e be 45 a9 be 27 80 4c bd
       0.387686 0.20852461 -0.33061022 -0.049926903
0002c0 06 fe cd 3d 3f 1e 7c be 03 f9 53 be 61 78 c6 3d
       0.10058217 -0.24620913 -0.20700459 0.09690929
0002d0 7a db a3 3e fa 61 a1 be 1a 88 f7 3b 5e 8e 77 be
       0.32003385 -0.31520063 0.0075540664 -0.24175403
0002e0 48 1b 80 3d b7 5e 7c 3e 1a f5 21 3e a5 2f 97 3e
       0.062552035 0.24645506 0.15816155 0.29528537
0002f0 1c b1 e4 bc 51 fe 5c 3e 09 88 78 bd 11 3d 1c 3e
       -0.027916484 0.21581389 -0.06067661 0.1525767
000300 e1 df 33 3e d8 7a 74 bd 38 fa 66 be 97 2d f2 bd
       0.17565872 -0.059687465 -0.22556388 -0.11825102
000310 af b3 8f bd 65 4d 0d 3e 64 65 04 3e 17 d6 12 3d
       -0.07016694 0.13799055 0.12929302 0.035848703
000320 c5 d0 60 be 72 4f ba bd ea 4d 35 3e 47 d6 80 3e
       -0.2195464 -0.09097184 0.17705503 0.2516348
000330 4a 4d ac be 69 8e 9a bd c7 38 10 3e 13 d4 64 bd
       -0.33652717 -0.07546694 0.14084159 -0.055866312
000340 e1 af 1f 3c 2a 39 a8 3d c1 f5 bc be 3f 93 bb bd
       0.009746523 0.08214028 -0.36906245 -0.09158944
000350 f0 c4 4c bd df 1a 48 3e d8 c7 d9 bd b8 56 92 be
       -0.0499925 0.195415 -0.1063382 -0.28581786
000360 0f 7a 4f be 3b 14 86 3d df ff 25 3e ed d5 12 3e
       -0.20261405 0.065468274 0.16210888 0.14339419
000370 47 d8 3a 3d ea 0f 7e 3e 2a 6c 20 bd 49 d0 7b be
       0.045616414 0.24810758 -0.039165653 -0.24591173
000380 aa 24 8c bd 79 6e 00 be d5 c5 87 3c f6 9c 0b bd
       -0.068429306 -0.12542142 0.016573826 -0.034085236
000390 f2 4d a5 be ac 35 a6 3d c2 f2 57 3e 1a 9b 18 be
       -0.3228603 0.08115706 0.21088699 -0.14902917
0003a0 ae 1a 37 bd 47 c9 9d 3e 08 a7 5a be e0 80 c1 bd
       -0.044703178 0.30817625 -0.2135278 -0.09448409
0003b0 9d 16 9d bd c6 96 02 be d7 88 d1 3c 00 7a 27 bd
       -0.07670329 -0.12752828 0.025577946 -0.040887833
0003c0 df 96 81 bc ab a2 8f 3e 70 19 1d 3d cb 56 a1 3e
       -0.015819011 0.28053793 0.038354337 0.3151153
0003d0 22 a9 97 bd 04 e7 b0 bd 2e ae 5b be 77 d1 c6 bd
       -0.074053064 -0.08637813 -0.21453163 -0.09707921
0003e0 b1 1e 0c be b6 8c dd be 89 8b 9a be 01 a6 6f 3d
       -0.13683583 -0.43271416 -0.30184582 0.058507923
0003f0 6c 6f 53 3e 0b 56 e1 bc e1 5b 12 3d e9 f3 8e bc
       0.20647973 -0.027506849 0.035732154 -0.01745029

network_body._body_endoder.seq_layers.2.bias f4 [32]
000000 79 f4 17 bd 86 2a 8c bb 20 22 5f bd 3f 82 d2 bb
       -0.03709838 -0.00427753 -0.054475904 -0.006424218
000010 51 c2 89 bd ac 58 27 bc 4c 82 7d bd df b2 42 bd
       -0.06726516 -0.010214012 -0.06189184 -0.047533866
000020 1a 49 1f 3c 11 1b 11 3c 0d be b0 bb 96 11 7a bb
       0.009722019 0.008856551 -0.0053937496 -0.0038157455
000030 00 00 00 00 23 70 f7 3b 70 6b 9c 3c 04 d1 ff bc
       0.0 0.0075512095 0.019094199 -0.031227596
000040 0a 24 b1 bc 28 ac 04 2f ff da 89 bc 6c 96 2e bc
       -0.02162363 1.2066492e-10 -0.016828058 -0.010655981
000050 4d 7b e7 bb 5d 94 80 bc 60 99 42 bb 57 3e 2e bd
       -0.007064259 -0.015695745 -0.002969347 -0.04253992
000060 61 2d c0 bc 5c 4c 20 1c 42 20 f0 bc bc 62 0f bd
       -0.023459138 5.303825e-22 -0.029312257 -0.03500627
000070 f9 9d 8d 9b ab 20 e2 bb 72 c1 aa bb 7b d7 b9 bc
       -2.342858e-22 -0.006900867 -0.0052110488 -0.022685757

action_model._discrete_distribution.branches.0.weight f4 [5, 32]
000000 9a 21 3e bc e4 c4 96 bc cd ec 90 3c a7 b0 00 3d
       -0.011604691 -0.018404432 0.01769104 0.03141847
000010 b4 d1 33 bc c2 3d bc 3c 15 5f 49 3c a2 65 43 3c
       -0.01097529 0.022978667 0.012290736 0.011926087
000020 82 c9 07 bd 03 fd 85 3c ca 1b d6 3c 8b 33 31 bc
       -0.033151157 0.016355997 0.026136298 -0.010815511
000030 b1 35 09 bd cc 55 57 3d 3f 86 0e bc d4 30 e2 3b
       -0.03349847 0.052572057 -0.008698999 0.0069027934
000040 ef 6a 29 3c 6b 1e ae 3b c4 43 01 3c ee 24 ca bc
       0.010340436 0.0053136847 0.007889692 -0.024675813
000050 04 9d 45 3c 1b 52 bd 3c 90 2d b7 39 4f 99 16 3d
       0.012061361 0.02311044 0.00034938427 0.0367673
000060 16 15 6f bb a5 29 e6 3b 8e cc b8 3c 29 77 a1 bc
       -0.0036481074 0.0070240074 0.022558477 -0.01971014
000070 a4 20 aa bc 63 5b d9 bc 82 83 e7 3a 59 91 32 3c
       -0.020767517 -0.026532834 0.0017663094 0.010898911
000080 fd 22 65 bc f5 fe e6 ba 26 df b1 b9 cb c0 b4 3d
       -0.013985393 -0.001762359 -0.0003392633 0.08825835
000090 b1 01 71 3c a8 44 cf 3b bd 9f 18 bd 42 15 ed bc
       0.014709876 0.006325323 -0.037261713 -0.0289408
0000a0 9d 42 67 3c 44 c7 9d 3c eb 37 06 3d 58 04 f2 3d
       0.014115003 0.019260056 0.03276817 0.11817235
0000b0 6e 43 ac bb 07 b2 f5 bc 93 86 74 3d 9c b8 56 3c
       -0.0052570617 -0.029992117 0.059698652 0.013105538
0000c0 dd 1e e4 bc d5 49 a3 bc 20 8a 24 bc 4e 55 99 bc
       -0.027846748 -0.019932667 -0.010042697 -0.018717434
0000d0 13 69 0a 3d e1 97 be 3b 7d 19 d7 3b dd 71 68 3d
       0.033791613 0.005816445 0.0065643177 0.056749213
0000e0 ca ab a4 3c 4b 7c 37 bc a3 8f 18 3d 6f 6b 30 bc
       0.020101447 -0.011199067 0.037246358 -0.010767802
0000f0 3c b2 0d bc 6d c7 8a 3c c5 af d7 bc 53 28 cf 3c
       -0.008648451 0.016940797 -0.02632893 0.025287783
000100 d4 86 95 3c f3 59 5e bc 78 40 93 bc 64 f9 48 3c
       0.018252768 -0.01357125 -0.017975077 0.012266491
000110 e0 5e b0 3c 77 5e eb 3c 56 bf f0 bc 38 bc 8f 3c
       0.021529615 0.028731568 -0.029388111 0.017545804
000120 4b b9 68 bc ef 32 40 bc 8f 70 07 bc 87 2c 68 3d
       -0.014204334 -0.0117308935 -0.008266582 0.05668309
000130 2c f3 1e bc 24 7e 47 3d cf 2d df 3c 8c 1b 65 3c
       -0.009701531 0.04870428 0.027243523 0.0139836185
000140 a8 f4 c0 3b 20 07 d6 3b 83 6d cf 3c 06 94 03 3a
       0.0058885403 0.006531611 0.025320774 0.00050193106
000150 a6 a2 5f 3d bb c3 bb 3c 68 cc 02 bd 3f f7 74 3d
       0.054598473 0.02292048 -0.03193322 0.059806105
000160 9c 9e 04 bd 25 2d f6 3b 5f 81 f2 bc e7 e0 f3 3a
       -0.032377824 0.007512706 -0.029602705 0.0018606455
000170 5a fb 3f 3c 71 76 67 3d c2 8d 27 bc ba f2 77 3c
       0.011717642 0.05650944 -0.010226669 0.015133554
000180 e2 bd b7 bb 9d da 7c bc fa 9a b5 3c a4 a4 ca 3d
       -0.0056073526 -0.015432981 0.022168625 0.09894684
000190 1f 20 52 bc 47 1e 37 bc 5b 2c b5 3c f5 1b 91 3c
       -0.012825041 -0.011176652 0.022115877 0.017713526
0001a0 d4 a9 3b 3d 42 2c 34 3d 56 ce af 3c 92 70 38 3c
       0.045816258 0.04398752 0.021460693 0.011257308
0001b0 ba 52 f3 3b 3a ab 95 3d 1b b8 90 ba 31 96 23 3a
       0.0074256333 0.073080495 -0.0011041196 0.0006240337
0001c0 e8 e9 fd 3c 4e 39 8e bb bd cc bd 3b e3 83 0d 3c
       0.030995324 -0.0043403273 0.005792229 0.008637401
0001d0 58 49 0f 3d 34 03 fb 3c f4 9b e6 bc 03 b5 64 3c
       0.034982055 0.030641176 -0.028150536 0.013959172
0001e0 d8 1b 68 bb d3 90 34 3c 7c 06 c4 bc a1 71 76 ba
       -0.0035416987 0.011020857 -0.023928873 -0.00094010873
0001f0 f8 a2 13 bd ed 6f d0 3b d5 f7 37 3a 22 45 3f bc
       -0.03604409 0.006360999 0.0007017826 -0.011674197
000200 ea c9 dd 3c 4d 26 84 3d 2b 4a b7 3a 29 52 3a 3d
       0.02707382 0.06452618 0.0013983896 0.04548851
000210 72 47 9e ba be 59 10 3d b0 66 b7 3c 27 9b 0c 3d
       -0.0012075736 0.035241835 0.022387832 0.034327652
000220 6f 69 5e 3c 62 fa 49 3c bb 04 db 3b f3 09 61 3d
       0.013574942 0.012327762 0.0066839135 0.05494113
000230 47 a5 ef 3c 07 7d b3 bc c0 b9 c7 3c 1c 76 03 3d
       0.029253615 -0.021910204 0.024380565 0.03209506
000240 34 a1 4a 3d bd 61 88 bb 4d 1e 00 3d 7a 64 71 3c
       0.04947014 -0.004162042 0.031278897 0.014733428
000250 a4 46 6e 3d a5 84 fc 3b 49 0e 31 bc 01 be b7 bc
       0.058172837 0.007706242 -0.0108066285 -0.022429468
000260 70 ab 17 3d a5 2b ab ba 82 75 e0 3c 38 8e 32 3d
       0.03702873 -0.0013059272 0.027399782 0.04359266
000270 b5 cc cc bb b0 0d 73 3c 83 3c 3e 3d fb 88 9f bc
       -0.006249989 0.014834806 0.046444427 -0.019474497

action_model._discrete_distribution.branches.0.bias f4 [5]
000000 f7 65 03 3b 01 2d 10 be 5b 8a 3e bd b7 2c 01 3d
       0.002004979 -0.14079668 -0.046518665 0.031536784
000010 0f fc d4 3d
       0.10399639

action_model._discrete_distribution.branches.1.weight f4 [2, 32]
000000 c6 03 aa 3c 07 86 ce bc 21 c6 ae bc 02 43 4f 3d
       0.020753752 -0.025210394 -0.02133471 0.050601013
000010 2b 82 e3 3c 2c 25 d6 bc 2c 4e f8 3b e1 8f 50 bc
       0.02777203 -0.026140772 0.007577678 -0.012729616
000020 a6 ef de b9 22 21 0c 3d 19 bc c1 bc a2 49 80 bb
       -0.00042521692 0.034211285 -0.023649262 -0.0039150277
000030 c4 6c 82 3c ae ee 15 3d 9e 9a 67 3c 7c d7 18 bc
       0.015921004 0.036604576 0.014135985 -0.009328719
000040 64 c2 93 bc 9a 61 63 bc 23 08 9d bc ae c0 a4 3c
       -0.018037029 -0.0138782505 -0.019168919 0.020111408
000050 73 b3 92 ba 16 2f fe bb 9b 56 0b 3b 81 87 78 3a
       -0.0011192396 -0.007757078 0.0021261338 0.0009480641
000060 9f 2f 40 3d a0 ea 58 3c fb cf 29 3c 4d bc 3a 3d
       0.046920415 0.013239533 0.010364528 0.045589734
000070 e5 b1 f7 3a ca ca af 3b cd 92 b2 3b 19 e1 08 3d
       0.0018897621 0.0053647505 0.005449629 0.033417795
000080 e1 d2 9c bb 92 26 d1 ba 02 90 d3 3c fe c9 a8 bc
       -0.004785881 -0.001595693 0.025825504 -0.02060413
000090 84 fd 4c bd 19 2d a8 3c e4 be 03 bc b9 4d 7c bc
       -0.05004646 0.020529317 -0.008041117 -0.01539939
0000a0 5f cb b4 38 f6 91 e6 bc 40 08 cf 3b a7 9b a4 ba
       8.62095e-05 -0.028145771 0.006318122 -0.0012558595
0000b0 32 33 08 3c 37 3d 8b bb 7c 61 06 bb 8a 7f 4b ba
       0.008312987 -0.0042492407 -0.0020504883 -0.000776284
0000c0 6b 10 d9 3c 07 c9 d3 bb 84 8f d3 3c e5 c3 aa bc
       0.026497087 -0.0064631733 0.02582527 -0.020845363
0000d0 c1 cf e4 3b 93 ff 13 3c 19 74 7f bc 03 7e ce bb
       0.006982774 0.009033102 -0.015591645 -0.006301643
0000e0 54 bd df 3a e0 fe 6f 3b 83 d3 24 3c c1 95 82 3c
       0.0017069974 0.0036620423 0.010060194 0.015940549
0000f0 4a f9 0a 3d bd be 56 3a be 73 0f bc 5e b7 80 3c
       0.033929147 0.00081918744 -0.008755622 0.015712436

action_model._discrete_distribution.branches.1.bias f4 [2]
000000 dc 62 3a 3b dc 62 3a bb
       0.0028440272 -0.0028440272

action_model._discrete_distribution.branches.2.weight f4 [5, 32]
000000 ab bc fc 3c 88 dd 9a 3c ce 5c eb bb e8 ba 7a 3d
       0.030851683 0.018904462 -0.007182694 0.061213404
000010 16 f3 49 3d d4 78 36 bc ed 83 20 3b c8 25 cb 3c
       0.04930409 -0.011137206 0.0024492696 0.024798289
000020 65 c4 38 3d a4 3d 89 3d d9 10 de 3c 33 af 0a 3c
       0.04510917 0.0670121 0.027107643 0.008464622
000030 f3 4c d7 3c 44 40 2d bb 21 fb 8d 3b 6f 76 31 3c
       0.02628181 -0.002643601 0.0043329154 0.010831459
000040 0a 00 6e 3c c7 75 89 3b a2 87 89 3c b6 49 d4 3c
       0.0145263765 0.0041949484 0.016788308 0.025914054
000050 1c b1 dc 3c 05 60 ec 3c 67 52 d5 3c 04 40 63 3c
       0.026939921 0.02885438 0.026040269 0.013870243
000060 6a 41 43 3c cc 68 14 3c dd 84 ae 3c 73 e5 0b 3d
       0.011917451 0.009058189 0.021303589 0.034154367
000070 f2 c1 e3 bb ab 5c ed 3c d2 11 bb 3c 40 16 07 3d
       -0.0069506103 0.028974852 0.022835646 0.032980204
000080 69 89 7e bb dc 5c e2 3c 4f 26 e3 3c ca f0 76 3d
       -0.0038839227 0.02763217 0.027728228 0.060288228
000090 35 b7 ff bb 61 ff c2 bc 48 bb d9 3b f6 57 e3 3c
       -0.0078038224 -0.023803415 0.00664464 0.027751904
0000a0 59 46 05 bd 6a d2 99 3d dd b2 57 3d 00 f2 ee 3c
       -0.032537792 0.075108364 0.05266081 0.029168129
0000b0 b7 33 d2 bc cf c3 04 3d 7e a9 da 3c d0 05 c7 3c
       -0.025659425 0.0324133 0.026692148 0.024294764
0000c0 f9 f4 25 bc 9a 48 53 3c e1 cd 00 3d 4e f3 53 3c
       -0.010129207 0.0128957275 0.03144634 0.012936426
0000d0 ae 37 76 3c db b5 16 3d 23 36 9b 3c 45 b7 df bc
       0.0150279235 0.036794525 0.018946713 -0.02730907
0000e0 7a ab c1 3a 68 e4 21 3c a9 e2 45 3c 69 95 43 3d
       0.0014775835 0.009881116 0.012077966 0.04774991
0000f0 1d 59 aa 3b c9 2d f5 bc 9d 5a 16 3c 6a b4 b3 3c
       0.0051986114 -0.029929059 0.009176877 0.021936614
000100 92 8e d1 3c 3d da c8 bc 8e ac ff 3c 69 17 83 3d
       0.025580678 -0.024518127 0.03121021 0.064009495
000110 d4 c2 4a bc a5 43 25 3b ea fa e5 3c 93 bd 83 3c
       -0.012375552 0.0025217321 0.028073747 0.016081607
000120 45 32 27 3d 2f 6e c8 3b 8f 9e e3 3c f1 ad 93 3d
       0.040819425 0.0061166505 0.027785568 0.07210911
000130 b3 94 5d bc ac 14 4f 3d 3d 4c cf 3b 8c 3f 6e 3c
       -0.013524222 0.050556824 0.006326227 0.014541518
000140 3a bf 44 bb b9 c6 ca ba 31 56 93 3b 3b 3b 5d bb
       -0.0030021206 -0.0015470601 0.004496359 -0.0033757228
000150 da 58 0b 3d ad 10 e1 3c cb 90 1b 3d d6 07 61 3c
       0.034020282 0.027473772 0.037979882 0.013734778
000160 d3 9c 16 bd 25 da 49 3c a9 57 d3 3c e4 cf 3e 3c
       -0.036770653 0.012320076 0.025798636 0.011646245
000170 7a 3a d4 3b 1b 83 91 3c 13 43 23 3c 56 95 b8 3c
       0.0064766975 0.017762711 0.009964722 0.022532146
000180 3d fc 6d 3c 2e df d8 bc 19 08 92 bc 0e 47 32 3d
       0.01452547 -0.026473608 -0.017826127 0.043524794
000190 89 76 d5 bc a0 65 8f 3c 96 cb f3 3c eb 0c 0e 3d
       -0.026057499 0.017504513 0.029760163 0.03468029
0001a0 9e 88 f7 bb df cb ff bb 1a e4 99 bb b5 4d a3 3c
       -0.007554128 -0.0078062858 -0.0046963813 0.019934515
0001b0 dd 0f ff bb 39 31 d5 bc f1 79 38 3c d7 62 87 bc
       -0.0077838735 -0.026024448 0.011259542 -0.016526623
0001c0 4f 18 90 3c ee 78 fb 3a 5a 5d dc 3c 21 be 38 3d
       0.017589716 0.001918582 0.026899982 0.045103196
0001d0 54 a6 2f 3d 5b 0b cb bb 63 ae 2c 3d 0b f3 f1 3c
       0.042883232 -0.006196422 0.042158496 0.029534837
0001e0 57 bd e0 3c 53 14 32 bc 65 7c 90 bc 2e 23 9e 3d
       0.027434034 -0.0108691035 -0.017637441 0.07721554
0001f0 f0 fa a1 bc 40 67 d0 3c 6b 90 98 3c 1b 65 16 3d
       -0.019772977 0.025439858 0.018623551 0.036717515
000200 48 8d 94 bc 74 54 35 3c a9 82 aa bc 3f 9f e7 3c
       -0.018133774 0.0110674985 -0.020814257 0.028274177
000210 8c 6d d1 3b 34 5f 4b 3d 7b d7 bc 3c 66 70 d3 3c
       0.006391233 0.04965134 0.023051968 0.025810432
000220 35 75 89 3c 95 28 3d 3d 18 14 a6 3c 97 e0 35 3d
       0.016779521 0.04618128 0.020273253 0.04440364
000230 de 96 03 bc 0d 78 10 3d 4f cf f5 3c 28 d3 92 bb
       -0.008031575 0.03527074 0.030006079 -0.004480738
000240 1f 61 1f 3c 7a 92 79 bc fc d8 19 3c 1b af cd 3c
       0.009727745 -0.015232677 0.009390112 0.02510791
000250 4e 09 b7 3c 60 01 53 bd 29 0a 10 3d 1e fe fe 3c
       0.022343304 -0.051514983 0.03516594 0.031127032
000260 fc eb c5 3c 0f 58 79 3b 68 c0 1e bb cd 4a 0b 3d
       0.024160378 0.0038046872 -0.002422357 0.034006882
000270 87 93 09 3c b6 c0 06 3d e5 9a 8c 3b a3 b6 01 3d
       0.00839699 0.032898627 0.004290926 0.031668317

action_model._discrete_distribution.branches.2.bias f4 [5]
000000 f9 3d a6 bc 5f 3c 6a bd d5 6e 77 3d 69 84 0f 3d
       -0.020293223 -0.05718648 0.060408432 0.035038386
000010 8a 2d 9b 3c
       0.018942613

action_model._discrete_distribution.branches.3.weight f4 [13, 32]
000000 51 e9 00 3d f1 1d f6 3c dc 38 b2 3c 0d a9 f7 3d
       0.031472508 0.030043574 0.021755628 0.12092791
000010 a1 2f ac 3c 7b 66 ac 3c a3 40 7e 3c f0 aa 04 3c
       0.021018805 0.02104496 0.01551834 0.008097395
000020 c6 94 2c 3d f5 9c 27 3c d8 8d b2 3d ad 0c 1c 3d
       0.04213407 0.010230293 0.08718461 0.038098026
000030 4c 65 ae bb e8 20 5c 3d ab 5a 55 3d 18 e8 92 3d
       -0.005322134 0.05374232 0.05208842 0.071731746
000040 2b 23 22 3d 8d 1c ae 3c f7 99 ea 3c f2 2d 3c 3c
       0.03958432 0.021253848 0.02863787 0.011485564
000050 91 f4 89 3d b9 92 ea 3b 65 19 be 3c ef b3 7f 3d
       0.067361005 0.007158604 0.023205468 0.062427457
000060 ec 39 6c bc 8d 4d d7 3c 63 f9 85 3c 4f 92 e6 3b
       -0.0144181065 0.026282096 0.016354268 0.0070364843
000070 f7 1a b4 bc 47 d7 94 3b 37 fa bd 3c 69 d5 89 3c
       -0.021985514 0.0045422646 0.0231906 0.016825395
000080 f0 73 98 3d ac 23 aa 3c 80 6c 44 3d f1 0d f2 3d
       0.07443988 0.020768963 0.047955036 0.11819065
000090 b3 2a 4a 3c 63 3b d5 bc d3 ab 55 3c 1b de 23 3d
       0.012339282 -0.026029294 0.013041454 0.04000674
0000a0 87 b9 81 bb 42 bd 22 bc f0 f2 50 bc 4d 22 21 3d
       -0.003958884 -0.009932818 -0.012753233 0.039339352
0000b0 12 57 d3 bc 7b e9 58 3d de 49 67 3d 5c 9e 44 3d
       -0.025798354 0.05295704 0.05646693 0.048002586
0000c0 b9 6d a7 3c e7 56 98 bb ec 8e de 3c a1 3d 17 3d
       0.020438062 -0.0046490314 0.02716776 0.03692401
0000d0 38 a4 8a 3d fe 88 36 bd 64 b6 03 3c 47 c6 a4 3c
       0.067696035 -0.04456424 0.008039091 0.020114077
0000e0 ba 96 64 3c ca f4 ad 3c 43 9d 39 3d 3c 0e cf 3c
       0.013951952 0.021234889 0.045315992 0.025275342
0000f0 17 f1 c4 bc d9 76 43 bc 8d 78 1c 3d 4a 3d 3d 3d
       -0.024040742 -0.011930191 0.038200904 0.046201028
000100 b9 5f 49 3d 45 23 01 bc db 74 67 bb c0 51 d6 3d
       0.049163554 -0.007881944 -0.0035317454 0.10464811
000110 83 94 79 3c 82 dd 75 3d b4 3b f6 3c ad 5b d8 3c
       0.015233162 0.0600257 0.030057766 0.026410902
000120 26 13 15 3d 87 58 56 3d 6c 34 32 3d a3 89 5a 3c
       0.036395214 0.05233052 0.043507025 0.013338479
000130 37 7a b2 bb ce e3 8a 3d 5e a8 5d 3d 43 52 0c 3c
       -0.005446698 0.067817315 0.054115646 0.008564535
000140 09 e4 2f bb 98 f2 00 bd 01 24 e5 3c 9a 4c 99 3c
       -0.00268388 -0.031481355 0.02797127 0.018713284
000150 7a d4 0c 3d 13 2f bc bb 3a 31 40 bc c5 ac 3c bb
       0.03438232 -0.0057429164 -0.0117304865 -0.0028789502
000160 32 79 33 3d 58 d5 08 3c c8 f1 de bc c6 8d 06 bd
       0.043816753 0.008351646 -0.0272149 -0.03285005
000170 c3 da 16 bb 53 34 39 3d 87 fe 11 3d 0f 8c 0b 3d
       -0.0023018576 0.045215916 0.035643127 0.034069117
000180 4a c8 8c 3d 2b cd 86 3c 6d fa c1 3c e1 94 f5 3d
       0.068741396 0.016455254 0.023678983 0.11991287
000190 8c fe 14 3d 63 65 15 3d 36 b1 65 bc 0e fa c7 3c
       0.036375567 0.036473643 -0.014019301 0.024411228
0001a0 f5 e1 e8 3c d0 64 2e bc 16 5a 90 bd 0c f1 16 3d
       0.028428057 -0.010644153 -0.070484325 0.036850974
0001b0 c5 64 f4 bb 07 86 bc 3c 82 e5 01 3d 69 39 da 3c
       -0.0074583017 0.023013128 0.031713016 0.026638703
0001c0 21 ae b8 3c e0 4b b8 39 5c 64 de 3c 7d ef f5 3b
       0.022543969 0.00035151746 0.027147464 0.007505356
0001d0 84 c1 7e bc bb cf ca 3c 87 1c 91 bb de fc a3 3c
       -0.015549067 0.024757257 -0.0044284496 0.020018037
0001e0 28 06 77 bb 9f 43 57 3c 0e 35 ae 3c b5 7b 3f 3d
       -0.0037692878 0.013138681 0.021265533 0.046748836
0001f0 8d cc 5b bc 11 c9 51 3c 4f 86 33 3d 57 82 3d 3d
       -0.013415468 0.012804286 0.04382926 0.04626688
000200 84 18 8b 3d 4a ed 40 3d ae 66 d6 3c d6 55 7d 3d
       0.06791785 0.047101296 0.026172008 0.061849438
000210 76 96 36 3d 87 1c 11 3d b2 78 7f 3c 8d 9a 84 3b
       0.044577084 0.035427596 0.015592741 0.004046744
000220 76 58 17 3d 82 52 fb bc fa cb 62 3d eb 6f ff 3c
       0.036949597 -0.030678991 0.05537031 0.031181296
000230 1b 8f 83 3c 6f 63 89 3d ff e3 c9 3d a3 af 35 3c
       0.016059449 0.067084186 0.0985794 0.011089238
000240 92 a2 a3 bc 58 d9 69 3b 96 d9 14 3d 61 69 f3 3c
       -0.01997498 0.0035682525 0.03634032 0.029713335
000250 b7 8c 8d 3d 39 6b 1a bd a9 23 b5 3c f3 a8 29 3d
       0.06911605 -0.03769991 0.02211173 0.04142089
000260 68 0f b2 bc 03 93 68 3c b3 bc a2 3c 1a 33 ac 3c
       -0.021735862 0.014195207 0.01986537 0.02102046
000270 53 c7 81 3c c7 3b 0c 3d f3 f0 a9 bb 34 20 a0 3c
       0.015842116 0.034236696 -0.005186194 0.019546606
000280 2c e5 8c 3d c1 d7 09 3d 7e 35 47 bd 6f d1 df 3d
       0.068796486 0.033653025 -0.048635 0.10928618
000290 12 15 ee 3c 6c ed ab bb c3 c5 f0 3c 7c e0 77 3c
       0.029062781 -0.0052468088 0.029391175 0.015129205
0002a0 42 76 cb 3c ee a1 d3 3c 6a 9d 33 3d 4c 44 83 3d
       0.024836663 0.02583405 0.043851294 0.06409511
0002b0 98 cc 01 bd 90 24 b7 3d 2d 97 47 3d 2a 25 b5 bc
       -0.031689256 0.089425206 0.048728157 -0.022112448
0002c0 9a 0e ae bb a3 62 5f bc 8e e4 34 bb 4e 15 80 3d
       -0.0053117992 -0.013634357 -0.002760205 0.062540635
0002d0 1c 92 7d 3c 38 44 81 bb 75 03 cc 3c 2b 3b 08 3d
       0.01547673 -0.0039449 0.024903992 0.033259552
0002e0 e8 c8 10 3d 1b c8 13 bd cb 2e 31 3c 12 01 1b 3d
       0.03534785 -0.036079507 0.010814379 0.037842818
0002f0 02 ee 78 3c 51 3b 0b 3d 41 3d df 3c 08 c6 8e 3c
       0.015193464 0.033992115 0.027250888 0.017428413
000300 87 20 69 3d 30 9b 3c 3d 1b ef 1d 3d 74 ab 7a 3d
       0.056915786 0.046046436 0.038558107 0.061198667
000310 64 4b 41 3d 7d 61 07 3d b7 77 58 bb 71 5c 94 3c
       0.04719104 0.033051956 -0.003303034 0.018110486
000320 5d 06 c8 3b 50 70 38 3d 14 42 83 3c 65 99 e7 3d
       0.006104274 0.045028985 0.01602272 0.113085546
000330 13 52 0a 3d cc 0a a7 3b 17 86 03 3d 35 ea 19 3d
       0.03376968 0.0050977226 0.0321103 0.037576873
000340 91 9e bd 3b 7a 39 d8 bb fd a4 92 3c ec 8d 4e 3d
       0.005786725 -0.0065986486 0.017900938 0.050428316
000350 fe c9 3a 3d 93 a0 9a 3c d6 28 f7 3b 5f 55 2a 3d
       0.04560279 0.018875396 0.00754271 0.041585322
000360 f5 56 09 3d 70 70 5d 3c 57 cc b1 bc f0 45 42 3d
       0.033530194 0.013515577 -0.021703882 0.04742998
000370 5b 2e 09 bd 5a c7 b5 3c 51 e3 3e 3c 3e 25 14 3c
       -0.033491474 0.022189785 0.011650876 0.009042082
000380 f5 1a a5 3d 59 32 c4 3c 9f 9b 1d 3d 27 21 05 3e
       0.08061782 0.023949789 0.03847849 0.13000928
000390 f6 26 9f 3c f7 e6 f4 3c b2 13 2d bc 1f 6e a2 3b
       0.019427758 0.029895289 -0.010563778 0.004956975
0003a0 d5 71 1d 3c 07 f4 85 bb ff 90 00 bd 05 08 c9 3c
       0.009609659 -0.004087928 -0.03138828 0.024539957
0003b0 8f 06 8c 3c a3 00 fc 3c 61 66 ad 3c 56 eb ee 3c
       0.017092971 0.030762022 0.021166982 0.029164951
0003c0 e5 22 14 bc 84 fa c5 bc 14 47 4e 3c ab b7 25 3d
       -0.009041523 -0.024167307 0.0125901885 0.040458363
0003d0 b8 1f a1 3d 9d 0a ff 3c 41 cf f1 3c a7 fe e6 3c
       0.07867378 0.03113299 0.029517772 0.0281976
0003e0 b6 bd be 3d b9 cb 07 3c 12 ae 1f bc ba 9a ee 3c
       0.09313528 0.008288317 -0.009746091 0.029126514
0003f0 72 64 a1 3c cb 95 a2 3c e0 79 a3 3c 20 f6 ce 3c
       0.019701216 0.019846817 0.019955575 0.025263846

action_model._discrete_distribution.branches.3.bias f4 [13]
000000 a7 e8 7b bd 4d 9a cf 3d 6a 2d e8 3c 2d 72 dd bc
       -0.06150117 0.101368524 0.028341968 -0.027031982
000010 4c 96 dc bc b7 b9 2c bc e0 d9 2f bd 8a e3 0a bc
       -0.026927136 -0.010542325 -0.04293239 -0.008477101
000020 2d d0 f8 3d 65 7e 45 3c c9 68 81 3d a9 d5 81 bd
       0.121490814 0.012054061 0.06318814 -0.063395806
000030 f0 78 12 bd
       -0.035759866

action_model._discrete_distribution.branches.4.weight f4 [1, 32]
000000 be af 87 bc be f8 01 3d 95 d0 5c 3c fa bc 4d 3c
       -0.016563293 0.03173136 0.013477464 0.012557263
000010 ce ea 01 3d a0 cb 10 3c 6e a2 0e bc 5e 8e 20 3d
       0.031718068 0.0088376105 -0.008705718 0.039198272
000020 6d 6e fe 3c 38 22 9c bb 93 bb b8 bc 38 ee d0 bc
       0.031058514 -0.0047648214 -0.02255038 -0.025504217
000030 59 b1 15 bc 79 53 8e 3b bf 49 e1 bc ac 10 18 3c
       -0.009136521 0.004343447 -0.027500985 0.009281319
000040 06 13 88 ba 4a bc f4 3b 99 c6 a4 bb 38 24 e2 3c
       -0.0010381646 0.007468735 -0.0050285575 0.027605161
000050 03 54 a0 bc e5 98 4f 3b 9c 22 24 3c c1 13 a2 3c
       -0.01957131 0.0031676826 0.010018017 0.01978481
000060 55 0e a6 bc 2a d6 e1 3c 5f 51 f4 3c 9f 34 0d 3d
       -0.020270506 0.027567942 0.029823957 0.03447401
000070 c7 09 44 bc e0 6f 1c bc 7e e7 a8 3b bb 04 b3 bc
       -0.011965222 -0.009548157 0.005154549 -0.021852842

action_model._discrete_distribution.branches.5.weight f4 [4, 32]
000000 a2 33 55 3c ba 67 1e bc 56 ab c2 3c 96 ec c8 3c
       0.0130127985 -0.009668285 0.02376334 0.024526875
000010 5d bd 48 bb 00 bd 2f bc 40 80 04 bc 33 9b 90 3c
       -0.0030630447 -0.010726213 -0.008087218 0.01765213
000020 b5 90 df bb d8 8d 55 3c fa 04 67 3c 51 75 57 3d
       -0.0068226703 0.0130343065 0.014100308 0.052602116
000030 77 5e ad ba c2 3b 5d 3c b1 ce f5 3b 4b ba 23 3b
       -0.0013227005 0.013503017 0.007501446 0.0024982865
000040 1d 35 07 3c 6b f3 11 bd 22 8d c7 3a 52 d4 c8 3c
       0.008252409 -0.035632532 0.0015224556 0.024515305
000050 66 7c af 3c 14 4c b0 3a e8 29 d7 bc a0 8b 6f 3c
       0.021421622 0.0013450407 -0.0262651 0.014620692
000060 14 7e 09 3d dd 6d 65 bc fb 1d 8f 3b 26 5d a3 3c
       0.033567503 -0.014003244 0.0043675876 0.019941878
000070 6c c7 ba bc b9 59 e5 3c 6a 85 87 bc e9 95 06 3c
       -0.02280017 0.027996885 -0.016543109 0.008214452
000080 74 6d d7 bc d5 83 d5 bc 41 c9 ba 3b 3b fa ad 3c
       -0.026297309 -0.026063839 0.005700261 0.021237483
000090 6c a4 be 3c 30 76 4d 3c 7d ac 81 bc fd a9 e4 3a
       0.023271762 0.012540385 -0.01582932 0.001744568
0000a0 58 0b 3d 3d e4 c1 8e bc 5e 83 b0 3c 6c 63 40 3d
       0.046153396 -0.017426439 0.021547016 0.046969816
0000b0 d3 aa b1 3a 6b b9 05 bc 83 1b 1b 3c 29 3e dc bc
       0.0013554938 -0.008161883 0.0094670085 -0.026885109
0000c0 3e 3e b6 3c 44 2f 19 3c cc f7 a9 3c 39 e1 0a bb
       0.022246476 0.009349648 0.020748042 -0.0021191372
0000d0 8e 9c 3c bb aa 0c 23 bd ba ec ea 3b 2a 8c ca 3c
       -0.0028779837 -0.039807 0.0071693333 0.024725039
0000e0 74 e6 14 bc 47 6b d8 3c 66 ee 52 bd 44 f5 2c 3a
       -0.009088147 0.026418341 -0.051496886 0.0006597827
0000f0 76 59 bd 3b 00 12 64 3c cf 14 32 bc ca db 9f 3c
       0.005778487 0.013920307 -0.010869219 0.019513983
000100 55 7d 30 bc 27 5e 09 3c c7 09 b5 ba c3 97 22 3d
       -0.010772069 0.008384264 -0.0013812118 0.039695513
000110 e0 82 0c bd dd 14 fd 3b 5c 0f c0 3b b9 2f 91 b9
       -0.0343045 0.0077234344 0.005861206 -0.0002769211
000120 c9 98 35 3d 9f 03 1e 3c 74 0a e7 3b 6b ca 4b bd
       0.04433516 0.009644418 0.0070508067 -0.049753588
000130 f0 ad 6f bc dd 37 93 bc 7c a4 91 3c 4e 13 4f bc
       -0.014628872 -0.017970974 0.017778628 -0.01263888
000140 05 a4 21 bc 2a 7f da 3c 0d a1 ac 3c 7e f3 9d bc
       -0.009865765 0.026671965 0.021072889 -0.019281145
000150 c3 da 0c 3d 55 2a ec 3c 6e d6 ce 3c 62 24 3c 3c
       0.034388315 0.02882878 0.025248732 0.011483284
000160 ce 55 13 bc f9 9b c2 3b 03 de 87 3c 8b ec bd bc
       -0.008992625 0.0059390035 0.016585356 -0.023184082
000170 be 05 9b 3b 8e a2 2f bc 1f 8f b1 bc 13 38 eb bb
       0.004730909 -0.010719908 -0.02167469 -0.0071783154
000180 0a 11 f0 3c 1a 68 70 3d fb c4 95 3c 7d 56 a7 3d
       0.029305 0.05869303 0.018282404 0.08170793
000190 9a 55 7c 3b 0f a4 ae bc 2d 6f 82 3a 87 52 9c 3c
       0.003850317 -0.021318464 0.0009951346 0.01908232
0001a0 b4 be 9d bc 63 da 0f bc d9 32 b0 3b ae 83 b2 3c
       -0.019255973 -0.008780095 0.0053771553 0.021791305
0001b0 4a 97 49 bc de 76 21 bc e6 a4 ef 3c 72 0b 6a 3c
       -0.0123041365 -0.009855 0.029253434 0.014284955
0001c0 53 88 4c 3d 7f 3c 0c 3d b6 e1 1d 3d 2c d0 d5 3b
       0.049934696 0.03423738 0.038545333 0.00652506
0001d0 ee 91 0d 3d 81 e3 97 3c 2f d9 4e 3c 99 a9 a7 bc
       0.034562998 0.0185411 0.012625023 -0.020466613
0001e0 b7 bf a5 3c f2 71 f2 bc 05 9b 50 3d 2d f6 4b 3a
       0.020233018 -0.029595349 0.05092909 0.00077805185
0001f0 cc b8 12 3d 20 71 0d bc 66 02 96 38 41 93 fd bc
       0.035820767 -0.008632928 7.153004e-05 -0.030954005

action_model._discrete_distribution.branches.5.bias f4 [4]
000000 47 4c c1 3b 29 56 16 3c 67 38 2e ba 7e 9f a5 3a
       0.0058989855 0.009175816 -0.0006645978 0.0012636033

action_model._discrete_distribution.branches.6.weight f4 [4, 32]
000000 8a dc ed bc 31 9f 1f bc 70 f0 3c bc 94 6f 7f 3c
       -0.029035825 -0.009742544 -0.011531934 0.015590567
000010 86 4a 37 bc 29 6b 4f 3d 8d 41 c2 3b d1 16 48 bb
       -0.011187201 0.050639305 0.0059282244 -0.0030531178
000020 20 fe de bc c4 79 3d bc 26 17 87 3d c2 91 2b 3d
       -0.027220786 -0.011564676 0.06596212 0.041887052
000030 ff ca 08 3b c6 13 a3 bc 37 3d 21 3c e0 ff 37 bb
       0.0020872948 -0.01990689 0.009841255 -0.0028076097
000040 c3 66 d8 3c 6d d3 f6 3c 96 1a f2 3c 2c c6 61 bb
       0.026416188 0.030130113 0.029553693 -0.0034450395
000050 dc 8c 37 bd 65 f9 00 bc 51 6d d8 bc 68 72 61 bc
       -0.04481207 -0.00787196 -0.026419314 -0.013760187
000060 3e 96 a0 3d a7 83 5d bc e8 ad 46 bd ec 80 a0 bc
       0.078411564 -0.013520158 -0.048505694 -0.019592725
000070 eb 10 2f 3c 1e 75 f2 bb eb fb 02 3d e5 0b f0 bc
       0.010685186 -0.0073992154 0.03197853 -0.029302547
000080 a8 84 c6 3c bd 9b 16 3d 01 47 cc 3b 96 bb b9 3c
       0.024233177 0.036769617 0.0062340503 0.022672456
000090 7c 9d 61 bc f5 80 9b bc 1b 63 49 bb ce 8f 9f bc
       -0.013770457 -0.01898239 -0.0030729237 -0.019477751
0000a0 66 eb 1c 3d 57 84 9b 3c 77 27 37 3c 05 2c dc bc
       0.03831043 0.018984003 0.011178843 -0.026876459
0000b0 b4 9a a2 bc 68 b0 02 3d d1 6d ef ba 04 10 5c 3a
       -0.019849159 0.031906515 -0.0018266981 0.00083947205
0000c0 df c5 89 bc 68 54 24 bc 26 7c ac 3c 7d 2d be 3a
       -0.016817985 -0.01002989 0.021055292 0.0014509406
0000d0 f5 df 1a 3d 09 dd 0b 3d eb 55 41 3c c2 36 18 bd
       0.03781124 0.034146342 0.01180027 -0.037161596
0000e0 f7 6b 44 bd 83 64 01 3d 86 62 a7 3c 61 36 bb 3c
       -0.047954526 0.031589996 0.020432722 0.022853078
0000f0 3f 25 9c 3c 69 f3 fe 3c 3e ec 00 3c 1a 2e 0f bd
       0.01906073 0.031121926 0.0078688245 -0.034956075
000100 ef 4f a3 3c 13 ec 53 3b d6 5b cd 3c 3a 08 e8 bc
       0.019935576 0.0032336756 0.025068205 -0.028324235
000110 7c 9a 48 3d ad ff 4d bd 5e 5c 80 bc 26 88 14 bb
       0.048975453 -0.05029266 -0.015669044 -0.0022664159
000120 41 78 ab 3c ca d8 29 3d 66 d5 7c bd 46 8b d2 3c
       0.020931365 0.04146651 -0.06172695 0.025701176
000130 3d 69 5a bc 54 10 8d b8 fd 82 97 bb 7a cd ab 3c
       -0.013330755 -6.726445e-05 -0.0046237693 0.020972002
000140 5a c7 06 bb bb df 95 3b 2e d7 d1 3c f3 7c 50 bc
       -0.00205656 0.00457379 0.025615301 -0.012725103
000150 5e a8 9d ba e7 76 46 bc 13 d5 75 3a 71 ee 9f 3b
       -0.0012028327 -0.012113309 0.0009377759 0.0048807194
000160 65 dd 04 bc 5e fd c2 bc a9 c9 63 bc 0b 9b e5 bb
       -0.008109425 -0.023802456 -0.01390306 -0.007007008
000170 e7 fa 85 bc 3c b1 c7 3c 12 1e 62 bc 15 ee 83 3c
       -0.016354991 0.024376504 -0.013801115 0.016104737
000180 e2 c0 83 bb 8a 11 ef b9 d5 9d fd bb be f7 19 3c
       -0.004020796 -0.000455987 -0.0077397623 0.009397445
000190 9d eb 91 bc 34 78 88 bb d6 f2 a9 bc 2c 7c 97 bb
       -0.017812544 -0.00416472 -0.020745676 -0.0046229567
0001a0 ce 58 e9 bc 45 f1 ae 3c 1b b9 ca bb e8 b2 12 3b
       -0.028484728 0.02135528 -0.006186617 0.0022384468
0001b0 d2 b2 af b7 19 fa 46 bd 78 70 83 bb e8 06 39 3c
       -2.0944895e-05 -0.048578355 -0.00401121 0.0112931505
0001c0 40 12 1f bc 87 53 1e bc 80 b1 91 bd f3 b5 e7 3c
       -0.009708941 -0.009663469 -0.071139336 0.028285002
0001d0 56 c4 3e bc e8 a2 46 ba 24 64 3d 3d fc 12 0b bb
       -0.01164349 -0.00075773755 0.04623808 -0.0021221032
0001e0 13 4b e2 bc 60 46 66 bc a9 87 6f 3b ba 15 64 3b
       -0.027623689 -0.014054865 0.0036549366 0.003480299
0001f0 e0 34 94 3c ce e9 0f 3b 20 69 d0 bc 03 da 0c 3c
       0.018091619 0.0021959427 -0.025440753 0.0085969

action_model._discrete_distribution.branches.6.bias f4 [4]
000000 15 1c 36 3d 92 99 20 bb e1 ea f6 bb 80 39 21 bd
       0.044460375 -0.0024505598 -0.007535324 -0.039361477
