Assets/ML-Agents/Models/BattleSystem_poca 2.onnx (onnx, 24006 bytes, 16 tensors)

discrete_act_size_vector f4 [1, 6]
00000000: 0000 a040 0000 0040 0000 0040 0000 4040
00000010: 0000 803f 0000 8040
5.0 2.0 2.0 3.0 1.0 4.0

network_body._body_endoder.seq_layers.0.weight f4 [32, 9]
00000000: 6882 223c 1566 11bf b72a b3be aede 75bf
00000010: 191c 733e 9b42 5abf ea8b 2b3e e709 bc3e
00000020: 8461 b03e c38d 87be 7249 6ebe e14a 3abc
00000030: 3361 953e 854a e0bc 94d9 97bd 7c33 3e3e
00000040: 4c60 393f 8138 83be 9967 dcbe d6d3 8fbe
00000050: 549b ee3d 8de0 00be f24e 2abf 982f fbbe
00000060: e764 563c 2925 b1bc 5d2f b93b 2de4 773e
00000070: d688 3d3f d104 233f cc98 c53e 14bb 823e
00000080: ab99 ae3e 8660 143d da55 b9be 5891 13bd
00000090: ad80 56bf 993f 733e 0ad1 6c3d f53a a5be
000000a0: c620 56be a4b4 7bbe d37b abbe ba3f f6be
000000b0: 913a c33d d7b0 bbbe 1841 24bf 92a6 f4be
000000c0: b5a0 f03d 1af1 b03e 37ff c0bd 7101 34bf
000000d0: 072b 0fbd c5d2 e4be 5f9e 7fbd 5cff b4be
000000e0: cfa0 1abe 67b4 c73e a674 3fbe 6e84 b8be
000000f0: ead6 0fbe 909e 32be fa8f 113e ef42 de3e
00000100: af8b 913d 6f81 573e e60f 38bd 4de9 7b3c
00000110: 3ba0 8dbe 7a9d 22bc d2e2 86be 853a a7be
00000120: ec2f e3be d281 f4be 5cbf aebd c8b8 c8be
00000130: 78b8 05be 6e34 2f3e ee41 a13d 2878 c63e
00000140: 2e4f ddbe 7b99 c4bd 2dfc 03bf 1184 223e
00000150: c3c8 67be 1866 e53e 9955 973d 041b 283e
00000160: bb6d bd3e 3a21 a43e 7067 793e 78f6 3f3f
00000170: 3f5c babc 76e6 2f3e 78d8 e1be ba9d 06be
00000180: 72b1 5e3c bc7a 2f3e 35a0 57be f27f cabe
00000190: fc58 09bf 82cb bdbe fa9a cebe 17e3 adbe
000001a0: ff9a b93d bfed e0bd f90e 5a3f 5063 93be
000001b0: 1490 a83e 7a15 82be 99c0 60be 1b5f d4bc
000001c0: 17b8 063f db59 dabe 795f 043f 3913 46bd
000001d0: e40c 07bb eb91 973e a26a 0e3f 81e8 8ebe
000001e0: 8f56 39be 7018 313e e1ea f9be aeea 10bf
000001f0: acf6 893d c61d 903e cb72 df3d aa86 b43e
00000200: 7d68 00be 77c4 05bf e2ca 513e 2e87 4dbf
00000210: 6abc ae3e 2452 0cbe 3c38 54be e59a 013e
00000220: 1056 ddbe 6c62 e1be 87e8 e7be 6d72 a8bd
00000230: e4a9 2c3e 1e32 f9bd 5d2a 83be 4a32 38bf
00000240: 59e9 f6bb 5eab 5ebe 3390 23be 062e 8cbd
00000250: 8aed 2a3e 4693 03be aefc 723e bfe5 603e
00000260: 6c0e 06bf 1a06 92be 728d 00bc e163 7c3d
00000270: 2ddf 10bf bcf5 323f 3673 02bf cf4f 3c3e
00000280: 5117 90be e67e 3ebe 05cf 393f bcb9 003e
00000290: 2bf2 483f cd24 c6bc 70ab 673e 8c6b 7a3e
000002a0: a9d0 a3be 7a2e 1c3e 8ae6 ae3e 1472 93be
000002b0: 36d5 01bf 95c8 4e3e d212 01bf 088a 08bd
000002c0: 7279 cfbd 9bbe f33e 0d06 21bd 1699 943d
000002d0: 6ef8 dd3e 832e 68bd b9cc 1fbf af06 483e
000002e0: 3049 203d 09ee b4be 2677 8ebe 6c78 d6be
000002f0: a756 e33d 07c1 a03e 5523 cdbb 7dcd 0cbd
00000300: 6a59 313e 31f1 96be 2236 f43e bbb0 88be
00000310: 42a6 a93d 9174 283e bdc6 8c3d 5bb5 bc3e
00000320: e661 ee3e 986e 343e 4cc7 703e b966 cd3e
00000330: 5c81 e6be b3eb 0b3f dd5e c0be 5fc4 223d
00000340: c010 3a3f 1477 dd3e 85e9 ea3d 543a 25bb
00000350: 4d88 98be 2f60 34bd ab7d 363e 21a5 fcbe
00000360: f553 f93e 1477 9e3d c0cc c13e fbba 64bd
00000370: 61bf 16be af8d d73e d81f 933e 59fd 6fbe
00000380: 11b8 1cbf af8b df3d c2a3 ac3e 1c6c 9b3d
00000390: bd78 c53d 7685 9ebd 5f58 e0be 6085 6e3e
000003a0: 151d 833c 721a 703e 27fe e9bd b807 f63d
000003b0: f217 dbbe a525 93be b7c9 263a b372 20bf
000003c0: 8ceb 2fbe 195d aabd 5eeb 4d3e f49d 7bbe
000003d0: b6f3 523e 64e4 aabe 3fb4 a23e 1813 4a3f
000003e0: 363b ea3e 0b0e cf3e 59f3 a83e f27e 3cbd
000003f0: f326 a23e a954 eabe d73c cd3d 4d94 93be
0.009918787 -0.5679639 -0.34993526 -0.9604291 0.23741187 -0.8525788 0.16752592 0.36726305
0.344494 -0.26475343 -0.23270205 -0.011370392 0.2917572 -0.027379284 -0.074145466 0.18574327
0.7241256 -0.25629047 -0.4304779 -0.28091305 0.1165072 -0.1258566 -0.6652671 -0.4905975
0.01308558 -0.021624165 0.005651398 0.24208136 0.7403692 0.63679224 0.38593137 0.25533354
0.34101614 0.036224864 -0.36198312 -0.036027282 -0.83790094 0.2375473 0.057816543 -0.32271543
-0.2091094 -0.24580628 -0.33492908 -0.48095495 0.09532655 -0.36658356 -0.64161825 -0.47783333
0.117494024 0.34558946 -0.09423678 -0.703147 -0.034953143 -0.44692054 -0.062406894 -0.35351074
-0.15100406 0.39004824 -0.18696842 -0.36038536 -0.14046827 -0.174433 0.14215079 0.4341044
0.07106721 0.21045469 -0.044937037 0.015375447 -0.2766131 -0.009925241 -0.26344925 -0.32661834
-0.443725 -0.47755295 -0.08532593 -0.39203477 -0.1305865 0.17109844 0.07873903 0.38763547
-0.43224472 -0.095995866 -0.51556665 0.15870692 -0.22635178 0.44804454 0.07389373 0.16416556
0.3699778 0.320566 0.24355865 0.74985456 -0.022749064 0.17177758 -0.44110465 -0.13146105
0.013592111 0.17136663 -0.21057208 -0.3955074 -0.53651404 -0.37069327 -0.40352613 -0.33962318
0.09062766 -0.109828465 0.85179096 -0.28786707 0.32922423 -0.2540701 -0.2194847 -0.025924256
0.5262465 -0.4264668 0.5170818 -0.048358176 -0.0020607049 0.29603514 0.5563146 -0.2791176
-0.18099426 0.17294478 -0.4881201 -0.5660809 0.06736502 0.28147715 0.10910567 0.3525899
-0.12539859 -0.52252907 0.2048755 -0.8028439 0.34128124 -0.13703209 -0.20724577 0.12656744
-0.43229723 -0.44020402 -0.45294592 -0.0822495 0.16861683 -0.12167762 -0.25618258 -0.71951735
-0.0075351414 -0.21745059 -0.15972976 -0.06844716 0.16692176 -0.12849149 0.23729202 0.21962641
-0.52365756 -0.2852028 -0.007846223 0.06161869 -0.5659054 0.6990621 -0.5095705 0.1838982
-0.2814279 -0.18603095 0.7258151 0.12570852 0.7849452 -0.02418747 0.22623992 0.24455088
-0.31995133 0.15252104 0.34160262 -0.28797972 -0.5071596 0.20193703 -0.5041934 -0.03333476
-0.10130586 0.47606358 -0.03931241 0.07255761 0.433536 -0.056684982 -0.62421757 0.195338
0.039132297 -0.35337856 -0.27825278 -0.4188875 0.11100512 0.31397268 -0.0062603154 -0.034375656
0.17319265 -0.2948089 0.4769755 -0.26697335 0.08283664 0.16450717 0.06873844 0.36857113
0.46559066 0.17620313 0.23513526 0.40117434 -0.45020568 0.54656523 -0.37572375 0.039738055
0.7268181 0.43254912 0.114703216 -0.0025211768 -0.2979149 -0.04403704 0.17821376 -0.49344733
0.48696867 0.07737556 0.37851524 -0.05584238 -0.14721443 0.42100284 0.28735232 -0.23436488
-0.61218363 0.109153144 0.33718687 0.075889796 0.096421696 -0.077402994 -0.43817422 0.23293066
0.016005078 0.23447588 -0.11425429 0.12013191 -0.42791706 -0.28739658 0.00063624553 -0.6267502
-0.17179698 -0.08318538 0.20109317 -0.24571973 0.20600781 -0.33377373 0.31778142 0.78935385
0.457483 0.404404 0.3299816 -0.046019502 0.3167034 -0.45767716 0.1002137 -0.28824082

network_body._body_endoder.seq_layers.0.bias f4 [32]
00000000: f927 0abc c9af 323c ca77 41be 10d3 de3d
00000010: 9070 27be 9930 fa3c b2d5 12be 3089 7d3a
00000020: e814 e7ba 4dba edbd 9341 883b 1edb 1dbd
00000030: 4bf4 c0bb f8da 0fbd a7b5 1bbd 07be 61bd
00000040: 5dca 1c3d a9bc aebd 5133 1a3e 7f30 b93d
00000050: a2fc 40bd 1e38 233c 79d0 493d e837 793d
00000060: 5a1c 183d 64e8 58bd f7fe 4cbe faa7 0f3e
00000070: 7f8f cf3b bdf0 59bc 840e cebc 5660 b73c
-0.008432382 0.010906168 -0.18893352 0.10880101 -0.16351533 0.030540751 -0.14339331 0.00096716266
-0.0017630132 -0.116078 0.0041582077 -0.038539045 -0.005888497 -0.035120934 -0.038015034 -0.055112865
0.038278926 -0.08532078 0.15058638 0.09042453 -0.04711593 0.00996211 0.04927108 0.060844332
0.037136413 -0.052956 -0.20019136 0.14028922 0.0063342447 -0.013302025 -0.025153406 0.022384804

network_body._body_endoder.seq_layers.2.weight f4 [32, 32]
00000000: 136f 2d3e 1e85 3b3e ce2e b7bd d457 873e
00000010: 1484 c03c f1d4 f93a 08bc 733e 1c77 bdbc
00000020: 3511 6cbe 3db9 a73c 4f14 a73d 39ed 0dbe
00000030: a574 8d3e 8b0f bebe 2b49 de3d ee95 823e
00000040: c0a9 71be 50d4 26be d4a5 583e 4296 553d
00000050: 8c8d 58be b817 88be e84f 993e b0a7 6b3e
00000060: 0adb b33d de5f 6dbe 464f 913c ee6e a63e
00000070: 01c7 8cbe 28ab 48be 79bd 54be e9ff d03d
00000080: 4d78 0c3e 9adb 0a3e faca 2a3d 8f61 c0bd
00000090: de01 0e3d b726 0abe 03b0 9cbc c9a2 62bd
000000a0: 55a8 7a3d aff5 a03d 1ede 09bd 13f1 3bbe
000000b0: faf0 0cbe 41fc 89be 85e8 6d3d d350 25bd
000000c0: 8031 973d 6734 4a3e e4c9 20be f277 66be
000000d0: af53 3d3d d0cd 3f3d e6c8 f3bd b9a1 96bb
000000e0: c069 813d 6d16 393e 5055 503d 0902 d1bd
000000f0: 1c25 423d 6f4f 063e 5a08 fbbc d014 45bc
00000100: 5c58 e03b 1806 d93d b27c 08be a438 723d
00000110: a700 09be 95f4 86be c7b7 1bbe 9459 c23e
00000120: cd73 593e 2a1a 893e d4c5 143f 820e be3a
00000130: 94cd 08be c20c 343d 78f6 5d3d 5c64 22be
00000140: c3e2 783e 4ee6 993e d383 cebd dbd1 683e
00000150: 6211 33be 23a8 793d b39c 71bd 05e1 863e
00000160: a0ee 843d 6a5d babd c265 1e3c b499 83bd
00000170: 577b e13c a41e e2bd 286b 9e3e 041a 3cbe
00000180: 114e 02be c2f8 b3bd b258 b93e 8ac0 5c3e
00000190: d826 b9bc dcea b93d 76bd a03c fbd3 7c3e
000001a0: 6e95 5bbc 3392 92bd 7683 82be 80ea 5ebe
000001b0: 4688 1abd 1f7c dfbd 47cf 913d fcda 4dbe
000001c0: dc14 803d 3a1b 6a3d 6eba 5b3d 1374 603e
000001d0: e501 993d b47b 4abe 05c2 043e da08 f13e
000001e0: a702 003d e9d4 bd3d 73d6 2e3e 4894 b33d
000001f0: db55 a13c b654 5ebe 7286 923e cc5c 3c3e
00000200: 7b3a abbd cbc2 723d 267c 34be 958d 9fbe
00000210: 31ce b63d a750 90bd 61df 77bd 67a7 abbe
00000220: b3dc 56bb 1c04 b53d c8f9 2a3d dcc0 b23e
00000230: 6c00 be3d 7a54 dbbe fed8 cf3e 8700 93bd
00000240: 5bbc 48bd a2fe 3d3d 9cae 53bc 72ac 27be
00000250: 7753 013f f6b7 af3d acb4 9ebe 32e3 99be
00000260: cfea 233d 04a1 8a3d f300 3f3e 1f8a d93d
00000270: 3625 0fbd 06a1 3fbd 4005 273d d137 183e
00000280: 2974 c7be e8f4 11be fb34 863e 6cc8 b83d
00000290: 842c 22be 5f57 d2bc 4c9d 423d 0b60 283e
000002a0: 60c0 a23e 4eac a53e 6241 a53e 43fa ca3d
000002b0: 8d76 6b3e 8d71 22be ae75 30be aef8 1e3e
000002c0: 3fe4 c3bc 6ebb f3bc d19f b93e ae0f 083e
000002d0: 0934 febd 1da5 e2bd b05e 61be a6d8 1abe
000002e0: 990a 643d 3818 25be 622c 7b3e 9fcd f63d
000002f0: 4f74 883d be31 35bd 611a 9f3e 8aa5 50be
00000300: 8f89 18bd 5a38 913d 85f6 62be c36c edbc
00000310: e838 dbbc 1137 3abd 2409 6fbd 6097 d43e
00000320: 64da 9dbd 76af 7bbe 9787 6cbc 1f68 71be
00000330: a07a 0abf 861b 12be 5d61 4ebe 38da 353c
00000340: 2e56 a6bc 4f1e fbbc 82dd a1be f0e7 27be
00000350: ce51 68bc 3aeb 37bd a9db 11be 550e f33c
00000360: 6b79 d73d d07b 783d adc0 513d 1646 e1be
00000370: e957 0ebe 4ebb 8abd 0cd6 1bbe 4054 f83d
00000380: 868d eabd 8d85 14be 8502 533c 69b4 7ebe
00000390: c0ec c63e b1c6 36be 7902 dc3d d4a5 033f
000003a0: 544f 91bd 2afb 4abe d2a2 19be 1785 cbbd
000003b0: 5bd6 bc3e 90e9 9bbe 402a 023e 6efb 20bc
000003c0: 5496 5ebe 550a 4a3e fe1e 863d aeae a03d
000003d0: ea3d febd 5b17 4cbe a8d7 53bd b9a3 343e
000003e0: 0906 ccbe 117b 133e 81fb 063c c83e 843d
000003f0: 2a17 eabc 0a4d 4bbe abf2 b83e a4ac c8be
0.16936903 0.18312499 -0.08944474 0.26434195 0.02350048 0.0019060654 0.23802197 -0.023128085
-0.23053439 0.02047407 0.081581704 -0.13860025 0.27628055 -0.37121233 0.108537994 0.25505012
-0.2359991 -0.16291928 0.21157008 0.05214525 -0.21147746 -0.26580596 0.29943776 0.23013186
0.08782013 -0.23181102 0.017737996 0.32506508 -0.27495578 -0.19596541 -0.20775403 0.10205061
0.13717766 0.13560334 0.04169748 -0.09393608 0.03466975 -0.13491331 -0.019126898 -0.055331025
0.06119569 0.078593604 -0.033659093 -0.18353681 -0.137638 -0.26950267 0.058083076 -0.040360283
0.07382488 0.19746552 -0.15702015 -0.22506693 0.046222385 0.046827137 -0.11903553 -0.0045969156
0.06318998 0.18074961 0.05086261 -0.10205466 0.04739867 0.13116239 -0.03064363 -0.012028888
0.0068464708 0.105968654 -0.13328817 0.059136048 -0.13379155 -0.26358476 -0.15206824 0.37958968
0.2123558 0.26777774 0.5811436 0.0014500173 -0.13359672 0.04395748 0.05419013 -0.15858597
0.24305253 0.3005852 -0.10083737 0.22736304 -0.174871 0.060951363 -0.05898733 0.2634355
0.064908266 -0.090998486 0.009667816 -0.06425801 0.027524633 -0.110410005 0.3094113 -0.18369299
-0.12725092 -0.08787681 0.36200482 0.21557823 -0.02260153 0.09077999 0.019621592 0.24690239
-0.013402326 -0.071567915 -0.25490922 -0.21769142 -0.037727617 -0.10912346 0.07119613 -0.20103067
0.062539786 0.05715487 0.05364459 0.21919279 0.074710645 -0.19773751 0.12964638 0.47077066
0.03125253 0.09269125 0.17073993 0.08768517 0.01969426 -0.21712002 0.286182 0.18394774
-0.08360764 0.0592678 -0.17625484 -0.31162706 0.08926047 -0.07046633 -0.060515765 -0.33526155
-0.0032785356 0.088386744 0.041742116 0.34912765 0.09277424 -0.42837888 0.4059524 -0.07177835
-0.049007755 0.046385415 -0.012920048 -0.16374376 0.5051798 0.0858001 -0.30997217 -0.3005615
0.040018853 0.067689925 0.18652706 0.10622048 -0.034947596 -0.046784423 0.04077649 0.14865042
-0.3895581 -0.1425358 0.26212296 0.090226024 -0.15837294 -0.025676427 0.04751329 0.16442887
0.31787395 0.3235802 0.32276446 0.09911015 0.22994442 -0.15863629 -0.17232391 0.15524551
-0.023912547 -0.02975246 0.36254743 0.13287231 -0.12412269 -0.11066649 -0.22008777 -0.15121707
0.05567417 -0.1612252 0.2452865 0.12050938 0.06662809 -0.04423689 0.31074813 -0.20375648
-0.03724056 0.07090826 -0.22164352 -0.028982526 -0.026760533 -0.04546267 -0.058358327 0.4152174
-0.0770767 -0.24578652 -0.014436624 -0.23574875 -0.5409336 -0.14268312 -0.20154329 0.011099391
-0.020304766 -0.0306541 -0.3161431 -0.16397071 -0.01417966 -0.044902064 -0.1424395 0.02966992
0.105212055 0.06066495 0.05120914 -0.43998784 -0.13900723 -0.06774007 -0.15218371 0.121254444
-0.11452775 -0.1450407 0.012879019 -0.24873509 0.388525 -0.17849232 0.10742659 0.5142491
-0.07095209 -0.19822374 -0.15003517 -0.09937494 0.3688229 -0.30451632 0.1271143 -0.0098255705
-0.21737033 0.19730504 0.0654888 0.078458175 -0.12414153 -0.19930784 -0.051719338 0.1764058
-0.39848354 0.14402415 0.008238674 0.06457287 -0.028575499 -0.19853607 0.3612264 -0.39194214

network_body._body_endoder.seq_layers.2.bias f4 [32]
00000000: ab8d 283d ab35 00be 8ed0 18bd b85f aa3c
00000010: 36d0 dfbc fc37 8b3b 83d4 f9bc 358f d3bd
00000020: 66d3 fa3d fc94 78bd ef4a 173c d641 d53c
00000030: b876 babd ee42 38be 3419 fdb9 f3a8 09be
00000040: d6e8 193d 10b7 3abc f5d4 27be 34aa d83d
00000050: f8dc fc3d 7fce 20bd 5a6c 35bd 7f75 69be
00000060: 5808 31bd bdd0 8ebd d63e 42bd 2654 ad3c
00000070: 5722 d83d 5cb5 28be 669f 103e 2a30 89bd
0.04115073 -0.12520473 -0.03730827 0.020797595 -0.027320962 0.004248617 -0.030496841 -0.10330049
0.12247352 -0.060688958 0.009234174 0.02603237 -0.09104675 -0.17994282 -0.00048274698 -0.13443355
0.037575565 -0.011396185 -0.1638983 0.10579339 0.12346834 -0.03925943 -0.044292785 -0.22798727
-0.043220848 -0.069734074 -0.047423206 0.02115829 0.10553425 -0.16475433 0.14123306 -0.0669864

action_model._discrete_distribution.branches.0.weight f4 [5, 32]
00000000: 8fa0 53bc 7bc5 c73c fc09 5b3d 78ea 383d
00000010: 5f25 fcbb a666 b73b 83e1 d63d 2652 133c
00000020: 2718 debb 3c72 c83d b978 e43d 6ac1 163d
00000030: e5b5 243d 4820 8c3b 8cf7 933d 369f c43c
00000040: 76b0 9ebb ffef 8e3d 76e3 f0bb 289c afbd
00000050: 5a0b 563a 294e 873d 44e1 103d 1356 c43b
00000060: 7839 b63d 6000 fc39 399b 123c b492 b03c
00000070: 3309 cabc f4f3 15bb 3cd4 7ebd e758 c53d
00000080: c0c9 93bd 7282 dabb 8c2d 493d 0e70 35ba
00000090: 4df4 23bc e7c9 0b3d 3004 1e3e f0cf 7b3d
000000a0: 8596 0c3c d122 c03d 1724 543d 414e 4a3d
000000b0: b502 a13d 629c 6d3d 9e64 adbd b12f 7638
000000c0: c4d7 293c c580 45bd c81b 42bc b4c7 23bd
000000d0: c45b 733d fa5a 003e a239 cd3d 6d86 763d
000000e0: 0123 943d 5da2 a93d 3cc1 ea3d ef2b 9c3c
000000f0: 8985 a03c 01c8 a2bc 22bd 29bd 7847 983d
00000100: bc56 2ebd cd41 b83c 9a81 333d cd15 6bbc
00000110: c5d1 e43c a4b3 00bd b2eb 813d 98bf 833d
00000120: ad6d fdbb b549 ae3d 42f3 7f3d 1e03 bc3d
00000130: 17b0 9a3d 7b6c b43d f955 cebb 9b9b fe3b
00000140: ec72 253d 4e4c 6dbd 58b4 ac3c c7b8 223c
00000150: 16cc c93c f109 f93c 46e2 993d ca35 203d
00000160: 2b47 8f3d f851 5e3d 4002 ba3d ae79 54bc
00000170: 2216 e1bb caa9 e4bc e487 b0bd 41b8 8a3d
00000180: 9225 693d d952 3dbc 7ea1 333d 38c7 0d3e
00000190: de7f 963c bae0 b83c 1681 51bb 9384 5cbc
000001a0: 3808 15bb 8986 993d 73bc d03d 6baa 3e3d
000001b0: 3367 29bc 3ff8 11bb 8634 e03d a962 203c
000001c0: b0e8 773d ea40 e53d 9b10 08bc 5dec b8bc
000001d0: 3518 4bbd c0c4 efbc fc3f 793d 80fd e3bb
000001e0: aa21 753d c8c7 253d 3f4b 6a3d 483c fb3c
000001f0: c60b 28bc ac86 093d 79ce e2bc d221 323c
00000200: ee8c 913a 7f1b 87bb 6875 09be 0772 4abe
00000210: e677 423b a348 d5bc 5cfd 42be b1e7 d8bd
00000220: a823 ce3c 311b 7cbe 9825 85be 5b02 1fbe
00000230: 028d 1cbe 4cde acbd 7323 fdbd cf1d 843a
00000240: 187b b3bd 8777 d9bd 6d3f 48bc b90a d23d
00000250: 5979 97bc a46f 1abe 2914 48be cee5 87bd
00000260: 024e 66be 1b57 19be e665 6dbe a6ce b23c
00000270: a20c a43c 86c7 dd3a 15da 063e 5e81 35be
-0.012916698 0.024386158 0.05347632 0.04514548 -0.0076948847 0.0055969534 0.10492232 0.008991754
-0.0067777815 0.097874135 0.111558385 0.036805548 0.04021253 0.004276309 0.0722495 0.024001699
-0.004842813 0.06979369 -0.007351334 -0.08574706 0.00081651437 0.06606705 0.03537108 0.005991706
0.0889768 0.00048065465 0.008948141 0.021554329 -0.02466259 -0.0022881003 -0.06221412 0.096360974
-0.07216215 -0.0066683823 0.049115703 -0.00069212995 -0.010006976 0.034128096 0.15431285 0.0614776
0.0085808085 0.09381641 0.05179223 0.049391035 0.078618445 0.058010466 -0.08466457 5.8695387e-05
0.010366384 -0.048218507 -0.011847444 -0.039985374 0.059413686 0.12534705 0.10020758 0.060186792
0.07233239 0.082829215 0.11462638 0.019063918 0.019594925 -0.01987076 -0.041440137 0.074355066
-0.042563185 0.022492314 0.04382477 -0.014348459 0.027932057 -0.03142132 0.063437834 0.06433028
-0.0077340216 0.08510152 0.062487848 0.09180282 0.07553118 0.088097535 -0.00629687 0.0077700145
0.0403928 -0.057934098 0.021082088 0.00993175 0.024633449 0.030400248 0.07513861 0.039113797
0.06995996 0.05427739 0.090824604 -0.012968464 -0.0068690935 -0.027912993 -0.08619669 0.06773425
0.056920595 -0.011555397 0.043855183 0.13845527 0.018371519 0.022568095 -0.003196781 -0.0134593425
-0.0022740494 0.07496364 0.10192194 0.046549242 -0.010339546 -0.002227321 0.10947518 0.009789147
0.060524642 0.11194022 -0.00830474 -0.022573644 -0.049583632 -0.029268622 0.060852036 -0.00695771
0.059846558 0.04047373 0.057200667 0.030668393 -0.010256713 0.0335757 -0.027686344 0.010872321
0.0011104622 -0.004123151 -0.13423693 -0.1977006 0.0029673516 -0.026035612 -0.19041961 -0.10591067
0.025163487 -0.24619748 -0.26005244 -0.15528242 -0.15288165 -0.08440837 -0.12360277 0.0010079684
-0.08763713 -0.10618501 -0.012222153 0.102559514 -0.01849048 -0.1508165 -0.1953894 -0.06635629
-0.22490695 -0.14974634 -0.23183402 0.021827053 0.020025555 0.0016920425 0.13169129 -0.17725131

action_model._discrete_distribution.branches.0.bias f4 [5]
00000000: 2c80 9fbc a662 8cbd 2e9e 83bd 2563 9fbd
00000010: d350 553e
-0.019470297 -0.06854753 -0.06426655 -0.07782582 0.20831613

action_model._discrete_distribution.branches.1.weight f4 [2, 32]
00000000: c6dd 0e3d 8ae2 7c3a ebcc a2bc c8e1 593d
00000010: 5002 e0ba 0e2f 1bbc d5fa 08bd a017 dd3c
00000020: 770d 01bb af21 a9bc 3126 873c ae19 3ebc
00000030: 82a2 e83c 377d 09bd cfe7 8c3d d444 9139
00000040: ffae 5e3d 81d4 26bd b5e2 5f3b 64e5 d83c
00000050: a8ea c9bb 9921 dd3b b9ac bb3c 50ca 6b3c
00000060: f016 163d 6189 e63c a61b 1bbd c36a c93c
00000070: a802 81bb aceb 223c e23f f93c 8adc 62bd
00000080: de7a b9ba 7df9 1cbc e28d 273d 67dc 85bd
00000090: cd22 073b 76ee b03b fe44 413c ccee 62bd
000000a0: 164e d03a 725f e7bb 76da 22bc 74a4 11bd
000000b0: 1fb6 413c 2cf1 60bc 88dd 52bd 8c11 19bc
000000c0: af52 21bd 178e d4bc 14a3 153b de98 5bbd
000000d0: f80b 81bd 7ec2 363d e286 f2bc d2c8 5ebc
000000e0: 78a3 2abd 2f79 d8bc 83f2 2bbb 1fe1 0e3c
000000f0: 79bd 7abc c2b4 f3bb c6fc fdbc edfe ff3c
0.03487947 0.0009646794 -0.019873103 0.053193837 -0.0017090533 -0.009471668 -0.033442337 0.026988804
-0.0019691864 -0.020645944 0.016497703 -0.011602802 0.028397802 -0.03356668 0.068801515 0.00027707836
0.054366108 -0.040730003 0.0034162228 0.02647657 -0.0061620064 0.00674839 0.022909509 0.014391497
0.03664297 0.02814168 -0.037868164 0.02458704 -0.003937084 0.009943884 0.03042597 -0.055386104
-0.0014150997 -0.009580967 0.040906794 -0.06536179 0.0020620108 0.0053995205 0.011796234 -0.055403516
0.0015892412 -0.0070609385 -0.00993978 -0.035557225 0.011823206 -0.013729375 -0.0514808 -0.009342562
-0.039385494 -0.02594666 0.0022832798 -0.053612582 -0.06301111 0.044619076 -0.029605333 -0.013597684
-0.041659802 -0.026424972 -0.0026237078 0.008720665 -0.015303963 -0.0074373195 -0.03100432 0.031249488

action_model._discrete_distribution.branches.1.bias f4 [2]
00000000: aa49 9bbc a349 9b3c
-0.018956024 0.018956011

action_model._discrete_distribution.branches.2.weight f4 [2, 32]
00000000: 4487 3fbd b8b0 e0bc 514a 87bd 5b50 a7bd
00000010: c31c aa3c 3601 eebc 200f 6e3c 5899 a73c
00000020: 2e63 563c 76d1 55bd e41c 90bd 374a 62bd
00000030: 7d66 85bc 8243 97bc c251 033c 0f3a 263c
00000040: 81f5 e9bd 5e47 ee3c d099 e4bb 0dcd 10bc
00000050: 44c0 a33c ff9b 303c fb7d c9bd dde9 36bc
00000060: 7ba6 96bd 84fc 8abd 0504 1dbd 51db 8f3c
00000070: 6c8c a2bc 62c4 2ebc 5e81 a6bd 7bab a53c
00000080: 3789 713d f8eb 983c 25c9 9f3d 9a72 da3d
00000090: 8ae4 c53c 561c 6c3c a7fe 53bd ec95 e93b
000000a0: 84d5 f1bb b2ab 993d ad87 893d 8723 373d
000000b0: ba48 b73c e39f 203d 0420 e23c 5d49 ec3b
000000c0: 9488 103e 0f3b 0dbd 175b 11bc 5456 f7b8
000000d0: 729f 02bc 4d85 9bbd 60d6 923d 331c 9e3c
000000e0: 02ee ba3d 9414 a93d 33f9 6c3d 5549 a63a
000000f0: b3f2 0abc 257a e13c df26 2b3d b3b5 56bc
-0.04675986 -0.027428016 -0.066059716 -0.081696235 0.020765668 -0.029053312 0.014529973 0.020458862
0.01308517 -0.05220171 -0.070367604 -0.055246558 -0.016284222 -0.018464807 0.008015098 0.010145678
-0.11423779 0.029086765 -0.0069763437 -0.00883795 0.01998914 0.01077938 -0.09838482 -0.011164156
-0.073559724 -0.06786445 -0.03833391 0.017560633 -0.019842349 -0.0106669385 -0.081301436 0.02022337
0.05896875 0.018667206 0.07802037 0.1066639 0.024156827 0.014411053 -0.051756527 0.007128468
-0.0073801894 0.075034514 0.06715331 0.044711616 0.022373546 0.03921498 0.027603157 0.007210894
0.141146 -0.03448015 -0.008871815 -0.00011793958 -0.007972585 -0.075937845 0.07169795 0.019300556
0.09127428 0.08255878 0.057854842 0.001268665 -0.008480716 0.027524063 0.041785117 -0.013104844

action_model._discrete_distribution.branches.2.bias f4 [2]
00000000: 4d8f a03d 488f a0bd
0.078398325 -0.07839829

action_model._discrete_distribution.branches.3.weight f4 [3, 32]
00000000: 3568 903d 5968 023d 04a9 4f3d b072 073e
00000010: f3fb d5bb 947b 863d b592 97bc 45ea 16bd
00000020: 926c 4abc c939 d73d e301 0b3e f8d1 5d3d
00000030: 5da3 f3bb 1c9e e83c 61ca 3a3d 815b a03c
00000040: 17cd 1e3e 8772 573d fc21 e33c b652 733c
00000050: 5b89 12bd ea35 cbbc 90ec f03d cf5b 5a3c
00000060: d6d5 033e bf2c 603d 5f41 9e3d 7e32 f13b
00000070: defa acbc 8b0c 4e3c c418 163d c62a b1bc
00000080: dcab 2ebd e297 d23c dc4a ebbd 04e2 fcbd
00000090: 8d89 213c d917 92bd 7f80 8ebd a135 4abd
000000a0: 5e49 c53c 5df3 07be 26ce 0bbe 5751 20bd
000000b0: 29cf acbd 80bc 50bd 7c4d 6fbd 72c3 0839
000000c0: 5414 dfbd 0c71 cabd 0d7b af3c 6955 463d
000000d0: b2c2 933c 39f4 fbbc 23e5 cfbd 585e fbbc
000000e0: 0cf5 31be 801b 9fbd c789 03be fad5 b13b
000000f0: 6cb9 3039 ce27 29bc 5fc6 773d 5714 3bbd
00000100: 43f6 a4bc 99ac e33a 4d39 6b3d 7bdf 66bd
00000110: 794f 6f3b 0d5b 24bd f129 e93d d815 873d
00000120: e207 b5bc 79a5 d63d dcd5 903c a766 f73c
00000130: eda0 983d 6cfa 463b f50b 9f3c 637c a73b
00000140: 8570 94bd f753 d53c 2db8 133d 100f adbd
00000150: 4f66 823d b833 a63d 08dd a03c 7235 753c
00000160: 63eb 953c 73b1 453b d81f 623d 1f43 06bb
00000170: ed4b 0c3d f16d 2a3c b441 9fbd aa25 a93d
0.07051126 0.031837795 0.050698295 0.13227344 -0.006530279 0.065665394 -0.018502573 -0.03684451
-0.012354987 0.105090685 0.13574938 0.05415532 -0.007435246 0.028395705 0.04560316 0.019574882
0.15507923 0.052599456 0.027726166 0.014851263 -0.035775524 -0.024805982 0.11763871 0.013327553
0.1287454 0.054730173 0.07727312 0.0073607555 -0.021115717 0.012576233 0.036644712 -0.021626841
-0.042644367 0.025707189 -0.11488888 -0.123477966 0.009859455 -0.07133455 -0.069581024 -0.04936755
0.024082836 -0.1327643 -0.13652858 -0.03914007 -0.0843795 -0.050961018 -0.058423504 0.0001304278
-0.10892549 -0.09884843 0.02142098 0.048421297 0.018037174 -0.030756103 -0.10151126 -0.030684635
-0.17378634 -0.07768917 -0.12845527 0.0054271193 0.00016853743 -0.010324432 0.060491916 -0.045673694
-0.020136958 0.0017370164 0.057427693 -0.05636547 0.0036515875 -0.040125895 0.11384953 0.06595963
-0.022098485 0.1048078 0.017680101 0.030200316 0.07452569 0.0030361665 0.019414881 0.0051112636
-0.07248024 0.026041014 0.036064316 -0.084501386 0.0636717 0.08115333 0.019636646 0.014966356
0.018300718 0.0030165582 0.05520615 -0.0020486785 0.034252096 0.010402189 -0.07776204 0.08259137

action_model._discrete_distribution.branches.3.bias f4 [3]
00000000: 38ae c8bd c25c fd3d 0141 b2bc
-0.097988546 0.12371208 -0.021759512

action_model._discrete_distribution.branches.4.weight f4 [1, 32]
00000000: e551 4cbc eff5 a23c 13a7 fdbc 37be 75bc
00000010: 85b1 bb3b 1a22 05bc edbc 4fbc 273f 85bb
00000020: 3e55 4bbc a311 05bc f87f db3c 6254 dc3a
00000030: 074b a5bc b0fc a5bc 5b4a b4bb 6da2 06bc
00000040: 743e 013d 171a 2abc 4b74 943c e8af 36bc
00000050: 4479 38bc 4e52 00bb dd2f 6138 f92d 063c
00000060: 2777 c33b 9b8c a63c fee0 1c3b f07a c0b9
00000070: dd71 523c 83e6 013c 7d04 c2bc 37f7 77bc
-0.012470697 0.01989266 -0.030963456 -0.014998964 0.005727949 -0.008125806 -0.012679321 -0.0040663662
-0.01241046 -0.008121881 0.026794419 0.0016809816 -0.020177377 -0.020262092 -0.005502028 -0.008217436
0.0315537 -0.010382197 0.018121859 -0.011150338 -0.011259381 -0.0019580307 5.3688756e-05 0.008189672
0.005965132 0.020330718 0.0023937817 -0.0003671269 0.01284453 0.007928493 -0.02368378 -0.015134624

action_model._discrete_distribution.branches.5.weight f4 [4, 32]
00000000: 98ce 823d 05c3 d13c 038f 933c ca07 8f3d
00000010: 19a1 1abc 631a 933d 66e7 92bd c209 9dbc
00000020: 53f5 923c 2fac 933b 7b22 053d 8351 c3bc
00000030: eba7 61bc e5e8 8b3c 5c48 463d 20ed 9e3c
00000040: be77 d53d 74bc 453d 4d9f 443c c2ef 19bd
00000050: e000 36bd 96fc 97bd 67e2 243d 4e43 89bc
00000060: fa0b 373d 5f39 5d3c d7da 903c 3e73 b93b
00000070: 9f47 9fb9 83bf 173a 6945 a13d 517d 95bd
00000080: 80aa c73c adfa 50bb fc56 c2b9 ff0b 65bc
00000090: 25e8 0fbc ce01 ea39 be35 01bb a9e7 08bd
000000a0: 77e6 65bc 4984 0fbd 3c12 b23c 8d5f b0bc
000000b0: 160f 91b9 cc22 97bb 8784 1a3d 70db 583c
000000c0: 00ad 49bd 358e e63c bd7e 063c c861 bd3b
000000d0: a77d 003b e611 433c 566a 7cbd bc50 1dbc
000000e0: c0c4 b1bc 1ba3 3bbd 8c2c 9dbd e853 a9bc
000000f0: e56e 0f3c 08f5 253c 0977 3bbc 1ae6 853a
00000100: a804 c3bd 64a2 553d 0080 76bc 9656 8abd
00000110: 9336 8c3c 2243 8cbd 25c6 b53d fc68 643d
00000120: 315c 9a3c 5778 c43b ebdb fcbc 5dd4 82ba
00000130: a182 b83c 9ca8 96bc 87a7 8ebd d93b 07bd
00000140: d2b7 03be 046e f7bc 8c51 963c 0147 5ebc
00000150: e75c a23d 78df 9d3d cc9d eebb 823e 2f3d
00000160: da74 80bb 9fd6 933c 43d8 893c aeb2 0bbc
00000170: 90d8 393c 6627 163c 8d15 22bd d678 bc3d
00000180: 8294 bcba 1c51 8eb9 b6f5 2c3b 6e46 3d3c
00000190: 5a91 dc3b 884e 5f3d 85e8 68bc 9318 d83c
000001a0: 56b8 5f3b ced5 013c 9df6 6f3c eded e73c
000001b0: b7a7 453c acd9 f63c f26c 32bd ff10 aebc
000001c0: e35f 833d 63e8 96bd bc85 473c 0e94 e03c
000001d0: bc2c f43c 88c6 bdba 202e c7b9 476d 0f3d
000001e0: 3e48 c8ba 53b4 043d a62f 29bc 55a1 793c
000001f0: ee38 8b3c b6d7 f63c e3af 47bd 0e44 78bc
0.06387061 0.025605688 0.01801253 0.069839075 -0.009437823 0.07182767 -0.07173042 -0.019169692
0.017939245 0.00450661 0.032503586 -0.023842579 -0.013772945 0.017078826 0.04840885 0.01940018
0.1042323 0.048275426 0.012000871 -0.037582166 -0.04443443 -0.07421224 0.040254977 -0.016755726
0.044689156 0.013502448 0.017682476 0.00565949 -0.00030380205 0.00057887303 0.07874567 -0.07299293
0.024373293 -0.0031887696 -0.00037067372 -0.013979911 -0.008783375 0.00044633303 -0.001971587 -0.033424053
-0.014031998 -0.035038266 0.02173721 -0.021529937 -0.00027667795 -0.0046123024 0.037724044 0.013235912
-0.04923725 0.028143981 0.008208928 0.0057794787 0.0019606145 0.011906123 -0.061624847 -0.009601768
-0.021700263 -0.045809846 -0.07674512 -0.020669892 0.008754467 0.010129221 -0.011441954 0.001021567
-0.095223725 0.05215682 -0.015045166 -0.06754796 0.017115867 -0.06848742 0.08875684 0.055764183
0.018842788 0.005995791 -0.030866584 -0.0009981502 0.022523226 -0.018390946 -0.06965547 -0.03301606
-0.1286309 -0.030203827 0.018349431 -0.013566733 0.07927876 0.07708639 -0.0072819944 0.04278422
-0.00392018 0.018046675 0.016826754 -0.008526487 0.011343136 0.009164667 -0.039571334 0.09202735
-0.001438752 -0.00027144782 0.0026391572 0.011552436 0.0067311944 0.054518253 -0.014215593 0.026378905
0.0034136972 0.00792451 0.0146461995 0.028311694 0.012063912 0.03013309 -0.04356093 -0.021248339
0.06414773 -0.07368543 0.012177881 0.027414348 0.029806487 -0.0014478723 -0.00037990604 0.035016324
-0.0015280319 0.032398533 -0.010326302 0.015236218 0.01699492 0.030132156 -0.048751723 -0.015152944

action_model._discrete_distribution.branches.5.bias f4 [4]
00000000: e9c9 b2bc 27ff d93c f088 92bb d848 dfbb
-0.021824794 0.026610924 -0.0044718906 -0.0068141036
