Assets/ML-Agents/Models/BattleSystem_poca 5.onnx (onnx, 33641 bytes, 18 tensors)

discrete_act_size_vector f4 [1, 7]
00000000: 0000 a040 0000 0040 0000 a040 0000 5041
00000010: 0000 803f 0000 8040 0000 8040
5.0 2.0 5.0 13.0 1.0 4.0 4.0

network_body._body_endoder.seq_layers.0.weight f4 [32, 49]
00000000: 5c83 a8bd 0028 75be f892 913d 005e a23d
00000010: 846e 46be 44f6 e1bb 66e6 99bd 72ac 333b
00000020: 4e0c 45be 9786 05be e0c4 5dbd 8da9 a13d
00000030: e818 063e ee44 f13e aee5 263e ea29 8c3d
00000040: 21cc 583d 66f1 1fbd 6fee 213d dcd3 8b3e
00000050: 3713 0dbe c1c0 3a3e 47be 87be 3f06 80bc
00000060: b41f 50be 4193 1c3e 9129 8d3e 31c5 39bd
00000070: 216d 043e f821 2cbe 8125 cf3b 7ed4 1f3e
00000080: f304 a53d 1d2e 0d3e fdf3 bfbd fb64 683d
00000090: ff9f 433d 4182 72bb d107 db3d 9721 3dbc
000000a0: 52cf 653e 9e62 fcbd c574 99be 00d6 78bd
000000b0: 0dac 463c 108c 0f3c 900a 42bd 74fb 803e
000000c0: c2a7 63bd f5de d5bd b592 1abe 4190 cdbe
000000d0: 9cca 703d 481f c93e 7f43 a03e edf2 f7bc
000000e0: 74e4 a93d 12f6 c0bd 3365 ffbd bb2c 853e
000000f0: f28c b23d 6fb3 4fbd e929 acbd 2a55 ef3b
00000100: e72b 9c3a d3d9 b43d ddfc b3bd c948 823d
00000110: 0b7a 79bd 8134 ec3d 7667 e9bc 7525 52be
00000120: 52d9 143e be16 49be 1504 233c e82f cfbd
00000130: f5a0 233d 3cbe cd3d acd6 eb3b 09f2 b1bd
00000140: 792f 97bd c3dd 0dbe 6d29 873d 41c1 edbd
00000150: 9dc4 29bc cfcc 0ebd a780 673e 75f5 783c
00000160: 422e 0cbe de41 b83d 99eb 03bd 4699 f2bd
00000170: 1b4f 9cbe d2b5 643d 5520 253d 010a b93d
00000180: cdb3 9abe 568f 38be a8dc 2dbd fcd8 4b3e
00000190: 7a7b 003d d2c8 46bd 5ec1 62be fef4 95be
000001a0: 8378 85bd 6b2c d0bc daf2 d4bd 89e9 b33e
000001b0: c8e3 b73c cbf5 92bb 7e22 1bbd eb6c 8d3d
000001c0: 2ba4 07be 2ab5 1cbe d05f f4bd d59c b63c
000001d0: 26cf e33d 731e 73be a5fe 89bd d08f a93d
000001e0: 13fd 843d 8357 93be 9b19 913d 5611 873d
000001f0: 3e1d 09be 1b6b cbbd a9a0 23be 77f5 7bbe
00000200: 40e3 be3d f82a 943e 24a2 b13d 39cf f63d
00000210: 2f26 4f3e d011 c4bd 5319 123d c3aa 013e
00000220: 7875 643e b4c2 e93b 49ae 83bd d3b5 0b3d
00000230: 03db 09be 1d24 3cbe 57c7 1a3e ddd7 7fbe
00000240: 3a5d b83d ed6b 21be f0de 9cbd 8968 93bc
00000250: 399c 693e 71fb cf3d 8a15 dc3e ec03 1d3e
00000260: 29fd cebc 1c9e f03d 3367 9b3e aa08 67bc
00000270: 0e27 ef3c a41b 56be 9f58 b9bd 6ee2 353e
00000280: ae5f 05be 52ce 52be 1ef7 2cbe a281 0f3e
00000290: 5d02 b23d 0c85 1a3d 519e febd 17f9 1cbe
000002a0: 8793 a6bd e06d d83d 573a 1a3e c1bb e23b
000002b0: 59e7 aabd 88ef ba3e 0934 61be a4e5 9b3b
000002c0: 33ed 483e 5369 79bc f32f 49be 1beb c6bc
000002d0: 3614 7abd 1da2 2c3e 00a4 15be 7bc6 c1bc
000002e0: d4c7 333e 127b 863e c01b c2bd e128 8c3d
000002f0: 7e5b e23d 69d3 3b3e 3ace 7bbd 2620 5cbe
00000300: 8aaf 953e 6531 c8bd 3fc8 4abd 774a ae3d
00000310: 5b13 ce3e a8ef 6c3e 59a9 803e 129e 553e
00000320: f869 79be 1192 0dbc 026f 44bc 70a8 b63c
00000330: 7b2d a3bd 53fa 36be a171 cb3d f3e8 993e
00000340: 4a72 c13d e5b8 4abd f8f2 c0bc 5e63 b73b
00000350: c245 7a3e 6380 8d3d ff15 eebd d937 493d
00000360: 2309 24bd 321a 02be f216 d73d e4c0 bbbd
00000370: ea80 513e 2fad 243e 4c07 5b3e cbaa 2dbe
00000380: f17f c33d e02a 88bd 5d6c 44be c697 93be
00000390: 2aee ef3d 4e95 56be 745a 9fbe 6595 bc3c
000003a0: 750a 3a3d b53b d43d 2262 e3bc 7496 6abe
000003b0: 0ccc 5fbd 4f03 673d 38c4 ad3e 4057 14be
000003c0: 2c7f abbd 9252 9f3d 365e 5ebd 0fed 863c
000003d0: a282 713e cb04 1cbe 1332 57be c483 a8bd
000003e0: 53b9 cbbd 124f ddbd 56dc cb3b 2bd2 31be
000003f0: 6f87 14be 10a1 24be 363a c6bd 8974 493e
-0.0822818 -0.2394104 0.0710811 0.07928085 -0.19378096 -0.006895812 -0.07514648 0.0027416018
-0.19242975 -0.13039623 -0.054142833 0.07893667 0.13095438 0.47122902 0.16298553 0.06843932
0.052929047 -0.039048575 0.03953403 0.27310073 -0.13776861 0.18237592 -0.26512358 -0.015627978
-0.20324594 0.15290548 0.27570775 -0.045354072 0.12932254 -0.16809833 0.0063216095 0.15608403
0.080575846 0.13787122 -0.09372709 0.056736927 0.047760006 -0.0037003907 0.1069485 -0.011543653
0.22442368 -0.12323497 -0.299719 -0.06075096 0.012125981 0.008761421 -0.047373354 0.25191844
-0.05557991 -0.10442916 -0.15095027 -0.4014912 0.058786973 0.39281678 0.31301495 -0.030267203
0.08295527 -0.09421934 -0.12470474 0.2601069 0.087182894 -0.05070823 -0.08406431 0.0073038535
0.0011914939 0.08830609 -0.08788464 0.06361539 -0.060907405 0.11533452 -0.028491717 -0.20522101
0.14536026 -0.19637582 0.009949704 -0.10116559 0.039948422 0.1004605 0.0071972217 -0.08688743
-0.073821016 -0.13854127 0.06599698 -0.11609126 -0.010361818 -0.03486329 0.2260767 0.01519524
-0.13689521 0.08996938 -0.032207105 -0.11845641 -0.30529103 0.05583746 0.040314037 0.09035111
-0.30215302 -0.18023428 -0.042446762 0.19906992 0.031367756 -0.04853136 -0.22144076 -0.29288477
-0.065171264 -0.025411805 -0.10397883 0.3513911 0.022447482 -0.004484867 -0.03787469 0.0690554
-0.13246219 -0.15303484 -0.11932337 0.02229158 0.11123495 -0.23742084 -0.06738023 0.08279383
0.064935826 -0.28777704 0.07084962 0.065951034 -0.13390061 -0.09932538 -0.15979256 -0.24605356
0.09320688 0.28939033 0.08673504 0.12051243 0.2022941 -0.0957371 0.035668682 0.12662797
0.22310436 0.007133806 -0.06429727 0.034108948 -0.13462453 -0.18373151 0.15115105 -0.24984689
0.090021566 -0.15763827 -0.076597095 -0.017994182 0.228135 0.101553805 0.42985183 0.15333527
-0.0252672 0.11748907 0.30352172 -0.014101187 0.029193427 -0.20908982 -0.09050106 0.17762157
-0.1302478 -0.20586517 -0.16891143 0.14014295 0.08691857 0.03772454 -0.1243254 -0.15329395
-0.08133607 0.10567832 0.15061317 0.0069193547 -0.08344907 0.36510873 -0.21992506 0.0047576
0.19621734 -0.015222865 -0.19647197 -0.024282029 -0.06105443 0.16858716 -0.14613342 -0.023654213
0.17556697 0.2626577 -0.09477949 0.068437345 0.11052607 0.18342365 -0.06147597 -0.21496639
0.29235488 -0.09775046 -0.049507376 0.08510297 0.40249142 0.23138297 0.25129202 0.2086108
-0.2435683 -0.008640782 -0.011989357 0.022297114 -0.07967659 -0.17868929 0.09933782 0.3006054
0.09445627 -0.049492735 -0.023553357 0.0055965623 0.24440673 0.069092534 -0.11625289 0.049125526
-0.040047776 -0.12705305 0.10502423 -0.0916765 0.20459333 0.1608169 0.21389502 -0.16959684
0.09545887 -0.06648803 -0.19181962 -0.2882673 0.11715348 -0.20955393 -0.31123698 0.023020456
0.04542013 0.10362951 -0.027756754 -0.22908956 -0.054637954 0.05639964 0.33938766 -0.14486408
-0.083738655 0.07779421 -0.054289065 0.01647046 0.23584989 -0.15236203 -0.21015196 -0.08228257
-0.09947457 -0.10806097 0.0062213344 -0.17365329 -0.14504789 -0.16077065 -0.096790716 0.19673361

network_body._body_endoder.seq_layers.0.bias f4 [32]
00000000: d475 5d3c 00ec 89bc 0eef d2bc 0992 b03d
00000010: 5f9e 033d 5d94 cfbc 9885 343c da8d 273d
00000020: 4eef a33b 47bc 823d 6236 7dbd fc6b f6bc
00000030: 077a 45bc bcae 18bd f670 bcbc 486c c53c
00000040: 1306 16bc c911 14bd 3cba 53bc f49b d9bc
00000050: 5685 86bc c3e4 7bbd cc17 fcbc 56d7 61bd
00000060: 7392 29bd 7c1f 183d b7e5 dcbc d732 87bd
00000070: 2485 97bc e0ac 8a3c 642c ae3c 6b63 153c
0.013516862 -0.016836166 -0.025748756 0.08621604 0.032133456 -0.0253393 0.011018179 0.040906765
0.0050028926 0.06383567 -0.06181944 -0.030080788 -0.012053019 -0.037276015 -0.023003083 0.024099484
-0.009156722 -0.036149774 -0.01292282 -0.026563622 -0.016421001 -0.06149746 -0.030773066 -0.055137
-0.04139943 0.0371394 -0.026965005 -0.06601494 -0.018496104 0.016928136 0.021261401 0.009117941

network_body._body_endoder.seq_layers.2.weight f4 [32, 32]
00000000: 6969 6abe 527f a83e 0c35 27bc 4458 bbbe
00000010: 4d89 f2be 811b 3d3e cfd8 44bd 87eb a9bd
00000020: e2f9 5d3d 044e 52be 08a8 0bbe b513 28be
00000030: 33bb 69bd 072e 23bc b675 3abe 13fd 45be
00000040: 140e 603d 37eb 12bd 580e 143e aa99 acbd
00000050: 25e7 083d 7483 d63e f419 06be 75e8 983e
00000060: 44d4 20be 4902 483e d7ce 31be 97be 2e3e
00000070: 4eb6 ce3d 0c27 cbbc 4e58 223d 09e8 46bd
00000080: 7792 f43d b36c 343e 5674 2dbe ea71 413e
00000090: 800b 94be d605 95bd 8a16 6a3b 08b3 8d3e
000000a0: 79c3 c4bb 4d1c 023e 0602 b1be d62c c33d
000000b0: 0e27 413e 2afd 97bc f72e c4bd 6b53 2abd
000000c0: 9fd8 343d 05cd 493e 6fe6 e33e f4ce 0c3d
000000d0: e2a3 64be 367c 003e 0d92 41be 1850 66be
000000e0: 070e bd3d 16ec 02bd e3c1 f73d b51b f3be
000000f0: 2867 cc3d b22c 3b3c 7c60 753e 4011 5c3d
00000100: bb8d 323e 3c7d adbd 4bc3 1f3d ef7a 3ebe
00000110: 0446 fabc 8148 483e 8cf1 323e 2d8b 233e
00000120: 6673 4bbe 82f9 3cbe 393f 33bd 5d10 b7bd
00000130: 2ee3 99bc e600 0b3e 6b42 943d 34f3 d3be
00000140: 171a dd3b 9afd aa3e dc0b 073e 9e11 bc3d
00000150: ffb6 e5be 48dd 3abe b450 613e 4e83 17be
00000160: ea84 d1bd 8ac4 3fbe 1f18 6e3e 5fa5 e6bc
00000170: aec6 8b3e 679b 163e 48b7 81bc 0ffd b3bd
00000180: b907 22be bcec 823e 9ce4 4abe 5406 d03c
00000190: a2d7 1ebe c987 b43e 7692 18be 78d9 83be
000001a0: ced1 a13e 70e6 dc3c fd9a 963b 40af df3c
000001b0: f767 6dbe 6b16 42bd 0af8 82bd 3523 413e
000001c0: 1829 42be 4cc6 f43d 2610 203e d7f4 3bbe
000001d0: d4ed 39bd 2c8d 2d3d 7e05 e7bd c512 07bd
000001e0: aa17 05be 950e eabb c09c 0dbe 9dad 18be
000001f0: 12b3 42be a1f7 cbbd 1ef2 60be 3993 9cbd
00000200: 4863 5b3d ff0e 4fbc c5aa 5abe 6166 58bc
00000210: dd62 db3d f003 34be 22b8 5dbe ff7c 36be
00000220: 9557 a53d b285 da3d e982 1a3d 0059 123d
00000230: 39da b3bd 409a d93c 9c9e a23e af24 bdbd
00000240: 5a66 c2bd 1ad6 073e e7bd 9a3d 3c90 72be
00000250: 5deb 02be c7c0 00bf e4b2 5cbd ada1 eabe
00000260: 7707 2ebe 7300 3ebe d138 05bd 5a0d e0be
00000270: 7bdc 40bd 9ab5 42be ec20 69be 718f 0dbd
00000280: e1a5 803d 2254 053d d7fc d9be 6668 063b
00000290: 93e2 a23c 5fd4 2b3e e481 d1bd 0796 9abe
000002a0: 310f 973d 8454 ccbd 4c6f a8bd fad8 2dbd
000002b0: ce10 6f3e 1f30 c5be b417 8abe 235a d13d
000002c0: 2926 edbc d24b 02be 8fff 6a3e 4fa5 96be
000002d0: 086c bfbe e7b8 5cbe 7346 10bd 2aee 3e3e
000002e0: ec88 65bc 3097 f0bc 87d5 493d 5fd1 f23b
000002f0: 8be3 6bbd 57ee 1d3e ce8e 243e 91f0 b3bb
00000300: f8f2 26be ee9e eebe 37a0 673e b44f 4e3d
00000310: 44a8 4ebe 7dc2 95bd 5454 0f3e 3805 fe3c
00000320: 0169 b3bd 10ec cfbe 7065 de3d aebd 5dbe
00000330: d8d9 f83d c764 f13e 643e 80be 93f2 643e
00000340: dfb2 473e e8a2 dcbe dd3b fb3d 749a 73be
00000350: c760 1dbe 9048 123d 4430 fe3d 0032 9cbe
00000360: f3b4 823c 828a 6dbe b1d5 053e bb32 0b3e
00000370: 1160 7abe 6ab5 81bd c280 593e b275 56be
00000380: 12b8 3d3c 27c7 9abe fbdd ac3d 5b0d 27bd
00000390: 049f 8f3c 7d14 79bd 5aec a33d 1978 4ebe
000003a0: 08b7 b4bc 1ba2 d6bd fd13 30be 18c0 973b
000003b0: fa52 57be 11e0 4f3c f6e2 043c 4d7f c8bd
000003c0: e37b a03d 8d27 bebd 7a69 f63c b0df 023d
000003d0: e54c e73d 8528 febc 70de cc3e 9236 c03d
000003e0: 7b65 31be 68a8 243c d158 e2be 2af5 b1be
000003f0: 521d c9bd c5a5 58be f551 1abd c09c 0c3f
-0.22891773 0.32909638 -0.010205518 -0.3659078 -0.47370377 0.18467523 -0.048058327 -0.082968764
0.054193385 -0.20537573 -0.13638318 -0.16413768 -0.057063293 -0.009959704 -0.18208966 -0.19334821
0.054700926 -0.03586885 0.14458597 -0.084277466 0.03342356 0.41897166 -0.13095838 0.2986485
-0.15705973 0.19532122 -0.1736406 0.17064892 0.100933656 -0.024798892 0.039634995 -0.04856113
0.119419985 0.1761959 -0.1693891 0.18891111 -0.28915024 -0.07276504 0.0035719 0.27675653
-0.0060047475 0.12706108 -0.34571856 0.09530036 0.18862554 -0.018553335 -0.0957927 -0.04158346
0.0441519 0.19707115 0.44511744 0.034377053 -0.22328141 0.12547383 -0.1890337 -0.22491491
0.09231191 -0.03196343 0.12097528 -0.47482076 0.09980613 0.01142423 0.23962587 0.05372739
0.17436878 -0.08471152 0.039004605 -0.18601583 -0.030550964 0.19558908 0.17474955 0.1597106
-0.1986824 -0.18454555 -0.043761466 -0.08938668 -0.018785086 0.13574561 0.07239231 -0.41396487
0.006747495 0.33396608 0.13188118 0.09183048 -0.44866177 -0.18248475 0.22003442 -0.14796183
-0.102304295 -0.18727317 0.23251389 -0.028155027 0.27300018 0.14707719 -0.015834466 -0.087885015
-0.15823258 0.2557124 -0.1981377 0.025393642 -0.15511945 0.35259846 -0.1489962 -0.25751853
0.3160538 0.02696535 0.0045961128 0.027305245 -0.2318419 -0.04738466 -0.06394966 0.18861087
-0.18960989 0.119518846 0.1563116 -0.18355118 -0.045392826 0.04237096 -0.112803444 -0.032976884
-0.12997308 -0.0071428516 -0.13829327 -0.14909978 -0.19013622 -0.09959341 -0.2196736 -0.07645268
0.05356148 -0.012637853 -0.21354206 -0.013208003 0.10712216 -0.17579627 -0.21652272 -0.1782112
0.080733456 0.106700316 0.037722502 0.03572941 -0.08781857 0.02656281 0.31761634 -0.092355125
-0.09492178 0.13265267 0.07555752 -0.23687834 -0.12785096 -0.50294155 -0.05388154 -0.45826474
-0.16995035 -0.18554859 -0.032524887 -0.43760186 -0.047085267 -0.19014588 -0.22766465 -0.034560625
0.06281639 0.03255094 -0.42575714 0.0020509004 0.01988343 0.16780232 -0.10229853 -0.30192587
0.073759444 -0.099770576 -0.08224353 -0.042443253 0.23346254 -0.38513276 -0.2697121 0.1022227
-0.02894886 -0.12724236 0.2294905 -0.29422995 -0.3738711 -0.2155491 -0.035223436 0.1864554
-0.0140096955 -0.029368967 0.0492759 0.007410213 -0.05759005 0.1542295 0.160701 -0.0054913242
-0.16303623 -0.4660563 0.22619711 0.05036898 -0.20181376 -0.07312486 0.13997012 0.031008348
-0.08760262 -0.4060979 0.108591914 -0.21654388 0.121509254 0.471472 -0.250476 0.2235816
0.19501828 -0.43093038 0.122672774 -0.23789388 -0.15368949 0.035713732 0.1241155 -0.30506897
0.015955424 -0.23197368 0.13069798 0.13593571 -0.24450709 -0.0633343 0.21240523 -0.20943335
0.01157953 -0.30230066 0.08440777 -0.04078422 0.01753188 -0.060810555 0.08004065 -0.20163001
-0.022059932 -0.10480138 -0.17195125 0.0046310537 -0.21027747 0.012687699 0.008110752 -0.09789906
0.078361295 -0.092848875 0.030079592 0.031951606 0.11293963 -0.03102518 0.40013456 0.093854085
-0.17323868 0.010049917 -0.44208387 -0.34757358 -0.098200455 -0.21156986 -0.037675817 0.5492668

network_body._body_endoder.seq_layers.2.bias f4 [32]
00000000: e004 7fbd df03 3dbd 0b4a f8bc e412 0ebc
00000010: 41cd 17bd 392a 3abc d4bf 0a3d d85b a4bb
00000020: f224 753a 5a7d 09bd 53a9 9dbc d862 f0bb
00000030: 5632 1dbd fe00 bfbc 2164 52bd 9b19 29bd
00000040: 25a2 02bd ecc3 55bd cbed 32bc 7840 97bd
00000050: f625 97bc 5abf 93bd efda 15bd fda0 6ebd
00000060: e2d9 f5bc 86ee 84bd faae 87bd 0f17 3ebc
00000070: e70e febb 4e62 493c ee43 2cbd eb56 41bc
-0.06226051 -0.04614627 -0.030308744 -0.008671496 -0.03706098 -0.011362606 0.033874348 -0.0050158314
0.00093515136 -0.03356681 -0.01924578 -0.007336002 -0.038378082 -0.023315903 -0.05136502 -0.041284185
-0.031892914 -0.0521888 -0.010920952 -0.07385343 -0.018450718 -0.07214232 -0.036585744 -0.058259
-0.030011121 -0.06490807 -0.06625171 -0.011602177 -0.0077532413 0.012291504 -0.04205697 -0.011800508

action_model._discrete_distribution.branches.0.weight f4 [5, 32]
00000000: 63e6 49bc 82e6 31bc 682b b03b a465 523d
00000010: 461a 093d a44d 373d 9ba0 be3c 760c 2c3d
00000020: 5407 663d 2882 d0bb 1e7a 393d 0fc0 883b
00000030: b6d3 503d efd6 953d 0308 733d 6941 233d
00000040: 627a d4ba 72d9 7e3c 75fa b23c ac1d a43c
00000050: 3c01 523d 06d2 3d3d 251a c23c 19ad 813c
00000060: 01f3 48bb 0171 243c 5c90 093c 1866 193d
00000070: 1e64 ed3c f902 223d 462b 1f3d cfca a33a
00000080: b290 5abb 980b ae3a 1216 cd3c c58f f63c
00000090: e4a8 bf3c 9440 9b3b 0118 b13a 536d b83c
000000a0: 521e 483b 7e16 3a3d 55d4 e53c a8ba b23c
000000b0: 830c e23c ca6e e83c 2706 393d a2ec 3c3c
000000c0: a3e8 0ebc fdce 6b3c a0de e53c 7e21 0bbb
000000d0: b5f1 9b3c 9581 aa3c d17e 97bc a109 d63c
000000e0: 55a3 a03c a67c d93c 44e5 343c e9ab 853c
000000f0: 8072 263d 4d3e 903c 824f 31bc 368c 05bd
00000100: cffd 203d 0ed0 f33c e139 06bb 61c9 4a3d
00000110: 5b57 773d 232b 813d 47c2 a93c cce1 183d
00000120: 89b1 0c3a eb3b 553d 7e41 dbbc 6b2c 6e3c
00000130: c1f1 e83b 1041 3cbc d839 ec3b 1f9e 9cbc
00000140: 7a86 0f3d b8bb b0bc ac6c 803b 7fa5 d73c
00000150: f6f5 db3c 581a 113c 40d6 b5ba 3583 123c
00000160: 953b 523c 9020 333d 634d 05bd 1395 913c
00000170: 5bbf 92bb 09eb af3c f21c aa3d a1ca 0dbc
00000180: 8838 4a3d 4e14 763b b3c5 ff3c dd1c 0a3d
00000190: 8495 e23c cc82 5f3c b9e2 e7bb 3e12 e63c
000001a0: bcfd 333c 2723 0f3d 983d 393d e9ac 3ebb
000001b0: e421 4a3d 0189 163d 1f05 333c 04b6 e23b
000001c0: c1a1 7d3c fa8e 813c d9b9 063d 4212 a13c
000001d0: 9942 93b9 60ce 023d d7cc 1e3d c59e 19bb
000001e0: 2668 023d 053f 053d 3015 cf3c c5c4 0d3d
000001f0: 5271 19ba 0f12 26bc 8fa3 55bc 5592 fd3c
00000200: 01e9 a0bc dce6 773c 5998 1a3c 78e7 fc3c
00000210: ecb9 363d d779 a43d 5a24 3f3c bae3 773b
00000220: 2314 563d 4ffb 1e3d cc17 513d 16c3 33ba
00000230: a630 01ba ab94 013c 5a7f 91bc 39f4 a03c
00000240: 4700 133d ed92 0b3d 0077 5e3d e8fb fbbc
00000250: 7a35 91bc b45f babb 75b6 34bb f603 893d
00000260: fd00 46bd e87b 793b 664a 333c 0394 a7bb
00000270: 1892 223d 2839 1d3d 719c 323d ed82 5f3d
-0.012322995 -0.01085818 0.005376268 0.051366463 0.033472322 0.04475178 0.023269942 0.04200407
0.056159332 -0.006363172 0.045282476 0.004173286 0.050983153 0.07316386 0.059333812 0.0398573
-0.0016210789 0.015554773 0.021847943 0.02003368 0.05127071 0.046342872 0.023694107 0.01582961
-0.003066242 0.010036708 0.008396234 0.03745088 0.028978404 0.039553616 0.03885963 0.0012496355
-0.0033350405 0.0013278602 0.025034938 0.030097852 0.023395963 0.004737923 0.0013511182 0.022513067
0.003053565 0.045431606 0.02805535 0.02181752 0.027593857 0.02837314 0.045171883 0.011531027
-0.008722457 0.014392612 0.028060257 -0.002122968 0.019036153 0.020813743 -0.018493088 0.026127638
0.019609133 0.026548695 0.011040989 0.016317325 0.04063654 0.017607832 -0.010822179 -0.03260442
0.03930455 0.029762294 -0.0020481276 0.049508456 0.060386043 0.06307056 0.020722521 0.03732471
0.0005367031 0.052059095 -0.026764628 0.014536957 0.0071088974 -0.0114901215 0.007209044 -0.019118367
0.035040356 -0.021573886 0.0039192047 0.026324032 0.026850682 0.0088563785 -0.0013873056 0.008942415
0.012831588 0.043732226 -0.032544505 0.01777128 -0.0044783778 0.021474378 0.08306302 -0.0086542675
0.04937032 0.0037548724 0.0312222 0.033718932 0.027659185 0.013642024 -0.007076588 0.02808487
0.010985788 0.034945633 0.045224756 -0.0029094762 0.049348727 0.03675175 0.010926514 0.0069186706
0.01548046 0.015815247 0.032892082 0.019662026 -0.00028087644 0.031935096 0.03876957 -0.0023440581
0.031837605 0.032530803 0.025278658 0.034611482 -0.0005853373 -0.010136141 -0.013039484 0.030953566
-0.019642355 0.015130725 0.009435737 0.030872092 0.044610903 0.080310516 0.011666382 0.0037824945
0.052265298 0.038813885 0.051048085 -0.0006857378 -0.00049282087 0.00790898 -0.017760921 0.019647704
0.035888936 0.034075666 0.054312706 -0.030759767 -0.017725695 -0.005687678 -0.0027574573 0.066902086
-0.048340786 0.0038068239 0.010943031 -0.00511408 0.039690107 0.038384587 0.043606225 0.05456822

action_model._discrete_distribution.branches.0.bias f4 [5]
00000000: ec52 973d 4e58 f0bd 608b a8bd 8f5a 233e
00000010: c6ab 5bbd
0.07388863 -0.11735593 -0.08229709 0.15952514 -0.053630613

action_model._discrete_distribution.branches.1.weight f4 [2, 32]
00000000: d1f3 ce3c d964 b63c 94fd d7bb a8b7 a73b
00000010: 20a5 963c d24b d7bc f9cd a2bc 5097 b3bc
00000020: e36f ba3b 0dee 0a3c 21b5 e339 5995 3b3d
00000030: ed3d dcbc 4775 6bbb fa99 cf3c 62fa ed3c
00000040: 6a74 0d3c ff47 b53c 39e0 8cbc fbcd 793b
00000050: d2f0 983c b80f 5c3d fc60 a43b 1f79 8ebc
00000060: abb8 f4ba ac6a 503d 9407 0d3d 495d 89bb
00000070: 52aa 0ebd 201e 1c3c 79d7 793c 12a2 32ba
00000080: 99d0 afbc 02e1 0a3d 9ce5 a63b 5d9b 523c
00000090: 52c5 3fbc 148a 203d 4517 a63b f195 153d
000000a0: 19fb 16bb 0aeb 1cbc 7ec5 e7bc 8a8a b5bc
000000b0: 6986 6e3d 4f2c bf3c e138 0abd 3afb d2bc
000000c0: 2dd4 1dbd 9695 f83c 4e16 86ba c218 10bd
000000d0: 2887 173c 1bfb 21bd 7dd4 5fbb ab67 973c
000000e0: cdbc 873c cd0a bdbc 6e1e 81bd ebc1 8cbc
000000f0: 3802 2d3d a732 a63c e31b 853c 344c 223c
0.025262745 0.022264885 -0.006591508 0.005118329 0.018389285 -0.026281271 -0.019873606 -0.021922737
0.0056896075 0.008479607 0.00043431766 0.045796726 -0.026884997 -0.0035928057 0.025341976 0.029050056
0.008633712 0.022129057 -0.017196761 0.0038117159 0.01866952 0.053725928 0.0050164443 -0.01739174
-0.0018670758 0.05088298 0.034431055 -0.0041920287 -0.0348304 0.009528667 0.015249127 -0.00068143115
-0.021461772 0.03390599 0.0050932895 0.012854424 -0.01170476 0.03919418 0.005068692 0.03651995
-0.002303785 -0.009577522 -0.028292414 -0.022160787 0.058233652 0.023336558 -0.03374565 -0.02575456
-0.038532425 0.030344766 -0.0010230036 -0.03517986 0.009248532 -0.039546113 -0.0034153752 0.01848205
0.01656952 -0.02307644 -0.06304632 -0.017182311 0.042238444 0.020287825 0.016248649 0.009905864

action_model._discrete_distribution.branches.1.bias f4 [2]
00000000: 5801 95bd 5801 953d
-0.07275647 0.07275647

action_model._discrete_distribution.branches.2.weight f4 [5, 32]
00000000: 1905 af3c ff09 a63c 42ba 4d3c bc8f c83c
00000010: 09b2 533d a5e9 833d 1ac7 1d3d 16e5 cf3c
00000020: 9a3a 2b3c 5070 653b 26b3 7b3c 0471 84bd
00000030: cfea 173d f436 f13c 0c4c 5d3d 1b43 db3c
00000040: 99a8 29bc 2220 863c 7c5a 093d 8f44 f239
00000050: af98 d83c c2ef 1bbb a5b2 863c b471 ef3c
00000060: 2c6a 0f3d 5fe7 8d3b b3ac c03c 1b76 b73a
00000070: 3053 fb3c b735 a73d b8b4 ad3c 801b 483c
00000080: c1d0 b3bc c519 0e3d 3666 863c 40aa 8c3d
00000090: eccf 013d 5091 243c 3ff3 413d e33f d73b
000000a0: 9572 4cbc 4b81 103d 8314 ecbc 3f7d f43c
000000b0: 9a9a 323d 36bf 423d 1148 b0bc 50f3 95bc
000000c0: 9838 b43c 77af 053d 1f94 433a 3fdd e13b
000000d0: 5385 173d 2141 d13c 842c dbbb 9099 953c
000000e0: 0f4e 6c3c 0336 e8bb bfe7 38bc 2aee 283d
000000f0: bfe4 4b3c 039d 42bd 4bb4 293d 072c e6bc
00000100: 4357 9f3c 758f cb3c 0202 993c c586 f8bb
00000110: cfa7 1d3d bc16 293d 5997 bcba 97e3 a33d
00000120: 70f8 0a3d b989 0b3d 6042 da3b 08d8 aa3b
00000130: be97 f4bb 196c 61bd ff06 803c b3b1 823c
00000140: 2283 25bb 02a8 893c 702d fe3b 8e95 8f3b
00000150: a2b3 91bb 8ff0 ce3c a33d 273c cfaa 503d
00000160: 4f85 ea3c f6b6 263d 8c05 d83c 65a5 1e3d
00000170: 01d3 7bbc 4f5c 1c3d 7a91 4fbc d588 3dbc
00000180: 19c8 093d 48ab a43c 7413 783c 3bcf 00bc
00000190: 0293 8f3c de21 a0bc 47bc 83bd b0dd 1dbc
000001a0: 1e00 f6bb 9353 2f3d 4af0 933d fd27 6b3d
000001b0: 9dcb 7d39 9a57 833c 7e20 0c3d b911 263d
000001c0: d223 5fbc 90c1 ec3c 4216 1b3c 2ca5 203d
000001d0: c563 2cbc c7f9 943c 273b 973c b089 99bb
000001e0: 3ef6 5dbb 1f9a b638 f305 00bd 5d5b 923d
000001f0: 20b5 023d 306d 013d 79ff 9e3d a285 bf3c
00000200: 10a8 993c 1b76 193c baf9 333d 384e da3d
00000210: aad6 243d 71d6 a03c b5bb e6bc d7c3 403d
00000220: 8e5d 0d3c 7dff b63c cc00 0b3b 2260 8c3c
00000230: 2d26 523d 6da0 243d 9811 673c b0a9 d83c
00000240: 592d 103d ba14 f539 f966 2eba fb84 843b
00000250: d0ac a83c 2216 1d3d 3821 7d3c 72bc 853c
00000260: 8dc3 0fbc d328 c3bc da24 f0bc d639 973c
00000270: dc48 f33c 9b20 2a3d 9286 fb3c 84c7 5c3c
0.021364735 0.020268438 0.012556614 0.0244826 0.05168346 0.064410485 0.038519956 0.025377791
0.010450983 0.003500957 0.015362537 -0.064668685 0.037089165 0.029445149 0.054027602 0.026765397
-0.010355138 0.016372744 0.03353356 0.00046208917 0.026439993 -0.002379403 0.016442606 0.029229023
0.035013363 0.00433056 0.02351985 0.001399699 0.030679315 0.08164542 0.021204337 0.012213588
-0.021950128 0.034692544 0.01640616 0.0686841 0.03169243 0.010044411 0.04735112 0.006568895
-0.01247849 0.035279553 -0.028818374 0.029844878 0.04360447 0.047545634 -0.021518739 -0.018304497
0.021999642 0.03263804 0.00074607314 0.0068928297 0.036992382 0.025543751 -0.0066886563 0.0182617
0.0144229075 -0.007086517 -0.011285721 0.041242756 0.012444674 -0.04751302 0.041431706 -0.028097166
0.01945079 0.02484868 0.018677715 -0.007584425 0.038490113 0.041281447 -0.0014388367 0.08002394
0.033928335 0.03406689 0.0066607445 0.005213741 -0.007464378 -0.05503473 0.015628336 0.015953874
-0.0025255163 0.016803745 0.0077568814 0.004381842 -0.0044464627 0.025261192 0.010207566 0.050944146
0.02862802 0.04070183 0.026369832 0.03873195 -0.0153701315 0.03817397 -0.012668962 -0.011568268
0.033638094 0.020101205 0.015141357 -0.007861908 0.017526153 -0.0195474 -0.064323954 -0.009635374
-0.007507338 0.042804312 0.07223566 0.057411183 0.00024203812 0.016032983 0.034210674 0.040544245
-0.01361938 0.028900892 0.009465756 0.03922002 -0.010521834 0.01818551 0.018460823 -0.004685603
-0.0033868696 8.7071436e-05 -0.031255674 0.071463324 0.031911016 0.03159827 0.07763571 0.02337915
0.018756896 0.009366537 0.04393933 0.1065945 0.040243782 0.019633504 -0.028165678 0.047061767
0.008628262 0.022338623 0.0021210192 0.017135683 0.05130594 0.040192056 0.014103316 0.0264481
0.035199497 0.00046745484 -0.00066529174 0.004044173 0.020590216 0.038351186 0.0154498145 0.01632521
-0.00877465 -0.023823177 -0.029314447 0.018460196 0.029697828 0.041535 0.030703817 0.013475303

action_model._discrete_distribution.branches.2.bias f4 [5]
00000000: 1fd1 18bc 2b0a 4abd acf6 963c 975b 853d
00000010: 91b9 0f3b
-0.009327202 -0.049326103 0.01842817 0.0651161 0.0021930675

action_model._discrete_distribution.branches.3.weight f4 [13, 32]
00000000: 8fea 2fbd 748e 413d 1e1c 043d 7c60 a83d
00000010: e775 fb3c 2950 483d e5a2 8d3d ede8 953d
00000020: e4e4 263d 45b0 813d 482f 4a3d ca71 0f3d
00000030: 7bd4 9c3d 0a19 f13c 63f8 583d 3b30 693c
00000040: cf3b d13c 00cc 4b3d 8d30 3d3c cb64 d63c
00000050: ac67 313d ea5b 6b3d c3cf 123d 776b 67bb
00000060: eb37 643d 5964 153d 6ece 4a3d 27d4 dc3d
00000070: a852 fc3c f500 443d 1635 7d3d 2aae a33c
00000080: 3016 d43c 81b8 e43c d1ab a7bb 6395 7f3d
00000090: 15ea aa3d 086f a03d 4e4d fa3c f7c0 563d
000000a0: 907d 823c df06 393d 8d3f 8c3d 7e06 34bc
000000b0: c4a5 a93c 4410 413c eed5 643d 60ef 7d3d
000000c0: 92e2 a33c cf22 453d 456f c53c a1c2 e43c
000000d0: 9ec1 cb3c 6d07 613d 1bf7 383c bd55 b83c
000000e0: aa53 753d f19d ba3c 4261 763d e1ae d03d
000000f0: 2cd6 5b3d a702 273d 4a4d 703d 63ae a83c
00000100: 47c1 e53c 7dc5 2d3d 51b3 1a3d fc2f 833d
00000110: a37c 0d3d 8590 b83d a8ce a73d edfb a23d
00000120: 7f4a 803d 9c66 0d3d 7277 7b3d ec75 ea3c
00000130: dbc2 863d 4aca 853d 7ca6 403d 513a 0a3d
00000140: 1bb3 0b3d d938 b73c c264 0c3d a03e 1c3d
00000150: 3989 553d 3974 b23c 4013 0d3d e7f2 bdbb
00000160: e8fe ea3c 3e5c fa3c f652 1d3d 492d 3d3d
00000170: 7662 0d3d a562 823d f486 cc3c 5fc1 073c
00000180: f7a5 8f3d b607 f33c 3c2e be3c e107 9639
00000190: ae27 b33d 7c18 3e3d be40 a43b 9e04 ef3c
000001a0: d3c6 883d 1dae d23c 6633 3a3d 6c81 103d
000001b0: d5f7 543d a537 243d 19e4 723d 5396 5b3d
000001c0: 0d13 393d 9c56 8c3c 9273 fa3b f1d7 533d
000001d0: 8f64 cc3c 84a0 483d bb7b 2f3d 5459 c23c
000001e0: 660e f13c fb78 093c 4dcf b63b d343 943d
000001f0: f22c 5d3d b691 d4bc 3f7f fe3c 33ba 373d
00000200: d729 a33c 4962 763d 67fc 343d effe 583d
00000210: 8299 9e3d 90e9 9b3c 1fe6 0abb 24ab 553d
00000220: 72b3 9f3c 7e48 263d 7eed 623d c7ed 73ba
00000230: f228 f83c 3a73 a63d ac0d 8c3d 5463 e53c
00000240: 8a24 4b3d 5c11 ff3c cd54 683c 5c0c 873d
00000250: 8446 b7bc eea4 9b3d a602 6f3d 7cc9 053d
00000260: 7296 523d 5b0e 08bc ed5c 873d 3d06 913d
00000270: 7168 513d 56d2 6e3d 2261 b83d bb59 973b
00000280: 225f 203d 3a06 a63c 7220 15ba 4645 bd3d
00000290: 81b5 a13d 154d 863d 527f 6c3c b1c3 1f3d
000002a0: 386f 053d 3049 8f3c 92dd 183c 34c2 dd3c
000002b0: c298 783d eb67 963d 5c5f 433d 134b 8e3d
000002c0: d043 4f3d f587 0c3c 8257 443d 9fc2 c13c
000002d0: 5396 50bc 187a 4f3d f69c 6e3d 7d11 1e3d
000002e0: 0eb6 2f3d c4b3 993c d698 a93d 12d8 1a3d
000002f0: 2d3d 363d 7b72 123b 1e04 333d 6480 b13b
00000300: c630 bb3c e786 bc3c 085a 813d b38d 803d
00000310: 0bb6 853d 74e9 6a3d fad9 9dba 2b54 2e3d
00000320: 307b 393d 893c e13d e383 573d c9cd be3c
00000330: 430a 4c3d 7881 c63d 55ea 213d 2e2b da3c
00000340: f16d 273d 8158 743d ad6a 603d 2e13 11ba
00000350: 8e96 983d 6474 103d 4976 123d 8cbc a23c
00000360: cc34 1d3d f474 043c 7409 3a3d c447 b63c
00000370: a91c 94bb e305 113c 0041 8b3d 0bbc cb3c
00000380: f92b 473c eafb 7e3d 2e55 fa3c 2c38 a53d
00000390: 45e0 6f3d 6e8c ad3d da62 b63c a824 f03c
000003a0: 8da0 fabb 8fac df3c d837 0b3d 47fd be3d
000003b0: e0ab 763d 6a18 8fbc 799b 833d 1a42 963d
000003c0: 2933 953c dc86 ec3c cb70 453d 2470 133d
000003d0: e590 a23d 9103 833d 9f64 223d 2227 183d
000003e0: abe8 1e3d 64fd fd3c 87ef 613d 4d6e ea3c
000003f0: 423f 363d 3c06 5c3d da4b 873d ee0b 3a3c
-0.042948302 0.047254995 0.032253377 0.08221528 0.030695869 0.04890457 0.06915835 0.07319818
0.04074563 0.06332449 0.049361497 0.035020627 0.07657715 0.029430885 0.052971255 0.01423269
0.025541214 0.049755096 0.01154722 0.026171109 0.04331176 0.057460703 0.03584267 -0.0035311857
0.05571739 0.036472652 0.049513273 0.10782652 0.030801132 0.047852475 0.061818205 0.019980509
0.025889486 0.02792001 -0.0051169177 0.062398326 0.08345429 0.078336775 0.03055444 0.05243012
0.015929013 0.04517257 0.06848059 -0.010987876 0.020708926 0.011783663 0.05586808 0.061995864
0.020005498 0.0481289 0.024100909 0.027924838 0.024872597 0.054938722 0.011289383 0.02250182
0.05989424 0.02278039 0.060151346 0.101896055 0.053671047 0.040774014 0.05866746 0.020590967
0.028046263 0.042424668 0.037768666 0.06405637 0.03454269 0.0901194 0.081937134 0.07958207
0.06264209 0.034521684 0.06139321 0.028620683 0.065801345 0.06532724 0.047033772 0.03374702
0.034106355 0.022365974 0.034275778 0.03814566 0.05213282 0.021783935 0.034442186 -0.0057967785
0.028686002 0.030561563 0.038409196 0.046185765 0.034517728 0.06366471 0.024966694 0.008285849
0.07014077 0.029666763 0.023215406 0.000286161 0.08747803 0.04641007 0.0050126007 0.029177006
0.06678548 0.02571779 0.045459174 0.035279676 0.051994164 0.04009213 0.059299562 0.053610157
0.045184184 0.017131142 0.0076431716 0.05171961 0.024950294 0.048981205 0.042842608 0.023724236
0.029425811 0.00839066 0.0055789114 0.07239499 0.05399794 -0.025948387 0.031066535 0.044855308
0.019917412 0.060152326 0.044186022 0.0529775 0.07744123 0.01903227 -0.0021194292 0.052165166
0.019494746 0.040596478 0.05540227 -0.0009305146 0.030292962 0.081274465 0.06838545 0.028001465
0.049595393 0.031136207 0.014180374 0.06594154 -0.022372492 0.07599817 0.058352135 0.032662854
0.051413007 -0.008304204 0.06609521 0.07081268 0.051124994 0.05830606 0.090029016 0.004618851
0.039153226 0.020266641 -0.00056887337 0.092417285 0.07895947 0.06557671 0.014434652 0.039004985
0.03257677 0.017490953 0.00933017 0.027070142 0.060692556 0.073440395 0.047698364 0.06947913
0.05060178 0.008577337 0.047935016 0.023652373 -0.012731153 0.050653547 0.05825516 0.038590897
0.04289823 0.018762477 0.08281104 0.037803717 0.044491936 0.0022346068 0.0437051 0.0054169167
0.022850405 0.023013545 0.06316 0.06277027 0.065288626 0.057351544 -0.0012043111 0.042560738
0.045283496 0.10997874 0.05261601 0.023291485 0.049814474 0.09692663 0.039530117 0.026631918
0.040876333 0.059654716 0.054789234 -0.0005534169 0.07450591 0.03526725 0.035757337 0.019865297
0.03838043 0.008084524 0.04541917 0.022251017 -0.004520018 0.008851501 0.06799507 0.02486994
0.01215648 0.062251963 0.030558195 0.080673546 0.05856349 0.084740505 0.022263933 0.029314354
-0.0076485337 0.027303962 0.033988804 0.093256526 0.060222507 -0.017467696 0.064261384 0.073368266
0.018212872 0.0288729 0.04820327 0.035995618 0.07937793 0.063971646 0.03964674 0.037146695
0.03879611 0.031004615 0.05516007 0.028617049 0.04449392 0.053716883 0.066062644 0.011355383

action_model._discrete_distribution.branches.3.bias f4 [13]
00000000: a16a 31bc 54e9 17bd f456 a63c 2a87 8d3b
00000010: 7b69 a8bc 0f73 f43c cef0 1e3d c85c 45bc
00000020: 428b 153e 34ef 73bd 334e bc3c 4a4d 703c
00000030: 50e7 eb3a
-0.010828645 -0.037087753 0.020305134 0.0043190913 -0.02055811 0.02984002 0.038803868 -0.012046047
0.14603904 -0.059554294 0.022986507 0.014666865 0.0017998014

action_model._discrete_distribution.branches.4.weight f4 [1, 32]
00000000: 0a8d bd3c 40e9 91bc c82f 65bc 09c8 c73c
00000010: b0f9 7b3b 25f3 673c 9f05 c1bc 69f1 0e3c
00000020: ed2d 5dbc 639e e7bb c8d5 75bc 1b05 a23b
00000030: c254 5fbc 67ed 4a3c 6f55 f3bc a32b 463d
00000040: 4ab6 5d3c 6b80 52bc 9d14 f1ba f443 0bbc
00000050: ceaa 143c 2d8b 323c 6b67 3ab9 affd e73c
00000060: 5fb3 25bc 51b1 b4bc 17d9 b03c d6c2 9e3a
00000070: 156c cabc 9d8a 47bb 25eb e93c eb5f 143c
0.023138542 -0.017811418 -0.013988443 0.024387376 0.0038448386 0.014157091 -0.02356225 0.008724549
-0.013499719 -0.0070684417 -0.015004583 0.0049444563 -0.013631048 0.012385703 -0.029703824 0.04838146
0.013532231 -0.012848 -0.0018392984 -0.008500088 0.009073926 0.01089744 -0.00017776868 0.028319208
-0.010113566 -0.022057207 0.021587892 0.0012112509 -0.02470974 -0.003044761 0.028554508 0.009056072

action_model._discrete_distribution.branches.5.weight f4 [4, 32]
00000000: 23d9 0bb8 8ad6 003d ee7e 7bbc 2e98 043c
00000010: 6873 cf3c 5ef7 093c 1ca7 ee3c 2955 3b3d
00000020: 1bd2 323c a4b7 003d 4704 ef3c 2c90 abbc
00000030: 4914 223c 3dfd 81ba ed7c 363c 6d25 633d
00000040: 4238 a23c c74c 8d3b ec17 86bc 2d74 c1bb
00000050: 5040 be3c f1ce f43c 4938 753c cd71 143d
00000060: ecaa af3c e8c3 b43c 0d5a bab9 f8f9 df3c
00000070: 33d3 c33c 788d 203c 1022 91bc b0b4 27bb
00000080: 7afc 52bc 6db8 d33c 3079 1d3a 092e afbc
00000090: 2278 823d e990 e5bc 0522 99bc 90a8 153d
000000a0: 6123 dc3c cced cb3c 53b3 2d3d b9a4 883c
000000b0: 5c9e 4d3b 1fa1 e33a 8c20 553c 406b 953d
000000c0: 1f6d a03b 87dd 3bbc 8db1 173c c77b c8bb
000000d0: 574f ac3b 8ed5 7a3c fd87 873c 431f 073d
000000e0: 76c0 143d ee33 d23b 6cc2 b43c a5f0 99bc
000000f0: a294 053d 6560 b53c 63f2 1c3d ae7a 1e3c
00000100: 786a 83bc d3f4 a73a 7908 183d b4d4 df3c
00000110: 84b4 3c3c 2d6e 023c 4c50 283d 225f 2a3d
00000120: 2261 1c3d 72d0 d73c db4d f73c b4c0 8e3c
00000130: 959e 6b3c 1072 e438 7520 153c e558 f43c
00000140: 6270 79bc c234 fe3b e831 233d aaae 8e3c
00000150: 8bc6 9b3c 761a 863c aa62 c43c 4934 abbc
00000160: addd 233d d3e5 b8bc 7ae9 a03c 3ec0 5b3c
00000170: 0453 e3bb 08e0 93bc efe3 923c 92a5 aa3b
00000180: 86c4 963c 5ba8 b2bc f776 f23c a1ba ff3a
00000190: bd35 3f3d dd3a 573d b5ef 73bc b237 10bd
000001a0: 5c51 853a f5ff 683c f399 eb3a 66be 0d3d
000001b0: f6c1 2b3d 8665 433d e972 033d 4b7a f3bc
000001c0: 9cc8 69bb 8c5c 383c b843 49bd 88b1 203d
000001d0: a49e 3ebb 49de cf3b 1e47 af3c 237f c7bb
000001e0: 7360 293d 7de3 fc3c 294e 9ebc 78c5 773d
000001f0: 25b7 ab3c 80ba 943c 72ca 023c ec14 c53a
-3.3342407e-05 0.0314546 -0.015350087 0.008092923 0.025323585 0.008420793 0.029132418 0.045735512
0.010914351 0.031425133 0.029176844 -0.02094277 0.009892532 -0.000991739 0.011138183 0.055455614
0.019802216 0.004312131 -0.016368829 -0.005903742 0.023224026 0.029883834 0.014967033 0.03624134
0.021443807 0.022066072 -0.00035543778 0.027340874 0.023904419 0.009799354 -0.017716438 -0.0025589876
-0.012877578 0.025844777 0.0006007133 -0.021384256 0.0637057 -0.0280232 -0.01869298 0.036537707
0.026872339 0.024893664 0.042407345 0.016680108 0.0031374907 0.0017366743 0.013008248 0.07295847
0.0048958207 -0.01146639 0.00925864 -0.006118271 0.0052584815 0.0153097045 0.016544336 0.032988798
0.036316358 0.006414882 0.022065364 -0.018791506 0.03261245 0.022140691 0.038317095 0.009672804
-0.01604198 0.0012814052 0.037117455 0.027323104 0.011517648 0.007960838 0.041092202 0.041594632
0.03817857 0.026344512 0.030188492 0.017425872 0.014381071 0.00010893133 0.009101977 0.029827544
-0.015224548 0.007757754 0.039842516 0.01741727 0.019015571 0.01637004 0.023972828 -0.020898955
0.04000633 -0.022570526 0.01964258 0.013412533 -0.0069373865 -0.018051162 0.017930953 0.005207726
0.018404257 -0.021808794 0.029597742 0.0019510576 0.04668211 0.05254637 -0.014888694 -0.035209365
0.0010171342 0.014221181 0.0017974958 0.034605406 0.041933022 0.047704242 0.03209201 -0.0297214
-0.003567255 0.011252534 -0.049136847 0.039231807 -0.0029086256 0.006343637 0.021396216 -0.006088154
0.041351747 0.030870194 -0.019324379 0.060491055 0.020961354 0.018155336 0.007982837 0.0015036142

action_model._discrete_distribution.branches.5.bias f4 [4]
00000000: 22fc d5bc 9893 343c d18a 913c 490f a83c
-0.026121203 0.011021517 0.017766388 0.020515101

action_model._discrete_distribution.branches.6.weight f4 [4, 32]
00000000: 702f 2c3d 8717 dcbb 8854 e43c 1e3e dc3c
00000010: d0c6 273d fce8 223d 9dbe fdbb a554 a93b
00000020: 913a ba3c 5180 a7bc 6435 453d 08cf afbb
00000030: f599 8cbb 4c31 e83c 40d2 a83c f5f8 733b
00000040: 702f 1f3c 3b15 f33b 6cd1 313c 18af 9c3c
00000050: f2d9 033d 72ff 1dbc e17b ab3b 68c4 073d
00000060: ee6a d63a 5e48 9e3c 8143 c0b9 050a 00bd
00000070: 11ef 873c 27d8 a6bc 43b3 3f3d 128b 1ebc
00000080: cc56 263d a06f 663c 7dff c53c 36ce 813b
00000090: e05c 02bd fc5b f8ba 7e81 bdbb 486d 803c
000000a0: 3722 643c d3cf 1f3d 5b02 8bbc 1481 88bb
000000b0: d701 36bc 78c5 73bc 4cd7 a33c 22a4 1bbd
000000c0: 2d78 debb 9954 2c3c eb93 febb 583f 7b3c
000000d0: a2ce 2a3d ff15 273c f6fb 8b3c b012 cb3c
000000e0: 5c10 a63a d6e8 0d3c 92de 853c e455 233c
000000f0: 0309 b63a ade5 7e3d f755 1c3d 6138 49bc
00000100: 29be 073b 49d1 8d3c dd60 41bc aafa 013d
00000110: efe1 433c 9ed9 f43c 53cd 6a3d 2323 733d
00000120: d58a 7c3a d057 0d3d daba e13c c5c6 103b
00000130: d73d e63b 7041 673c 9e6b 8f3c 43ce 2ebc
00000140: 6dd2 a33c 44bb a9bb 7383 6abc 9e53 49bb
00000150: 1636 5b3d 34ac f23a feaf ac3c c5fa 2c3c
00000160: f6fb be3c d082 403d 9d21 7d3c 7d71 183d
00000170: ea0d 773c 32b1 13bb ef2f 523d 8ad8 4c3c
00000180: 52f2 8f3c 235e a2bc 6c7b 9e39 5a3e 853b
00000190: 6061 6d3c 7b78 b9bb 843a 5bbc cd99 3e3d
000001a0: d3d3 003c 8312 fb3b 96d8 223c 408f e23c
000001b0: 0ca3 e63c 5d66 7f3b 045b 64bc 8d70 5a3d
000001c0: aea7 453c 09e9 31ba 4e37 9c3c a21b 333c
000001d0: 0c93 8ebc c222 603c 5d49 cb3c 56d2 9a3c
000001e0: 61c7 d93c 0aca e33b bdad e0ba 01e0 b93c
000001f0: 4d13 2b3b 5649 6d3b cfb9 023d 06c7 d8bb
0.042037427 -0.006716672 0.027872339 0.026885089 0.040961087 0.039772972 -0.00774367 0.005167561
0.022733005 -0.020446928 0.04814662 -0.005365256 -0.004290814 0.02834382 0.020608068 0.0037227247
0.0097159 0.0074183024 0.010853153 0.01912646 0.03219027 -0.009643422 0.0052332734 0.033146292
0.0016358772 0.019321617 -0.00036671388 -0.031259555 0.016593488 -0.020366741 0.046801817 -0.009676712
0.04061012 0.014064699 0.024169678 0.00396135 -0.031826854 -0.0018948312 -0.005783259 0.01567711
0.013924173 0.039016556 -0.016968897 -0.004165778 -0.011108837 -0.014878623 0.020000122 -0.037998326
-0.0067892284 0.0105182165 -0.007769098 0.015334927 0.041700967 0.010198115 0.017087918 0.024789184
0.001266967 0.008661469 0.016341481 0.009969208 0.0013888184 0.062230755 0.03816792 -0.012281508
0.002071271 0.017311709 -0.011802879 0.031733193 0.011955722 0.029888924 0.05732472 0.05935968
0.00096337247 0.034507573 0.027554918 0.0022091132 0.007026415 0.014114723 0.01750737 -0.010669294
0.0199978 -0.0051797945 -0.0143135665 -0.0030720006 0.053518377 0.0018514455 0.021080013 0.010557835
0.023313504 0.046999753 0.015449909 0.037217606 0.015079001 -0.0022536037 0.051315244 0.012502799
0.017571602 -0.019820279 0.00030228065 0.004066271 0.014488548 -0.0056601143 -0.01338065 0.046533395
0.007863003 0.007662119 0.009939333 0.027656198 0.028153919 0.0038970925 -0.013937715 0.053329993
0.012063904 -0.0006786739 0.01906934 0.010931881 -0.017404102 0.013680162 0.024815256 0.018899124
0.02658433 0.006951575 -0.0017141622 0.022689821 0.0026104033 0.0036207042 0.031915482 -0.0066155223

action_model._discrete_distribution.branches.6.bias f4 [4]
00000000: 0c50 043d 6779 803c 0ce4 07bc d5e8 d7bc
0.0323029 0.01568289 -0.008294117 -0.02635614
