Assets/ML-Agents/Models/BattleSystem_poca 2.onnx (onnx, 370157 bytes, 20 tensors)

discrete_act_size_vector f4 [1, 7]
5.0 2.0 5.0 14.0 1.0 4.0 4.0
00000000: 0000 a040 0000 0040 0000 a040 0000 6041
00000010: 0000 803f 0000 8040 0000 8040

network_body.observation_encoder.processors.0.normalizer.running_mean f4 [49]
0.73174924 0.78640324 0.82907104 0.8321127 0.7964817 0.7348713 0.7013316 0.68763644
221.16385 197.2673 198.10983 207.24606 132.44835 216.99947 240.64464 221.04787
213.58278 184.21425 192.61783 176.45494 215.80373 200.66049 219.98216 223.04141
182.42741 127.70968 119.08195 146.31322 0.008630159 0.03227294 0.036221188 0.06572124
0.017809654 0.00490573 0.0062084366 0.012930135 0.033704042 0.029574174 0.03104474 0.026749069
0.028127758 0.053270295 0.062588945 0.056416437 0.078628495 0.014406566 0.013138551 0.019892097
0.0
00000000: eb53 3b3f b951 493f 003e 543f 5705 553f
00000010: 3ae6 4b3f 8720 3c3f 788a 333f f108 303f
00000020: f229 5d43 6e44 4543 1e1c 4643 fe3e 4f43
00000030: c772 0443 ddff 5843 07a5 7043 410c 5d43
00000040: 3195 5543 d936 3843 2a9e 4043 7774 3043
00000050: c1cd 5743 16a9 4843 6ffb 5b43 9a0a 5f43
00000060: 6b6d 3643 5b6b ff42 f529 ee42 2f50 1243
00000070: 8365 0d3c a130 043d ab5c 143d dc98 863d
00000080: 8de5 913c 3fc0 a03b 2470 cb3b ebd8 533c
00000090: 400d 0a3d 8a45 f23c 8a51 fe3c dd20 db3c
000000a0: 2f6c e63c f431 5a3d a22e 803d ec14 673d
000000b0: fa07 a13d 8409 6c3c 1443 573c c0f4 a23c
000000c0: 0000 0000

network_body._body_endoder.seq_layers.0.weight f4 [256, 49]
0.27913794 0.24236989 0.1285707 0.12713356 -0.29505417 0.035974212 -0.10464972 -0.2406712
0.075416856 0.026567452 0.19894393 0.05496681 -0.38373473 -0.018190045 0.103817806 0.24064699
-0.22396046 0.02978647 -0.038352218 -0.12454106 0.18469666 0.15295829 -0.048276976 0.14365622
0.121183224 -0.020642566 0.13496271 -0.33444545 -0.00131799 -0.2523693 -0.020232873 -0.07526316
0.16225298 -0.13578372 -0.227699 0.118231945 0.16760883 -0.15117459 -0.15836495 0.24229378
-0.027724301 -0.08807103 0.08938129 -0.083949424 0.15977877 0.124996506 -0.15016724 -0.16104728
0.09379144 -0.118718915 -0.23689726 0.11490055 -0.005697646 -0.14984907 0.031734213 -0.042006582
0.2583568 -0.08115649 0.1992175 0.11162519 0.064828314 0.026982538 -0.02912543 -0.07828855
-0.10445124 -0.16437908 -0.13955681 -0.38539287 -0.29248345 -0.048196316 0.20492323 -0.023199616
0.1730124 -0.1521936 0.15170008 0.2786739 -0.056597278 -0.09099878 0.12770522 -0.28695863
-0.2524526 -0.16659312 0.43277562 0.4893191 0.23261479 -0.0684643 -0.12527828 0.19413173
-0.027380269 0.16591012 0.0149979675 0.019281032 0.059208732 -0.31073385 -0.12897384 0.1235413
-0.04075921 -0.12072649 0.08371078 -0.027558994 0.15859742 0.08802018 -0.11175749 0.06251162
0.002237031 0.08650702 -0.060221467 0.14040148 -0.19095683 -0.28089347 -0.09784942 -0.14244464
-0.19383526 -0.14128375 0.039756674 0.21046516 -0.2621263 -0.23868217 -0.10131758 0.014693483
0.45107028 -0.026218448 0.00801287 0.032162193 -0.2795189 0.15158974 -0.26895067 0.04347544
-0.042556204 -0.10535105 0.038923997 -0.07095351 -0.14278266 -0.29798427 -0.03985023 0.047742534
0.021968704 -0.14342265 0.102146365 0.07661977 0.16416894 0.08025289 -0.07723863 -0.3641093
0.16959724 -0.28814426 -0.25394735 0.16383107 0.2830872 -0.089130096 0.042292874 -0.10506355
-0.088638976 -0.11338797 -0.07384131 0.12253588 0.022457808 0.1759381 -0.019940801 -0.04956341
-0.06298774 0.120092504 0.08685492 0.07715738 -0.00035230504 0.04565878 0.023798876 0.012954158
-0.20375569 0.119903244 -0.47210148 0.065977804 0.11621558 -0.014095345 -0.23512551 0.042511553
0.05223996 0.3276698 -0.047149852 -0.10253157 0.017810753 -0.16535723 0.08381239 -0.11292962
-0.14091648 0.062504806 -0.18343338 -0.21422067 0.035015065 0.1427455 -0.12143133 0.045504503
0.10822878 0.021390768 0.22152297 -0.2659838 -0.024871875 -0.1850895 0.026043527 -0.0033758802
-0.27230725 -0.150481 -0.03987932 0.27917254 0.39585477 0.286301 -0.07115295 -0.044357024
0.3055405 -0.040002912 0.14110808 0.07561105 -0.18672408 -0.10403674 -0.2743662 -0.05500413
-0.071258366 0.26453063 0.22585377 0.09529644 0.18557243 0.0029884947 -0.09263126 0.43008858
-0.28883955 -0.0027443282 0.14952223 -0.09570245 0.28291407 0.15139394 -0.12136062 0.125043
0.038720038 -0.1458456 -0.18438143 0.15387815 0.0946503 -0.06449846 -0.2261303 0.041983973
0.13503575 0.034135748 0.0023697405 -0.016038997 -0.052199975 0.09330411 -0.12821156 0.04848299
-0.081846304 -0.060452566 -0.08990744 -0.20393921 0.01279647 -0.20465308 0.083211124 -0.15555033
00000000: 2beb 8e3e d02f 783e 0aa8 033e 4d2f 023e
00000010: 5711 97be b259 133d 9852 d6bd 8372 76be
00000020: 2774 9a3d fca3 d93c f5b7 4b3e e124 613d
00000030: e178 c4be 4a03 95bc 6e9e d43d 2a6c 763e
00000040: e455 65be c102 f43c 3717 1dbd 620f ffbd
00000050: 1f21 3d3e 19a1 1c3e 14be 45bd 9e1a 133e
00000060: e92e f83d 991a a9bc aa33 0a3e 6f3c abbe
00000070: 68c0 acba 8d36 81be 69bf a5bc 9223 9abd
00000080: a525 263e e30a 0bbe ed29 69be 9723 f23d
00000090: a6a1 2b3e 83cd 1abe 6c2a 22be dc1b 783e
000000a0: 131e e3bc 965e b4bd 8a0d b73d aded abbd
000000b0: 0c9d 233e 2bfe ff3d 71c5 19be 94e9 24be
000000c0: ba15 c03d e722 f3bd 3295 72be fb50 eb3d
000000d0: 52b3 babb 0972 19be bcfb 013d 180f 2cbd
000000e0: 5847 843e 6035 a6bd acff 4b3e bf9b e43d
000000f0: b5c4 843d 7c0a dd3c 7498 eebc bf55 a0bd
00000100: 88ea d5bd fd52 28be fbe7 0ebe 3752 c5be
00000110: 64c0 95be 8069 45bd 65d7 513e 1f0d bebc
00000120: 2a2a 313e a4d8 1bbe 4457 1b3e 58ae 8e3e
00000130: 8cd2 67bd 925d babd 28c5 023e 3eec 92be
00000140: 7841 81be 6397 2abe c494 dd3e 0888 fa3e
00000150: 9232 6e3e 0337 8cbd f348 00be 78ca 463e
00000160: 964c e0bc 58e4 293e 09ba 753c 41f3 9d3c
00000170: db84 723d 8218 9fbe b811 04be 3903 fd3d
00000180: 21f3 26bd 733f f7bd 8f70 ab3d 66c3 e1bc
00000190: 5d67 223e ed43 b43d 1ce1 e4bd 1806 803d
000001a0: 279b 123b 982a b13d c9aa 76bd 68c5 0f3e
000001b0: 308a 43be 45d1 8fbe 4765 c8bd 02dd 11be
000001c0: c07c 46be b0ac 10be e5d7 223d 2e84 573e
000001d0: 6b35 86be 1969 74be 977f cfbd efbc 703c
000001e0: aff2 e63e 12c8 d6bc 6a48 033c 81bc 033d
000001f0: 1a1d 8fbe 573a 1b3e e7b3 89be 4e13 323d
00000200: 6a4f 2ebd 4bc2 d7bd c56e 1f3d 1350 91bd
00000210: 9e35 12be 6591 98be ff39 23bd ad8d 433d
00000220: b6f7 b33c 63dd 12be 1d32 d13d d3ea 9c3d
00000230: e71b 283e a15b a43d 492f 9ebd 896c babe
00000240: e6aa 2d3e a587 93be 6305 82be 55c3 273e
00000250: cef0 903e d789 b6bd 4b3b 2d3d 8f2b d7bd
00000260: 5a88 b5bd f437 e8bd 1d3a 97bd 17f4 fa3d
00000270: 70f9 b73c 1e29 343e e45a a3bc 0103 4bbd
00000280: b7ff 80bd 0ff3 f53d fee0 b13d b004 9e3d
00000290: 95b5 b8b9 b304 3b3d dcf5 c23c ad3d 543c
000002a0: 55a5 50be d58f f53d 49b7 f1be 5f1f 873d
000002b0: 6f02 ee3d 29f0 66bc bec4 70be 9820 2e3d
000002c0: 91f9 553d 56c4 a73e 3420 41bd 12fc d1bd
000002d0: dbe7 913c 6853 29be d5a5 ab3d a547 e7bd
000002e0: 694c 10be 8502 803d f6d5 3bbe aa5c 5bbe
000002f0: f56b 0f3d e02b 123e fdb0 f8bd ee62 3a3d
00000300: 0da7 dd3d b13b af3c ebd6 623e 072f 88be
00000310: 1ac0 cbbc 1a88 3dbe 3c59 d53c df3d 5dbb
00000320: db6b 8bbe b117 1abe 7f58 23bd b4ef 8e3e
00000330: 7aad ca3e 0b96 923e a3b8 91bd b6af 35bd
00000340: ce6f 9c3e 18da 23bd a37e 103e f7d9 9a3d
00000350: 9934 3fbe 3711 d5bd ba79 8cbe 034c 61bd
00000360: e8ef 91bd 8f70 873e 3646 673e c82a c33d
00000370: b306 3e3e 9fda 433b 75b5 bdbd 9234 dc3e
00000380: c7e2 93be 30da 33bb 5b1c 193e a5ff c3bd
00000390: 1dda 903e 0307 1b3e eb8b f8bd 460b 003e
000003a0: e798 1e3d 8d58 15be 7cce 3cbe 3c92 1d3e
000003b0: 04d8 c13d c517 84bd b48e 67be 63f7 2b3d
000003c0: d046 0a3e edd1 0b3d a64d 1b3b 3764 83bc
000003d0: a4cf 55bd 3a16 bf3d e449 03be 1a96 463d
000003e0: 099f a7bd 1c9d 77bd 6421 b8bd 71d5 50be
000003f0: 49a8 513c 9490 51be 986a aa3d 9648 1fbe

network_body._body_endoder.seq_layers.0.bias f4 [256]
0.14118776 0.007921402 -0.085325845 -0.006129344 0.03206069 -0.02570535 0.023715539 0.044254776
0.056963697 -0.050305378 0.070544615 0.063590705 0.020313418 0.023463825 -0.022836283 0.06844181
0.0134412255 -0.036124885 0.06772428 0.0051533203 0.02778621 0.0157878 0.07695502 -0.03582009
-0.0023894736 0.01756506 -0.14810231 -0.031843025 0.037252285 0.0153213795 0.007421237 0.043894015
0.037497763 0.090543 0.02306595 -0.075515404 0.042500284 0.08167113 -0.002970338 -0.002551083
-0.00029161453 0.1046723 -0.038525045 0.06312183 0.06495969 0.028944371 -0.01149438 0.03829495
0.009865883 0.06973735 0.08785559 -0.0058490923 -0.0014497811 0.13078289 -0.010321009 0.0860124
-0.003471606 0.050231226 -0.02157999 0.07197464 -0.007733205 -0.00029214023 0.03989148 -0.015185397
0.013714636 0.024885727 0.04687679 0.053530015 0.052508045 0.008700499 0.0037007828 0.07928336
0.062111225 -0.0051031923 0.12672836 0.031224886 0.057882816 0.02306176 0.13242854 -0.0063162306
0.012245549 0.012112967 -0.0389451 0.053748965 -0.0059101745 0.04870651 0.023338994 0.041594993
0.08866558 0.13430272 -0.003391344 -0.036837302 0.060880236 0.005966718 0.056106403 0.044770934
-0.01862028 0.004478018 -0.021740258 0.037697114 -0.007913817 -0.0076686926 0.07735576 -0.049171567
0.07220088 0.062830396 0.041705165 -0.0131831905 0.01846259 -0.065353 0.052167032 0.023087773
0.04702544 -0.04453745 0.036834735 0.045698013 -0.023654096 0.10103122 -0.024643593 0.041953515
0.0902845 0.048413873 0.0399392 0.087219805 0.061478823 0.01846368 0.06998166 -0.071923666
0.028090091 0.06564744 0.09849462 -0.027154567 0.079815805 -0.01531003 -0.049651057 0.060913544
-0.044013772 -0.008743473 -0.0038121955 0.04614473 0.03418716 0.07450533 0.059708234 -0.009171875
-0.037194222 -0.098021306 0.12689273 -0.0023394967 0.02706467 -0.011592026 -0.014038242 0.04262779
-0.024532607 0.012148254 0.09800056 -0.021216797 0.030973867 0.09636807 0.002822668 0.0016940788
0.03854826 -0.027458182 0.028878562 -0.028012311 0.042338323 0.08926583 0.021778213 -0.03754052
0.020471187 0.094887175 0.020169923 -0.0796412 0.03324646 0.040686212 -0.007371803 0.03588908
0.07840766 0.040799063 0.062235266 0.010330544 0.039229993 0.024815714 0.06386625 0.016883325
0.040630266 0.088691704 -0.02566312 0.06031575 0.053615045 0.008097047 -0.010202686 -0.08986807
0.084017485 0.018071976 -0.057821795 0.048981797 0.009006644 0.00868216 0.011547859 0.02052156
-0.008389688 0.05144454 0.006271178 0.057301972 0.11391824 0.012637784 0.010043302 -0.007180868
0.03747496 0.0051818704 0.056798488 0.016411602 0.029940613 -0.06687384 -0.019013632 0.0956828
-0.0113443425 0.08858047 0.019684514 0.097161785 0.09275848 0.020886194 -0.013962909 0.007583182
0.04763551 0.040132727 0.052410115 0.07852369 -0.01593753 -0.033354647 0.058073282 0.03151729
-0.013389256 0.09016392 -0.027789515 0.124767646 0.0016113871 0.026465897 -0.017565422 0.08444374
-0.0005399595 0.047402084 0.050068263 0.0657349 -0.010289862 0.06712794 -0.015129519 -0.002653782
0.03345859 0.053228725 0.011986173 0.025033675 0.10908291 0.077771634 -0.0045388876 0.039751533
00000000: 8693 103e c5c8 013c 51bf aebd aad8 c8bb
00000010: 1252 033d 0794 d2bc 1747 c23c 7f44 353d
00000020: c452 693d 030d 4ebd b279 903d d83b 823d
00000030: 5368 a63c 3537 c03c 2813 bbbc 382b 8c3d
00000040: 9638 5c3c b0f7 13bd 07b3 8a3d 2fdd a83b
00000050: e89f e33c 6b55 813c 989a 9d3d 16b8 12bd
00000060: b798 1cbb 9ae4 8f3c 22a8 17be d56d 02bd
00000070: da95 183d 8606 7b3c d92d f33b 36ca 333d
00000080: 4197 193d 9c6e b93d cef4 bc3c d2a7 9abd
00000090: c714 2e3d 3243 a73d 01aa 42bb 1230 27bb
000000a0: d7e3 98b9 6e5e d63d 70cc 1dbd 0546 813d
000000b0: 9609 853d bf1c ed3c ed52 3cbc 2adb 1c3d
000000c0: 83a4 213c 75d2 8e3d a2ed b33d bea9 bfbb
000000d0: 9506 beba f3eb 053e 7319 29bc 4527 b03d
000000e0: e283 63bb 42bf 4d3d 85c8 b0bc 7167 933d
000000f0: d366 fdbb 662a 99b9 4065 233d 2ccc 78bc
00000100: 5ab3 603c 27dd cb3c e001 403d 4a42 5b3d
00000110: ad12 573d 8a8c 0e3c d588 723b 505f a23d
00000120: 5768 7e3d ae38 a7bb 14c5 013e 55cb ff3c
00000130: 8816 6d3d 04ec bc3c 599b 073e 62f8 cebb
00000140: 8ea1 483c 7775 463c e684 1fbd e027 5c3d
00000150: 23aa c1bb 7a80 473d 6b31 bf3c 835f 2a3d
00000160: 4d96 b53d a786 093e 5041 5ebb b6e2 16bd
00000170: 8e5d 793d 7584 c33b d4cf 653d ba61 373d
00000180: 8f89 98bc 56bc 923b a018 b2bc 4a68 1a3d
00000190: f4a8 01bc a849 fbbb b26c 9e3d 2068 49bd
000001a0: 0ede 933d 39ad 803d 09d3 2a3d 4ffe 57bc
000001b0: dc3e 973c cbd7 85bd 19ad 553d 9222 bd3c
000001c0: bf9d 403d e76c 36bd 05e0 163d d72d 3b3d
000001d0: 3cc6 c1bc 75e9 ce3d 5ce1 c9bc 73d7 2b3d
000001e0: 14e7 b83d a04d 463d 4997 233d 4ca0 b23d
000001f0: 38d1 7b3d 2541 973c 8b52 8f3d b74c 93bd
00000200: 311d e63c 2a72 863d 8cb7 c93d 4173 debc
00000210: 7876 a33d ecd6 7abc e85e 4bbd 7b80 793d
00000220: c947 34bd c940 0fbc 07d6 79bb 4202 3d3d
00000230: d607 0c3d 4096 983d 9f90 743d a245 16bc
00000240: f858 18bd 65bf c8bd 2bf0 013e 3e52 19bb
00000250: bab6 dd3c 7bec 3dbc a800 66bc 7a9a 2e3d
00000260: 9bf8 c8bc 7809 473c 85b4 c83d d9ce adbc
00000270: e8bc fd3c 9f5c c53d 83fc 383b da0b de3a
00000280: c8e4 1d3d fbef e0bc bc92 ec3c 137a e5bc
00000290: f36a 2d3d 01d1 b63d 3968 b23c 17c4 19bd
000002a0: 31b3 a73c 3554 c23d 653b a53c ed1a a3bd
000002b0: 712d 083d 96a6 263d 2a8f f1bb 6e00 133d
000002c0: 3294 a03d eb1c 273d 68ea 7e3d 7141 293c
000002d0: a1af 203d 534a cb3c 4fcc 823d e64e 8a3c
000002e0: ec6b 263d ffa3 b53d 773b d2bc a60d 773d
000002f0: 739b 5b3d 7aa9 043c 2b29 27bc c00c b8bd
00000300: 5c11 ac3d ae0b 943c 8cd6 6cbd 23a1 483d
00000310: 9a90 133c 9e3f 0e3c 3b33 3d3c d51c a83c
00000320: e774 09bc 83b7 523d 747e cd3b 79b5 6a3d
00000330: f74d e93d b50e 4f3c a98c 243c 7d4d ebbb
00000340: 587f 193d aecc a93b 88a5 683d a071 863c
00000350: 0446 f53c 27f5 88bd 7ac2 9bbc 58f5 c33d
00000360: 9fdd 39bc ad69 b53d 6b41 a13c c2fc c63d
00000370: 28f8 bd3d 8619 ab3c afc4 64bc 577c f83b
00000380: 741d 433d 3762 243d fdab 563d 07d1 a03d
00000390: 6c8f 82bc e29e 08bd 40de 6d3d 4618 013d
000003a0: 9c5e 5bbc dca7 b83d d6a6 e3bc 2e86 ff3d
000003b0: 2e35 d33a 02cf d83c 5ce5 8fbc d7f0 ac3d
000003c0: 128c 0dba b028 423d 6114 4d3d 05a0 863d
000003d0: cf96 28bc 607a 893d cde1 77bc 13eb 2dbb
000003e0: e00b 093d 5d06 5a3d a761 443c 6c13 cd3c
000003f0: dc66 df3d bc46 9f3d f3ba 94bb 81d2 223d

network_body._body_endoder.seq_layers.2.weight f4 [256, 256]
-0.032402154 0.07689391 -0.032873284 -0.12079195 0.04738232 -0.012803656 -0.020506693 -0.14828828
0.11165062 -0.13551314 -0.0867751 0.030548658 0.016878845 -0.0061406493 -0.041956425 0.0030837131
0.029932939 -0.06143706 0.22274265 -0.017722305 0.23506752 -0.0014234679 -0.044907622 -0.07332576
-0.032429338 -0.020238971 0.0006955417 0.006291836 0.018434325 -0.053649437 -0.02023762 -0.016869282
0.19374529 0.1023976 0.06919738 0.07690383 -0.12664968 -0.05948856 -0.06505997 0.04287102
-0.039620493 0.08193389 0.014783521 0.029501742 -0.009087832 0.17140718 0.09155203 -0.05446817
-0.012662856 -0.012583015 -0.056668293 0.09349461 -0.032016147 0.068101436 0.011093122 -0.06105766
-0.06508985 0.07077634 -0.037095174 -0.11787205 -0.023315592 0.0130260475 -0.05590574 -0.14539878
-0.08942297 0.00089807407 -0.022807142 -0.046029147 0.054064788 0.09152069 0.016216962 0.069044046
0.016301874 0.02078261 0.055290557 -0.24966314 -0.03364362 -0.06229593 -0.15537041 0.060397502
0.0052890526 -0.098175436 -0.13555598 0.08489926 0.07657461 -0.049371287 0.056026604 -0.008329496
-0.107454605 -0.1120537 0.0326145 -0.052648474 0.026768278 0.17282496 -0.13763213 -0.010563647
0.07692213 0.012634782 -0.040655036 -0.036331195 0.002373823 -0.0070205494 -0.14508171 -0.18680175
-0.01774331 -0.08840318 0.14642596 0.07604182 -0.15831214 -0.05318945 0.057574555 -0.107005894
0.01694059 -0.13548464 -0.12874524 0.038092155 -0.0646699 -0.05261643 -0.004978045 -0.08744574
-0.12190785 0.025035836 -0.010213476 0.09113273 -0.011059262 0.1328339 -0.039502192 -0.047732115
-0.22552328 -0.019676011 -0.08843034 -0.16263425 -0.16553877 -0.0142532345 -0.019940335 -0.023943834
-0.015250779 0.07744808 -0.027294759 -0.17769861 -0.13996215 -0.01982744 0.11939076 -0.12335405
-0.06722315 -0.0800594 -0.0466476 -0.082584 0.0026928058 -0.13742995 -0.11908177 0.028874664
-0.0028270213 -0.1243985 -0.10234227 -0.0011489952 0.035635676 0.20981379 0.065780416 -0.09155834
0.15598857 -0.07569384 -0.007994025 0.18469182 -0.09711637 -0.091525644 -0.041453782 0.15497024
0.15287904 0.06458624 0.07377096 0.102894954 -0.10545025 0.047897253 0.01920617 0.012023703
-0.074173935 -0.059211556 -0.010958967 0.060547274 -0.035701014 -0.10000063 -0.03446216 -0.14425771
0.092179954 0.079622336 -0.0046294234 0.08602659 0.008273798 0.07898343 -0.27337447 0.09351541
-0.071152955 0.02658019 0.16715378 -0.05086014 -0.0076114587 -0.06298469 -0.048864648 0.09029379
0.066327214 -0.118282855 0.066613026 -0.05903342 -0.07803914 -0.077895656 0.077163726 0.040448584
0.22033443 0.010935289 0.06478371 -0.016917398 -0.0063614408 0.13293977 -0.041604403 0.07489493
-0.10773628 0.05351642 0.24125452 0.0031531316 -0.0049572526 0.0503174 -0.19742781 -0.28705832
0.038297817 0.10744759 0.005396223 -0.014124019 -0.086103566 -0.046154376 0.16581483 -0.028588722
-0.04364851 -0.2244176 -0.0077177007 -0.102524675 -0.048571017 -0.03693958 0.026455605 -0.19837333
-0.041178044 0.034173157 0.01968977 -0.029802794 -0.013237591 0.022983292 0.0408926 0.061118383
0.05634511 0.023004696 -0.05888506 -0.16295487 0.014562915 -0.075120255 0.11416137 -0.029083638
00000000: 1fb8 04bd 8e7a 9d3d 23a6 06bd c561 f7bd
00000010: f713 423d 6dc6 51bc a7fd a7bc e2d8 17be
00000020: 15a9 e43d f5c3 0abe 25b7 b1bd 2e41 fa3c
00000030: 8145 8a3c 8037 c9bb 80da 2bbd 1f18 4a3b
00000040: ec35 f53c 6da5 7bbd a616 643e 5e2e 91bc
00000050: 8ab5 703e a893 baba 0ef1 37bd d12b 96bd
00000060: a0d4 04bd 33cc a5bc 0355 363a bf2b ce3b
00000070: 9503 973c 83bf 5bbd 5ec9 a5bc 7331 8abc
00000080: 2a65 463e d5b5 d13d 5bb7 8d3d c17f 9d3d
00000090: 74b0 01be 47aa 73bd 293e 85bd 8699 2f3d
000000a0: 1949 22bd f5cc a73d 9536 723c a3ad f13c
000000b0: 21e5 14bc 5d85 2f3e a17f bb3d 041a 5fbd
000000c0: de77 4fbc fd28 4ebc 031d 68bd 1a7a bf3d
000000d0: 5d23 03bd c478 8b3d edbf 353c 9917 7abd
000000e0: d44d 85bd 30f3 903d 1cf1 17bd e766 f1bd
000000f0: 5700 bfbc 346b 553c 6bfd 64bd 6be3 14be
00000100: 6423 b7bd bb6c 6b3a 0bd6 babc 0f89 3cbd
00000110: 0a73 5d3d 336f bb3d 6fd9 843c f766 8d3d
00000120: 828b 853c 4b40 aa3c 5a78 623d b2a7 7fbe
00000130: e4cd 09bd 042a 7fbd 6c19 1fbe 5f63 773d
00000140: ca4f ad3b 3410 c9bd 30cf 0abe aadf ad3d
00000150: 26d3 9c3d 8c39 4abd 277c 653d 7078 08bc
00000160: 2911 dcbd 697c e5bd c896 053d eda5 57bd
00000170: 2649 db3c 07f9 303e 70ef 0cbe 2613 2dbc
00000180: 5a89 9d3d 1e02 4f3c e585 26bd 05d0 14bd
00000190: 2492 1b3b a30c e6bb 4d90 14be f548 3fbe
000001a0: 6b5a 91bc ba0c b5bd b0f0 153e d0bb 9b3d
000001b0: 941c 22be 2edd 59bd 4cd3 6b3d e825 dbbd
000001c0: fec6 8a3c 7cbc 0abe cbd5 03be 8506 1c3d
000001d0: a771 84bd 5384 57bd de1e a3bb c116 b3bd
000001e0: d3aa f9bd f417 cd3c 6c56 27bc cca3 ba3d
000001f0: e831 35bc 9c05 083e 0dcd 21bd c082 43bd
00000200: 93ef 66be 962f a1bc f71a b5bd 9889 26be
00000210: ff82 29be 6686 69bc ea59 a3bc dc25 c4bc
00000220: 67de 79bc 199d 9e3d 4299 dfbc a0f6 35be
00000230: 3d52 0fbe 286d a2bc 2583 f43d 0ca1 fcbd
00000240: 4aac 89bd 2ff6 a3bd 8e11 3fbd cd21 a9bd
00000250: c979 303b 70ba 0cbe 25e1 f3bd 8f8a ec3c
00000260: 8c45 39bb a4c4 febd d398 d1bd e299 96ba
00000270: b7f6 113d 6dd9 563e e2b7 863d f082 bbbd
00000280: 78bb 1f3e 5f05 9bbd 5ff9 02bc da1f 3d3e
00000290: f3e4 c6bd cc71 bbbd 71cb 29bd 85b0 1e3e
000002a0: 538c 1c3e ca45 843d 3b15 973d 97ba d23d
000002b0: 4df6 d7bd e92f 443d 4256 9d3c 11ff 443c
000002c0: 81e8 97bd d187 72bd 3d8d 33bc 6b00 783d
000002d0: 3a3b 12bd 21cd ccbd 3228 0dbd 4bb8 13be
000002e0: d8c8 bc3d 0911 a33d 6bb2 97bb b52e b03d
000002f0: d38e 073c 11c2 a13d bdf7 8bbe 0285 bf3d
00000300: a4b8 91bd b3be d93c 5c2a 2b3e b952 50bd
00000310: 8b69 f9bb 1efe 80bd 4c26 48bd f3eb b83d
00000320: 90d6 873d 483e f2bd 696c 883d 07cd 71bd
00000330: fcd2 9fbd c287 9fbd 0408 9e3d 6aad 253d
00000340: 599f 613e ed29 333c 52ad 843d 5b96 8abc
00000350: a273 d0bb 5d21 083e 6169 2abd 8362 993d
00000360: d7a4 dcbd 0934 5b3d 6d0b 773e c5a4 4e3b
00000370: 7370 a2bb 9e19 4e3d 842a 4abe 4ff9 92be
00000380: 2cde 1c3d 7b0d dc3d cdd2 b03b 6e68 67bc
00000390: 1157 b0bd 5f0c 3dbd 5dcb 293e e532 eabc
000003a0: c8c8 32bd bacd 65be c4e4 fcbb 75f8 d1bd
000003b0: 67f2 46bd f54d 17bd 6db9 d83c 6122 4bbe
000003c0: 4faa 28bd 27f9 0b3d 714c a13c fd24 f4bc
000003d0: 7be2 58bc 7547 bc3c 007f 273d 4557 7a3d
000003e0: 21ca 663d 5874 bc3c 7631 71bd a4dd 26be
000003f0: 4b99 6e3c a6d8 99bd 70cd e93d cf40 eebc

network_body._body_endoder.seq_layers.2.bias f4 [256]
0.015359274 0.04292135 -0.052186232 -0.015234192 0.025957823 0.021174923 -0.065019116 0.053286515
0.034894045 -0.0063533457 0.045442 0.0024655797 -0.031756107 0.059976105 -0.02105673 0.022998508
-0.04507414 -0.04380836 -0.00883363 -0.010122984 0.0730229 0.0349741 -0.010234199 -0.050539862
0.04669586 -0.039139684 0.064872034 -0.066434965 0.01938074 -0.036323678 -0.024310132 -0.015587344
-0.043820955 0.0153288 -0.02747891 0.06152005 -0.03156294 0.013929756 0.0200104 -0.052347977
0.027604533 -0.036012165 0.066662155 -0.04642893 0.023246316 -0.007845378 -0.071024776 0.055474345
0.014634877 0.0015017545 0.045378394 -0.029354915 0.020010322 0.037544757 0.076610394 -0.028252844
0.007710496 -0.029032724 -0.00034709505 0.0078086536 -0.048102967 -0.05408921 0.04334051 -0.016219065
-0.006076683 -0.08441838 0.045656644 0.047593262 -0.07695352 -0.013409427 -0.048162777 0.04499627
0.036248323 0.020069435 0.024273181 0.060393915 -0.036564056 0.02749681 -0.034944933 0.058786254
0.06260955 -0.049827475 0.026993869 0.016222421 0.026842883 0.019650986 -0.027300134 -0.017953198
0.0670762 -0.027404467 0.011146724 0.05498058 -0.006458299 0.022528164 -0.022943553 0.054211527
0.024125839 0.02197901 -0.025270479 -0.041733157 -0.021783939 -0.07052587 -0.052360635 -0.009785126
-0.02402793 0.038379565 -0.009252269 -0.035874564 -0.049476802 0.020579418 -0.028817926 0.029321257
-0.027098788 0.051635355 -0.02850923 -0.07479723 -0.06157514 0.010616738 0.0053392705 -0.028320868
-0.011073262 0.052306693 0.0074260468 -0.0010155026 0.00022746531 0.021513982 0.006960087 0.054770447
-0.0233966 -0.0003766516 0.003661193 -0.08095331 0.009853474 -0.01600178 -0.040098865 0.045088824
-0.027817741 -0.084243044 0.0080365725 0.020309748 -0.022990817 -0.051347714 -0.035250477 0.020022089
0.0912947 0.0057368223 -0.030617561 -0.06462261 0.028788216 0.0005944113 0.057879724 -0.020840807
0.022986408 -0.036523633 0.011322914 0.060007107 -0.003157709 -0.09480756 -0.033293504 -0.012159086
0.054423742 -0.008187839 -0.0050428943 0.054152615 0.019127043 0.02652706 -0.016072446 0.028442578
0.01518888 0.05958779 0.03040494 -0.026973786 0.010099475 -0.06066619 0.025327612 -0.03706887
0.06777527 -0.0041752625 -0.0034924971 0.026132764 -0.01388509 -0.024860667 0.08159469 0.009432189
0.041291613 -0.005612791 -0.057732183 0.012880508 0.03189705 0.008073612 0.010081041 -0.020230988
0.02666157 0.021659974 0.07440045 0.059199482 0.045157954 0.017354509 0.00411552 -0.032481417
-0.06804709 0.034469243 -0.062176958 0.070127234 -0.020050224 -0.074196704 -0.0015074008 -0.025825914
-0.026093628 0.06115126 0.04493372 0.09524547 -0.044290483 -0.0101381885 0.011718482 0.0048260726
0.0045732083 -0.00044167766 0.058346782 0.050202493 0.03444627 0.011574509 -0.03967641 0.024211362
0.029397115 -0.08435347 -0.051332165 -0.012730294 -0.066786215 -0.06226153 -0.014798393 -0.035518464
-0.07790491 0.08028939 -0.041202236 0.03275103 -0.041133087 0.02928888 -0.029331576 -0.07352841
-0.024886632 0.032443512 0.022709418 -0.012867058 -0.0030769014 -0.03448959 -0.019162506 0.023387304
-0.00952558 0.026331073 -0.0095286425 -0.04961113 -0.04832012 0.003074633 0.093673065 -0.000893814
00000000: 77a5 7b3c 4cce 2f3d 3bc1 55bd d598 79bc
00000010: 80a5 d43c 0877 ad3c be28 85bd f642 5a3d
00000020: 0fed 0e3d ba2f d0bb 6421 3a3d 9095 213b
00000030: b112 02bd 81a9 753d 2a7f acbc 5e67 bc3c
00000040: a99f 38bd 6570 33bd eeba 10bc dfda 25bc
00000050: 088d 953d 0041 0f3d 58ad 27bc e302 4fbd
00000060: 2844 3f3d ef50 20bd a1db 843d 0e0f 88bd
00000070: 5cc4 9e3c 23c8 14bd 0b26 c7bc 0f62 7fbc
00000080: 9a7d 33bd a625 7b3c 731b e1bc 73fc 7b3d
00000090: 2448 01bd a239 643c daec a33c d56a 56bd
000000a0: e722 e23c 7e81 13bd 2b86 883d 432c 3ebd
000000b0: 0f6f be3c e689 00bc 7075 91bd 1139 633d
000000c0: 20c7 6f3c 85d6 c43a b2de 393d b879 f0bc
000000d0: b0ec a33c 88c8 193d e9e5 9c3d 8272 e7bc
000000e0: 54a8 fc3b 09d6 edbc 4ffa b5b9 bcdf ff3b
000000f0: 9e07 45bd a68c 5dbd d285 313d d8dd 84bc
00000100: e91e c7bb 8be3 acbd 7602 3b3d 27f1 423d
00000110: cf99 9dbd 37b3 5bbc 5546 45bd 024e 383d
00000120: 1f79 143d a868 a43c 8dd8 c63c 9c5f 773d
00000130: 31c4 15bd fd40 e13c 6b22 0fbd dbc9 703d
00000140: 7039 803d e517 4cbd 3f22 dd3c e2e4 843c
00000150: 9be5 db3c 1bfb a03c 88a4 dfbc 9612 93bc
00000160: 3f5f 893d 557f e0bc c0a0 363c 5133 613d
00000170: 23a0 d3bb fc8c b83c 1ef4 bbbc e80c 5e3d
00000180: 8da3 c53c 530d b43c 0904 cfbc 63f0 2abd
00000190: 3b74 b2bc de6f 90bd 1b78 56bd cb51 20bc
000001a0: 39d6 c4bc e433 1d3d d496 17bc 35f1 12bd
000001b0: 30a8 4abd 2b96 a83c 9213 ecbc 2233 f03c
000001c0: 47fe ddbc 987f 533d 308c e9bc 4a2f 99bd
000001d0: 3736 7cbd d4f1 2d3c 0cf5 ae3b 2a01 e8bc
000001e0: a16c 35bc 8b3f 563d 3256 f33b 9d1a 85ba
000001f0: c183 6e39 173e b03c 7111 e43b fa56 603d
00000200: 3aaa bfbc 5279 c5b9 a0f0 6f3b d9ca a5bd
00000210: 7770 213c 2a16 83bc b53e 24bd 0faf 383d
00000220: 08e2 e3bc 9e87 acbd d4ab 033c a160 a63c
00000230: 3d57 bcbc fb51 52bd ce62 10bd 5d05 a43c
00000240: b7f8 ba3d f4fb bb3b aed1 fabc dc58 84bd
00000250: 44d5 eb3c 44d2 1b3a 4a13 6d3d 57ba aabc
00000260: fe4d bc3c ce99 15bd be83 393c 03ca 753d
00000270: 91f1 4ebb 772a c2bd c55e 08bd e736 47bc
00000280: 6eeb 5e3d 4926 06bc dd3e a5bb 22cf 5d3d
00000290: 51b0 9c3c 474f d93c 5daa 83bc 6900 e93c
000002a0: c8da 783c 5412 743d c813 f93c 21f8 dcbc
000002b0: 4578 253c 1c7d 78bd da7b cf3c 87d5 17bd
000002c0: c3cd 8a3d a4d0 88bb 61e2 64bb 6114 d63c
000002d0: 4a7e 63bc 99a8 cbbc 1e1b a73d 7889 1a3c
000002e0: 6521 293d 81eb b7bb 9578 6cbd c408 533c
000002f0: 7ba6 023d 2f47 043c f32a 253c 75bb a5bc
00000300: 5d69 da3c 4270 b13c 435f 983d 287b 723d
00000310: 8cf7 383d 0b2b 8e3c 7cdb 863b 3c0b 05bd
00000320: 465c 8bbd 9f2f 0d3d 44ad 7ebd de9e 8f3d
00000330: 5e40 a4bc 71f4 97bd fa93 c5ba de90 d3bc
00000340: 4ec2 d5bc be79 7a3d 6c0c 383d 0f10 c33d
00000350: f069 35bd a51a 26bc e0fe 3f3c 0824 9e3b
00000360: dada 953b f990 e7b9 09fd 6e3d 21a1 4d3d
00000370: 8817 0d3d 02a3 3d3c bb83 22bd e856 c63c
00000380: 38d2 f03c 83c1 acbd ad41 52bd b992 50bc
00000390: 36c7 88bd f205 7fbd f574 72bc cf7b 11bd
000003a0: 9c8c 9fbd c46e a43d adc3 28bd f225 063d
000003b0: 2b7b 28bd 3cef ef3c c648 f0bc 1096 96bd
000003c0: 0ddf cbbc 7de3 043d 1a09 ba3c 5ad0 52bc
000003d0: d7a5 49bb f544 0dbd b0fa 9cbc bb96 bf3c
000003e0: 2e11 1cbc 43b4 d73c 061e 1cbc 0a35 4bbd
000003f0: 51eb 45bd c87f 493b aad7 bf3d d84e 6aba

action_model._discrete_distribution.branches.0.weight f4 [5, 256]
-0.004328653 0.028360743 0.09009687 0.014870054 0.03873992 -0.021289352 0.05993273 -0.010081162
-0.032615636 -0.0645313 0.15062228 -0.053514477 0.0039328095 0.0034302461 -0.057415117 -0.0370371
0.027619828 0.015613802 -0.017056488 -0.07262279 -0.017281748 0.037076965 0.0012369631 0.021650793
0.038018744 -0.03623228 0.010838929 -0.005517869 -0.10376324 -0.04070227 0.016798867 -0.0038808528
0.024993654 0.007646978 -0.087082274 0.035367373 0.03965021 -0.032789133 -0.03664691 -0.008195504
0.018568294 0.010082968 -0.07946599 0.06331649 0.010139539 0.034546364 -0.014387203 0.062310807
-0.030057412 -0.009899849 0.008650714 -0.031487167 -0.040790975 0.08447777 -0.036961123 0.011761316
-0.009608032 0.010104506 -0.011440184 -0.0013326699 0.14145747 0.06798075 0.07801469 -0.040301453
-0.040838875 -0.011067084 0.07796429 -0.020717198 -0.02040985 0.027464157 0.062510975 0.07708546
-0.02373506 0.05993934 -0.053975202 -0.09979382 0.07151072 0.012905199 -0.0076052085 -0.022560392
-0.0049415976 0.03525841 0.08067051 0.15055518 0.026779806 -0.04502089 -0.0057353666 0.059419554
-0.011573561 0.025190745 0.077059165 -0.0010093882 0.032799374 -0.0098409625 0.034635324 0.028859984
0.005972906 0.027538285 -0.044528145 0.0514359 0.005799994 0.10834177 -0.007254237 -0.10432917
-0.008876759 0.0057709445 -0.027689775 -0.006163875 -0.052136175 0.015908519 -0.07135157 -0.013262308
0.001772839 -0.045054074 -0.0687054 0.0033049488 0.014080052 0.0056835213 0.041753624 0.096801415
-0.009911718 -0.0089912275 0.0098387 0.071133085 -0.04837854 -0.018355967 0.03184813 0.022195147
-0.039174557 0.039073862 -0.08437879 0.009275338 0.005711642 -0.02424954 0.0550579 0.01659075
0.00058483554 0.02159108 0.073152035 -0.13910443 0.011121931 -0.017799595 -0.037466113 -0.0023762244
-0.020530779 0.020341786 0.06366905 -0.08204922 -0.0015451113 -0.02966835 0.07356997 0.028327895
-0.02336376 0.098436594 0.034644898 0.0005977119 -0.014336553 0.069641575 0.049786657 -0.055765007
-0.036674973 -0.013849703 -0.0009217404 0.03890619 0.026237817 -0.006901262 -0.14414223 0.04705491
0.051074255 0.034908716 0.03592565 -0.0514522 -0.019462643 0.057602555 0.025958667 -0.02984069
0.010029469 -0.033582687 -0.06023284 0.034838166 0.018987112 0.008609624 0.009002782 0.020238865
0.018810134 0.02468621 0.090444334 0.0072108298 0.10139867 0.026263215 0.0453504 0.017369306
0.08445534 -0.0464329 0.00059856626 -0.09005136 0.055130098 -0.013676222 -0.025963305 0.053252604
0.059111238 0.022935227 0.0068070586 -0.023806471 0.09837666 0.01270937 0.065763846 0.1162125
0.018658243 -0.012204429 0.048532564 0.0142521225 0.006897687 0.11098022 -0.038878944 0.0021501407
0.067208 0.14908084 0.10704117 0.0049708965 -0.027557401 0.0053019417 -0.04305284 0.06417292
-0.12288634 0.018229872 0.0832485 0.103646725 0.016615974 0.013336266 0.017261019 -0.04370489
-0.028970871 -0.06462416 0.08112427 -0.11152073 0.05226789 -0.0012423452 0.089348376 0.04012281
-0.0006248134 0.024177836 0.03395545 -0.04906562 -0.06051682 -0.061750427 0.113573246 0.097303204
0.056393836 -0.031861503 0.014110589 0.023406554 0.03195377 0.031851213 0.00459073 -0.048136946
00000000: 60d7 8dbb ca54 e83c b584 b83d 87a1 733c
00000010: c0ad 1e3d 0267 aebc 067c 753d 752b 25bc
00000020: f997 05bd fc28 84bd ba3c 1a3e ff31 5bbd
00000030: ccde 803b fbcd 603b 1d2c 6bbd 37b4 17bd
00000040: fa42 e23c 08d1 7f3c 0cba 8bbc 42bb 94bd
00000050: 7492 8dbc 04de 173d 9821 a23a 015d b13c
00000060: 8bb9 1b3d 4d68 14bd c395 313c 3dcf b4bb
00000070: d281 d4bd 6cb7 26bd c79d 893c e855 7ebb
00000080: 7ebf cc3c 8093 fa3b 3158 b2bd 61dd 103d
00000090: 4268 223d e64d 06bd 121b 16bd 6f46 06bc
000000a0: 891c 983c 0833 253c 11bf a2bd 13ac 813d
000000b0: 4f20 263c 7d80 0d3d 4eb8 6bbc 9e39 7f3d
000000c0: f63a f6bc fa32 22bc b9bb 0d3c b0f8 00bd
000000d0: 7014 27bd ae02 ad3d 8c64 17bd 89b2 403c
000000e0: 026b 1dbc 5f8d 253c 9c6f 3bbc fbac aeba
000000f0: 3ada 103e 7e39 8b3d 2ac6 9f3d 2313 25bd
00000100: aa46 27bd b752 35bc beab 9f3d 1db7 a9bc
00000110: 8f32 a7bc 83fc e03c c105 803d fbde 9d3d
00000120: 0770 c2bc f482 753d 1a15 5dbd b460 ccbd
00000130: 3674 923d 5470 533c 1d35 f9bb 92d0 b8bc
00000140: 20ed a1bb 1f6b 103d 9536 a53d 232b 1a3e
00000150: 5361 db3c d367 38bd beef bbbb eb61 733d
00000160: 089f 3dbc d25c ce3c 32d1 9d3d 734d 84ba
00000170: a358 063d fd3b 21bc c5dd 0d3d c66b ec3c
00000180: 5eb8 c33b f897 e13c 2563 36bd 73ae 523d
00000190: e00d be3b 4ae2 dd3d f3b4 edbb 88aa d5bd
000001a0: d36f 11bc 311a bd3b abd5 e2bc 55fa c9bb
000001b0: be8c 55bd 9552 823c c620 92bd 274a 59bc
000001c0: 9b5e e83a 9f8a 38bd 6bb5 8cbd d797 583b
000001d0: 05b0 663c d53c ba3b d905 2b3d d23f c63d
000001e0: c264 22bc f14f 13bc 8032 213c 39ae 913d
000001f0: 9328 46bd 415f 96bc 2f73 023d 99d2 b53c
00000200: 8075 20bd ea0b 203d c9ce acbd 96f7 173c
00000210: ba28 bb3b f9a6 c6bc 6484 613d 53e9 873c
00000220: a64f 193a c7df b03c bcd0 953d 6471 0ebe
00000230: c238 363c 75d0 91bc 1176 19bd 6eba 1bbb
00000240: 2a30 a8bc d1a3 a63c eb64 823d 6c09 a8bd
00000250: 5585 caba 0a0b f3bc daab 963d e70f e83c
00000260: 5b65 bfbc 2099 c93d cfe7 0d3d c4af 1c3a
00000270: dde3 6abc 3ea0 8e3d 18ed 4b3d d969 64bd
00000280: 7f38 16bd dde9 62bc f3a0 71ba 195c 1f3d
00000290: b1f0 d63c fb23 e2bb 059a 13be a6bc 403d
000002a0: 3d33 513d 71fc 0e3d c626 133d 8bbf 52bd
000002b0: 1f70 9fbc a8f0 6b3d 45a7 d43c 7674 f4bc
000002c0: a452 243c 008e 09bd b6b6 76bd 77b2 0e3d
000002d0: dc8a 9b3c 610f 0d3c 6880 133c facb a53c
000002e0: b617 9a3c bc3a ca3c e13a b93d d348 ec3b
000002f0: 1baa cf3d f425 d73c 57c1 393d 134a 8e3c
00000300: ecf6 ac3d 6d30 3ebd 1ae9 1c3a d96c b8bd
00000310: 19d0 613d 3c12 60bc ffb0 d4bc 671f 5a3d
00000320: a01e 723d a8e2 bb3c bf0d df3b ca05 c3bc
00000330: b479 c93d f63a 503c 32af 863d d200 ee3d
00000340: 2cd9 983c 16f5 47bc 15ca 463d bc81 693c
00000350: fe05 e23b 9949 e33d 873f 1fbd 60e9 0c3b
00000360: 59a4 893d a6a8 183e 6738 db3d e7e2 a23b
00000370: 0fc0 e1bc e9bb ad3b 2d58 30bd 186d 833d
00000380: d5ab fbbd d056 953c 317e aa3d bc44 d43d
00000390: 391e 883c 5b80 5a3c fb66 8d3c e603 33bd
000003a0: 5254 edbc ac59 84bd 7b24 a63d fb64 e4bd
000003b0: db16 563d 30d6 a2ba 48fc b63d d157 243d
000003c0: 84ca 23ba 9910 c63c df14 0b3d 08f9 48bd
000003d0: 7ce0 77bd 04ee 7cbd 1799 e83d e746 c73d
000003e0: 39fd 663d 3581 02bd 1a30 673c 1abf bf3c
000003f0: f5e1 023d 6b76 023d d66d 963b 3f2b 45bd

action_model._discrete_distribution.branches.0.bias f4 [5]
-0.019395143 -0.21738379 -0.08897536 0.13195722 0.10417123
00000000: 90e2 9ebc db99 5ebe b738 b6bd cb1f 073e
00000010: ba57 d53d

action_model._discrete_distribution.branches.1.weight f4 [2, 256]
0.018480957 -0.01095 -0.04711189 0.06939367 0.012099808 -0.018595127 0.010274244 0.007805477
-0.031368297 0.030404089 0.012798688 0.02948132 -0.001982531 0.04968825 -0.03510903 0.016543044
0.047908798 -0.08609685 0.01861134 -0.041564114 -0.013516553 -0.037151113 0.022842336 -0.086505346
-0.06554315 0.0084966635 0.011825185 -0.020320958 -0.055432048 -0.0058079157 -0.035734784 -0.024148898
-0.026931258 -0.053747565 0.004715812 -0.07363542 -0.089045085 -0.03822395 -0.012395157 -0.054148983
0.012121526 0.04486716 -0.016843392 -0.05887425 -0.0012629513 -0.018591072 0.01689919 0.022148157
-0.033514947 -0.017516872 0.003061958 0.0216736 -0.04593015 0.036312886 -0.008638309 0.026984029
-0.029078834 0.055114254 0.07288211 0.037782904 -0.012853583 0.04923088 -0.12573999 0.10892112
-0.07171532 0.06768413 -0.003037177 0.06950685 0.030430855 0.056183495 -0.09601837 0.010604192
-0.0154469 0.0037563886 0.041696735 -0.0057463315 0.005903682 -0.014532309 0.03048342 0.0121278865
-0.0875081 0.030417535 -0.0010532864 0.05995021 -0.04223887 0.052322946 -0.020322537 0.013419335
0.021883624 -0.025989667 -0.052522186 0.04027212 0.01501252 0.0064141382 -0.096377745 0.012442541
0.036297157 0.11236934 0.008809494 -0.009404506 0.025167879 0.014542288 -0.03404285 0.042110868
0.00084962836 0.03378244 0.017061401 0.13123496 0.003942218 -0.000113008995 -0.036717728 -0.010103886
-0.04064219 0.07912437 -0.051135663 0.14834689 -0.019129695 -0.017091598 -0.007524479 -0.039034124
0.03215111 0.015568414 0.05620397 0.081571355 -0.07822854 -0.0033021513 0.040401828 0.0647705
-0.051106542 -0.086290225 -0.05704401 0.018710995 0.016305692 -0.008415175 -0.01229772 -0.005894654
-0.09301032 0.034096256 -0.058169395 0.00052240805 0.083123825 -0.015794227 -0.031848934 0.055152368
-0.013463039 0.05397912 -0.044123463 -0.044411603 0.0015001567 -0.036894068 0.05455617 0.06312519
0.027291438 0.022697598 -0.017303841 0.034152802 0.008805808 0.030187935 -0.010191333 -0.007514903
-0.0009768312 -0.03349394 -0.011971132 0.029304225 0.034313068 0.030102381 0.05509109 -0.08424963
0.052729458 0.08349473 -0.01890862 0.0041082758 -0.012321603 0.0127267325 0.00397735 0.08264815
-0.069279656 0.07906875 0.0090410635 -0.012678063 -0.075358324 -0.024891334 0.027382348 -0.09495191
-0.029234134 -0.031088253 -0.06083307 -0.021994209 0.021542419 -0.0034662648 -0.0015902151 -0.05970284
0.022530379 -0.060497828 0.011430722 -0.036137536 0.11701988 -0.035929654 0.01699441 -0.034261625
-0.11978074 0.10135334 0.011802111 -0.047939014 -0.0242111 0.016117906 -0.0025318656 -0.017039211
-0.0040849643 0.044484112 0.021480821 0.028826337 0.016349738 -0.004255211 0.0020572008 -0.040639136
-0.020986935 0.024447195 -0.02041531 -0.011426188 0.02473595 0.0051128566 -0.052260548 0.026628843
0.049007468 0.044774547 0.00035125372 0.05174557 0.07048663 0.046168823 0.057713404 -0.031654235
0.04265292 -0.047682185 0.05766488 -0.012322033 0.026541062 -0.04343422 0.0016200319 -0.022597438
-0.06328521 -0.03869511 0.019882997 -0.0066962256 -0.016904665 -0.01655306 -0.027819177 -0.015733432
0.033049747 -0.018130863 0.0008671263 0.0029240192 0.016602498 -0.16217946 0.014684288 0.0015399046
00000000: 6065 973c a167 33bc 66f8 40bd 451e 8e3d
00000010: 463e 463c cf54 98bc 4d55 283c 16c5 ff3b
00000020: 0b7c 00bd ff11 f93c 97b1 513c cf82 f13c
00000030: 5aed 01bb e885 4b3d 7cce 0fbd 4785 873c
00000040: 043c 443d 8c53 b0bd cf76 983c 223f 2abd
00000050: 8874 5dbc c42b 18bd da1f bb3c b729 b1bd
00000060: 7d3b 86bd 9735 0b3c 6cbe 413c 2378 a6bc
00000070: b70c 63bd 5450 bebb a35e 12bd e9d3 c5bc
00000080: f19e dcbc 6826 5cbd 1987 9a3b 2bce 96bd
00000090: 455d b6bd b790 1cbd 0e15 4bbc 53cb 5dbd
000000a0: 5d99 463c a1c6 373d 27fb 89bc 2026 71bd
000000b0: 9d89 a5ba 4e4c 98bc 2c70 8a3c 0d70 b53c
000000c0: f846 09bd 8b7f 8fbc 21ab 483b d58c b13c
000000d0: 4121 3cbd d2bc 143d b287 0dbc 9c0d dd3c
000000e0: bc36 eebc 7cbf 613d 3743 953d 3fc2 1a3d
000000f0: d697 52bc 52a6 493d fcc1 00be 0912 df3d
00000100: 7bdf 92bd fa9d 8a3d 600b 47bb 9b59 8e3d
00000110: 214a f93c aa20 663d 47a5 c4bd 34bd 2d3c
00000120: ff14 7dbc be2d 763b 32ca 2a3d b94b bcbb
00000130: ad73 c13b ec18 6ebc 5db8 f93c 0bb4 463c
00000140: 7237 b3bd 322e f93c 6d0e 8aba 5a8e 753d
00000150: aa02 2dbd 9650 563d 737b a6bc c5dc 5b3c
00000160: 4945 b33c 48e8 d4bc 8121 57bd 61f4 243d
00000170: 13f7 753c b12d d23b b261 c5bd cddb 4b3c
00000180: 54ac 143d e621 e63d b255 103c 5b15 1abc
00000190: de2c ce3c c742 6e3c 8470 0bbd 727c 2c3d
000001a0: 98b9 5e3a 755f 0a3d 5ac4 8b3c 7562 063e
000001b0: b92d 813b 3eff ecb8 5465 16bd c58a 25bc
000001c0: 6d78 26bd f50b a23d a173 51bd 3fe8 173e
000001d0: e1b5 9cbc ae03 8cbc e88f f6bb 3fe2 1fbd
000001e0: e2b0 033d a912 7f3c 2236 663d e20e a73d
000001f0: 4936 a0bd e868 58bb 637c 253d 65a6 843d
00000200: 1855 51bd eeb8 b0bd fba6 69bd cd47 993c
00000210: 8493 853c cddf 09bc 607c 49bc f127 c1bb
00000220: 327c bebd 84a8 0b3d 0843 6ebd 36f2 083a
00000230: d33c aa3d e562 81bc 0774 02bd 73e7 613d
00000240: 1494 5cbc 3619 5d3d ceba 34bd f1e8 35bd
00000250: e8a0 c43a 3c1e 17bd 4a76 5f3d c847 813d
00000260: 4b92 df3c 50f0 b93c c9c0 8dbc cfe3 0b3d
00000270: 3c46 103c b04c f73c 8cf9 26bc 933f f6bb
00000280: 0409 80ba f130 09bd 9122 44bc 6a0f f03c
00000290: dc8b 0c3d 4599 f63c 32a7 613d 128b acbd
000002a0: d8fa 573d 49ff aa3d 40e6 9abc b79e 863b
000002b0: 8ce0 49bc c983 503c 6e54 823b 6f43 a93d
000002c0: 7ee2 8dbd ccee a13d f820 143c a6b7 4fbc
000002d0: 7755 9abd e9e8 cbbc f250 e03c 2676 c2bd
000002e0: 6c7c efbc cbac febc 192c 79bd 332d b4bc
000002f0: ba79 b03c 462a 63bb c46e d0ba f78a 74bd
00000300: a191 b83c 92cc 77bd ec47 3b3c f404 14bd
00000310: 1ea8 ef3d f92a 13bd dc37 8b3c eb55 0cbd
00000320: 9b4f f5bd 5792 cf3d a45d 413c b35b 44bd
00000330: 5b56 c6bc b309 843c a8ed 25bb d195 8bbc
00000340: 2adb 85bb f934 363d 8cf8 af3c 3625 ec3c
00000350: e3ef 853c 4c6f 8bbb 1ad2 063b 3975 26bd
00000360: cbec abbc 7c45 c83c 023e a7bc e834 3bbc
00000370: 0ca3 ca3c c089 a73b 280f 56bd bb24 da3c
00000380: 0ebc 483d 8465 373d 7a28 b839 2af3 533d
00000390: 4b5b 903d 851b 3d3d e464 6c3d dfa7 01bd
000003a0: d4b4 2e3d 654e 43bd 0232 6c3d 5ae2 49bc
000003b0: a46c d93c 15e8 31bd 4057 d43a 431e b9bc
000003c0: ad9b 81bd c37e 1ebd abe1 a23c 036c dbbb
000003d0: a77b 8abc 489a 87bc 0be5 e3bc 66e3 80bc
000003e0: 2c5f 073d 2d87 94bc dc4f 633a e7a0 3f3b
000003f0: f601 883c 5f12 26be 5e96 703c a0d6 c93a

action_model._discrete_distribution.branches.1.bias f4 [2]
-0.0011744858 0.0011745021
00000000: 34f1 99ba c0f1 993a

action_model._discrete_distribution.branches.2.weight f4 [5, 256]
-0.038271558 -0.003232781 0.10694271 0.13954516 -0.0023762297 0.0076358146 0.0974492 -0.030288393
0.04191176 -0.028003857 0.012681504 -0.01167813 0.0753709 0.019976867 0.007259557 0.07844869
0.062219683 0.043156322 0.038625512 0.0817884 -0.03224711 -0.037154462 0.015328313 -0.027516996
0.09892888 0.019410871 0.02971208 0.06443777 0.11991988 0.050324723 -0.040557325 0.026104107
0.019463768 -0.0680046 0.12768395 -0.013163635 0.060813118 0.0921364 0.044097617 0.027424008
-0.097123235 -0.053497106 0.043765575 0.055752635 0.030443773 -0.06640764 -0.03457472 0.035093218
-0.078801624 0.028178122 0.06844993 -0.0031276706 0.09050711 -0.100851156 -0.0063541178 0.10377363
0.1110662 0.072517954 0.076280884 -0.013209322 0.065249085 0.11031069 -0.01731148 0.01764078
-0.007961988 -0.011683191 -0.0016305798 -0.008533343 -0.06852267 0.0030289218 0.011039828 -0.018935118
0.04946363 -0.04130165 0.038830742 0.025637595 -0.06887749 0.09134761 0.06017738 0.031922303
-0.020066006 0.034004357 0.044342536 0.0014610367 0.051657084 -0.057890214 0.037366834 -0.009082798
-0.014670774 0.078967676 -0.016030436 0.036020663 -0.10744253 0.053941887 0.04119364 -0.02702737
-0.033784054 -0.032216355 0.12223266 0.025737558 0.058933042 -0.028648075 0.072731085 -0.117978185
0.0560116 -0.023682978 -0.014100677 -0.07371685 0.09945769 -0.0034198118 -0.024985882 0.03351762
0.06706926 -0.034848765 0.0679697 0.06824496 0.08353112 0.03475526 0.07254252 0.033467118
-0.04619579 -0.054611616 0.08080485 -0.03795223 0.050717164 0.04793808 0.0942454 0.0503452
0.041844122 -0.037757635 0.018266132 0.04608363 0.019032193 -0.011000504 -0.06638021 -0.0016438587
0.013852046 -0.012451316 -0.023373965 0.06433012 0.018998126 -0.02329153 0.039077006 -0.03519569
0.009676522 0.0679568 0.07884899 0.0976291 0.046078734 -0.012521645 0.05570781 -0.04282158
-0.020407047 -0.048981454 0.11244477 0.05740868 0.07175479 0.056510475 -0.061181467 0.034596723
-0.04879184 0.03714203 -0.081786856 -0.012968902 0.011761124 -0.008577463 0.023780163 0.025192836
0.049345657 0.072492465 0.031243155 0.073562704 -5.0170802e-05 -0.07957613 -0.04159142 0.07852468
-0.0029086622 -0.033525903 -0.054858938 0.00054590125 -0.03931294 0.07460637 0.02712289 0.024482979
0.006568613 0.022332855 0.021611894 0.045431245 -0.089528546 -0.008035065 0.03824618 0.06918237
0.021548247 0.03987072 -0.04698117 0.0588191 0.041365467 -0.044927187 0.060229305 0.0204742
-0.010075359 0.002218862 0.0073288935 0.017201832 -0.015472988 0.005296825 0.033333257 -0.009485337
-0.058910348 0.05343907 -0.06603948 -0.015663438 0.10019938 0.10397578 0.05044468 -0.07683192
0.04976938 -0.008325592 -0.04527925 0.0152481515 0.07374626 0.08807519 0.067432106 0.011660285
0.0568717 0.051417403 -0.055051792 0.03635376 -0.010517292 0.06551764 0.084993236 0.030616691
0.0318128 -0.021980125 0.043442912 0.018315185 -0.005620563 -0.020375678 0.112625055 0.009909938
0.004488373 0.035981152 0.04417533 -0.0133160055 -0.018288365 0.04163807 -0.0010685975 -0.027113665
0.047696747 -0.049895454 -0.01681765 0.045790803 0.048402876 0.034461975 -0.041088708 -0.07561439
00000000: a3c2 1cbd 11dd 53bb c804 db3d ede4 0e3e
00000010: 85ba 1bbb db35 fa3b 7293 c73d 5d1f f8bc
00000020: aaab 2b3d 5868 e5bc 15c6 4f3c a155 3fbc
00000030: 0f5c 9a3d 87a6 a33c 94e1 ed3b b5a9 a03d
00000040: 11da 7e3d afc4 303d c935 1e3d ad80 a73d
00000050: 8c15 04bd 472f 18bd 9b23 7b3c 536b e1bc
00000060: 3a9b ca3d 8c03 9f3c bf66 f33c f3f7 833d
00000070: 8e98 f53d 4c21 4e3d 701f 26bd 48d8 d53c
00000080: 7b72 9f3c ff45 8bbd 95bf 023e 49ac 57bc
00000090: 2d17 793d 02b2 bc3d b49f 343d 50a8 e03c
000000a0: 8ce8 c6bd c81f 5bbd 8843 333d e05c 643d
000000b0: 3865 f93c bb00 88bd 399e 0dbd e8bd 0f3d
000000c0: bf62 a1bd ced5 e63c 7a2f 8c3d 9bf9 4cbb
000000d0: cb5b b93d 0d8b cebd 3436 d0bb 4587 d43d
000000e0: ad76 e33d 4b84 943d 2739 9c3d e96b 58bc
000000f0: 50a1 853d 92ea e13d ced0 8dbc 6683 903c
00000100: 0073 02bc db6a 3fbc 2eb9 d5ba 6fcf 0bbc
00000110: 9d55 8cbd e080 463b 65e0 343c d21d 9bbc
00000120: 609a 4a3d eb2b 29bd fc0c 1f3d ef05 d23c
00000130: a40f 8dbd 7514 bb3d 8e7c 763d f6c0 023d
00000140: 7761 a4bc 2748 0b3d 85a0 353d 4280 bf3a
00000150: 6196 533d 4a1e 6dbd f70d 193d 04d0 14bc
00000160: b05d 70bc ceb9 a13d 4352 83bc 678a 133d
00000170: d40a dcbd 2bf2 5c3d aaba 283d 8168 ddbc
00000180: 2661 0abd 4cf5 03bd 1e55 fa3d 92d7 d23c
00000190: c663 713d 5eaf eabc 09f4 943d 8c9e f1bd
000001a0: 6b6c 653d ce02 c2bc 8706 67bc dcf8 96bd
000001b0: 79b0 cb3d ec1e 60bb 31af ccbc c649 093d
000001c0: 9c5b 893d 94bd 0ebd b333 8b3d 03c4 8b3d
000001d0: 5d12 ab3d 885b 0e3d 2c91 943d d114 093d
000001e0: cc37 3dbd 6eb0 5fbd 037d a53d cc73 1bbd
000001f0: cdbc 4f3d b85a 443d bb03 c13d c536 4e3d
00000200: be64 2b3d c0a7 1abd dba2 953c 30c2 3c3d
00000210: 67e9 9b3c 753b 34bc 59f2 87bd bf76 d7ba
00000220: b1f3 623c 9b00 4cbc c27a bfbc 83bf 833d
00000230: f5a1 9b3c e1cd bebc 360f 203d 5b29 10bd
00000240: 468a 1e3c ef2c 8b3d 947b a13d c4f1 c73d
00000250: 0ebd 3c3d 9627 4dbc df2d 643d ae65 2fbd
00000260: ae2c a7bc c7a0 48bd 7249 e63d 5d25 6b3d
00000270: 2df4 923d 8777 673d 6b99 7abd 4bb5 0d3d
00000280: f4d9 47bd 3e22 183d de7f a7bd 847b 54bc
00000290: bbb1 403c 7d88 0cbc 9ece c23c 3561 ce3c
000002a0: ac1e 4a3d ee76 943d a5f1 ff3c 0ba8 963d
000002b0: 7d6e 52b8 cff8 a2bd c45b 2abd 8cd1 a03d
000002c0: 419f 3ebb 7552 09bd c4b3 60bd d01a 0f3a
000002d0: 9b06 21bd 39cb 983d d330 de3c 8790 c83c
000002e0: 853d d73b 64f3 b63c 6d0b b13c 1d16 3a3d
000002f0: be5a b7bd 81a5 03bc 07a8 1c3d 7daf 8d3d
00000300: f385 b03c 7b4f 233d 546f 40bd 4cec 703d
00000310: d66e 293d 9205 38bd 01b3 763d 82b9 a73c
00000320: 1e13 25bc 546a 113b 3727 f03b dbea 8c3c
00000330: 6a82 7dbc fd90 ad3b 7488 083d 6368 1bbc
00000340: fa4b 71bd ede2 5a3d b53f 87bd 9c50 80bc
00000350: 5535 cd3d 41f1 d43d 159f 4e3d 0e5a 9dbd
00000360: fada 4b3d 1068 08bc bc76 39bd 62d3 793c
00000370: 4708 973d c460 b43d d819 8a3d c80a 3f3c
00000380: 4df2 683d 0e9b 523d fd7d 61bd aee7 143d
00000390: b850 2cbc 1d2e 863d ef10 ae3d dbcf fa3c
000003a0: 234e 023d aa0f b4bc 32f1 313d ba09 963c
000003b0: b32c b8bb e5ea a6bc f7a7 e63d 4b5d 223c
000003c0: 3413 933b f960 133d 31f1 343d 602b 5abc
000003d0: 7bd1 95bc ae8c 2a3d 2f10 8cba 7a1d debc
000003e0: aa5d 433d 2d5f 4cbd 2bc5 89bc 238f 3b3d
000003f0: 1842 463d 0028 0d3d a24c 28bd b8db 9abd

action_model._discrete_distribution.branches.2.bias f4 [5]
-0.04695538 -0.052161984 0.065981194 0.047457594 -0.014810131
00000000: 4954 40bd cea7 55bd 2621 873d e562 423d
00000010: 31a6 72bc
