Assets/TestBattle/AIModels/TestButtle-40007.onnx (onnx, 10148 bytes, 4 tensors)

network_body._body_endoder.seq_layers.0.weight f4 [256, 2]
0	0xbe0eab39	-0.13932504
1	0x3f818f84	1.0121922
2	0x3f3f956e	0.74837387
3	0x3ee0f496	0.43936604
4	0x3eb46b22	0.35237986
5	0xbf0322b1	-0.5122481
6	0x3f61fbdd	0.8827494
7	0x3fbe3f33	1.4863037
8	0xbd3e7971	-0.046502534
9	0xbecfe958	-0.40607715
10	0x3e90bed6	0.28270596
11	0x3ddcd09a	0.10781975
12	0x3e4c77d6	0.19967589
13	0x3f529cab	0.82270306
14	0xbea93cf7	-0.33054325
15	0x3f93f3df	1.1558799
16	0x3ef84489	0.48489788
17	0x3e9d6ba2	0.3074618
18	0x3e7697a2	0.24081281
19	0x3ead2ef0	0.33824873
20	0x3daea9c5	0.08528475
21	0x3fcc13f1	1.5943586
22	0x3f55b28c	0.83475566
23	0x3fb18ecf	1.3871707
24	0xbf4a9a8a	-0.7914206
25	0xbe9a2093	-0.30102977
26	0xbf25e269	-0.647986
27	0xbea131cd	-0.31483307
28	0xbf75d3f8	-0.96026564
29	0xbe7b88f5	-0.24563964
30	0xbf50f04a	-0.8161665
31	0xbec3739e	-0.38174146
32	0x3f2df5f5	0.67953426
33	0x3eaab755	0.33342996
34	0xbf72777f	-0.94713587
35	0x3f170852	0.5899707
36	0x3ea058a9	0.31317642
37	0x3f55454e	0.83308876
38	0x3ea851f6	0.3287503
39	0xbcce3be9	-0.025175052
40	0xbf5bbf9b	-0.8583924
41	0xbf36f922	-0.71473897
42	0x3fa1ffde	1.265621
43	0x3f317da0	0.69332314
44	0x3f8ef00d	1.1167008
45	0x3db25c0e	0.08708964
46	0x3e1a2b06	0.15055475
47	0xbf7b8aaf	-0.9825849
48	0x3f8b9385	1.0904394
49	0xbe8e42cb	-0.27785334
50	0x3e3810c8	0.17975152
51	0xbf6b3615	-0.918794
52	0x3f196c0a	0.5993048
53	0x3f487a4a	0.783116
54	0x3f5ff856	0.87488306
55	0xbea43b98	-0.32076716
56	0xbef08415	-0.4697577
57	0xbb8fe295	-0.0043910244
58	0xbee016b7	-0.4376733
59	0xbfaf8122	-1.3711283
60	0x3f5fc068	0.87402964
61	0x3f27a510	0.6548624
62	0x3eee3918	0.46527934
63	0x3e0655f9	0.13118733
64	0x3f2fe174	0.6870339
65	0x3f320f62	0.6955472
66	0xbfb5be0f	-1.4198626
67	0xbd8c97d1	-0.06864894
68	0x3f588d5e	0.8459071
69	0xbe4fad9e	-0.20281073
70	0xbf4335a1	-0.76253706
71	0x3ef70aa5	0.4825031
72	0xbe99409c	-0.29932106
73	0x3ef1129c	0.4708451
74	0xbf5037aa	-0.81334937
75	0x3fca4b57	1.5804242
76	0x3ed38254	0.4131037
77	0xbeecc3ba	-0.46243078
78	0xbec32378	-0.38112998
79	0x3f5a9427	0.8538231
80	0x3f6c9548	0.92415285
81	0x3f55fb01	0.83586127
82	0xbf913513	-1.1344322
83	0xbdb1d51a	-0.08683224
84	0x3f11b267	0.56912845
85	0x3df6855d	0.12037156
86	0x3eefbaa9	0.46822098
87	0xbf7a7f8f	-0.9785089
88	0x3f874834	1.056891
89	0x3fa16203	1.2608036
90	0x3f8b8378	1.0899496
91	0xbeab8550	-0.33500147
92	0x3ec36efc	0.38170612
93	0xbb3f5fcf	-0.0029201393
94	0xbf615614	-0.8802197
95	0xbf05b415	-0.5222791
96	0x3ec57643	0.3856679
97	0xbf68b63f	-0.90903085
98	0xbf94d286	-1.1626747
99	0xbe1c0aec	-0.15238541
100	0xbf258112	-0.6465007
101	0xbf1cf6ba	-0.61313975
102	0xbe870e7e	-0.26378244
103	0xbfa4e41e	-1.2882116
104	0xbf6e294a	-0.9303175
105	0xbe587ea6	-0.21142063
106	0xbf04d491	-0.5188685
107	0x3ea61aad	0.32442227
108	0x3e06904c	0.13140982
109	0xbeea7e2c	-0.45799387
110	0xbe0d31da	-0.13788548
111	0xbf63b431	-0.88946825
112	0xbd3913d2	-0.045184918
113	0xbf2aa51b	-0.6665818
114	0x3e807ce0	0.25095272
115	0xbf73a019	-0.95166165
116	0xbed8d151	-0.42347196
117	0xbf13cb0a	-0.5773169
118	0xbfc2156c	-1.5162787
119	0xbe4e1603	-0.20125584
120	0xbef0c81d	-0.47027674
121	0xbf6636d4	-0.8992741
122	0x3f4e1355	0.8049825
123	0x3db90af1	0.0903529
124	0xbf250d12	-0.6447307
125	0x3f5cc0dc	0.8623178
126	0x3e47c6b7	0.19509397
127	0xbf6b1fdf	-0.91845506
128	0x3ea2c269	0.31788948
129	0x3daeebbb	0.08541056
130	0xbe37bea1	-0.17943813
131	0x3ecd5a78	0.40108085
132	0xbe4f3675	-0.20235617
133	0x3f3bc759	0.73351055
134	0xbf00ca19	-0.50308377
135	0xbf80d2c0	-1.0064316
136	0x3e27c928	0.16385329
137	0x3f334fc3	0.7004358
138	0x3f778949	0.96693856
139	0x3f1c57fb	0.6107175
140	0xbef85b37	-0.4850709
141	0x3ee83bf4	0.4535824
142	0x3f592301	0.84819037
143	0xbe0c2236	-0.13684925
144	0x3f2c66e8	0.6734452
145	0x3f224178	0.6338115
146	0x3ea75773	0.32683906
147	0x3e0f71b5	0.1400822
148	0x3f3dfaaa	0.7421061
149	0x3edee8e9	0.4353707
150	0x3f3dcd0f	0.7414102
151	0x3f386993	0.72036093
152	0xbf8e84d6	-1.1134288
153	0x3f8f6dde	1.1205404
154	0xbed4c9e8	-0.41560292
155	0x3e7c626f	0.24646924
156	0xbe968882	-0.29401022
157	0x3ecbf8e6	0.39838332
158	0xbf1fde8a	-0.6244894
159	0x3ebe4f0f	0.37169692
160	0xbf24d65d	-0.6438959
161	0x3f86cfde	1.0532186
162	0xbf781d51	-0.96919733
163	0x3f82d139	1.02201
164	0x3e4c1faa	0.19933954
165	0xbf38cb3b	-0.72185105
166	0x3ee4df04	0.44701397
167	0x3f753604	0.95785546
168	0xbe583e8c	-0.2111761
169	0x3ee8d552	0.4547525
170	0xbed4c52f	-0.4155669
171	0x3f86509d	1.0493351
172	0x3eb8eaf7	0.36116764
173	0xbe9176e0	-0.28411007
174	0x3f267b88	0.65032244
175	0x3e8a5070	0.27014494
176	0xbd971f37	-0.07379001
177	0x3e16b3c3	0.14717011
178	0xbee77041	-0.4520283
179	0x3eeb7b8c	0.45992696
180	0x3e3aaf0c	0.18230838
181	0x3e95b0b8	0.29236388
182	0x3f799b3c	0.97502494
183	0xbe88e81b	-0.26739582
184	0xbf13f95f	-0.57802385
185	0x3ef8a189	0.48560742
186	0x3e533419	0.20625342
187	0xbe61787b	-0.22018616
188	0x3e9c3389	0.30508068
189	0xbf2459dd	-0.6419962
190	0x3cec79f1	0.02886674
191	0x3b8c0acf	0.0042737494
192	0x3ff17d04	1.8866277
193	0xbf3ae198	-0.7300048
194	0xbf06ed1e	-0.5270556
195	0xbf80c325	-1.0059553
196	0xbf403814	-0.7508557
197	0x3f24a46e	0.643134
198	0xbe9cc08b	-0.3061565
199	0x3eb76bfe	0.3582458
200	0x3ebb5b25	0.36592975
201	0xbf9f82b8	-1.2461767
202	0xbe6bc22a	-0.23023286
203	0xbea281b1	-0.31739572
204	0x3e03678d	0.1283247
205	0x3f06ec9c	0.5270479
206	0x3f0bc0f3	0.5459129
207	0x3ef66891	0.48126653
208	0x3f22a09c	0.6352632
209	0xbefbfb18	-0.49215007
210	0x3e2e86b8	0.17043579
211	0xbf5b357d	-0.8562849
212	0xbf9f4879	-1.2443992
213	0xbd970541	-0.07374049
214	0x3e629eac	0.22130841
215	0x3da3ad60	0.07992053
216	0x3f019137	0.50612205
217	0x3d9505b5	0.07276479
218	0xbf1f0918	-0.6212325
219	0x3f22d18a	0.6360098
220	0xbe8bcc02	-0.27304083
221	0xbe5f8d9a	-0.2183136
222	0xbeebafe0	-0.4603262
223	0x3ef8147f	0.48453137
224	0x3ebf7830	0.37396383
225	0x3f9662fe	1.174896
226	0xbf8f9dee	-1.1220071
227	0xbea6c79e	-0.3257417
228	0x3f025b10	0.509202
229	0xbf261fe0	-0.6489239
230	0xbedabdda	-0.4272297
231	0x3e95ee88	0.29283547
232	0xbeb6b47a	-0.35684568
233	0x3ea81e35	0.32835546
234	0x3f1f55bf	0.62240213
235	0xbe831ad2	-0.256064
236	0xbed16478	-0.40896964
237	0xbf14bee8	-0.581038
238	0x3e0fc960	0.14041662
239	0x3ee23c9a	0.4418686
240	0x3f6e9059	0.9318901
241	0x3fa827b3	1.3137115
242	0xbe15ad13	-0.14616804
243	0x3eae0666	0.33989257
244	0xbf0e8fff	-0.5568847
245	0x3ecaeb77	0.3963277
246	0xbea9a8ad	-0.33136502
247	0x3e77910d	0.24176426
248	0xbe9605fe	-0.29301447
249	0x3eacc2e6	0.33742446
250	0x3f9639e4	1.1736417
251	0xbf4cb61d	-0.7996538
252	0x3ecbf0fe	0.398323
253	0xbf691c69	-0.91058975
254	0x3ea363d4	0.319121
255	0xbfb66bb0	-1.4251614

network_body._body_endoder.seq_layers.0.bias f4 [256]
0	0x3d9b1875	0.07573024
1	0xbd6b5785	-0.057456512
2	0xbdda025c	-0.10644981
3	0xbd6d0fd6	-0.05787643
4	0xbe319532	-0.1734207
5	0xbd078628	-0.033086926
6	0x3d2a9480	0.041645527
7	0xbca518b8	-0.020153388
8	0xbd8d97ce	-0.0691372
9	0xbda3562c	-0.0797542
10	0xbd9cb305	-0.07651333
11	0xbdce591e	-0.100755915
12	0xbe892925	-0.26789203
13	0xbe781d32	-0.24229887
14	0xbe460554	-0.1933797
15	0xbe3692a0	-0.1782937
16	0xbdb926e4	-0.09040621
17	0x3e7ad5b7	0.24495588
18	0xbddd6076	-0.10809414
19	0xbd8f4cfc	-0.069971055
20	0x3daafc2f	0.083488815
21	0xbdedf160	-0.11618304
22	0xbdb7d5a0	-0.089762926
23	0xbe0f1a88	-0.13974965
24	0xbd62423f	-0.05523896
25	0xbe152bea	-0.14567533
26	0xbd9ed35c	-0.07755157
27	0xbd22720e	-0.039659552
28	0xbe3e8743	-0.18606286
29	0x3e38dfee	0.18054172
30	0xbdef9b26	-0.11699514
31	0xbd6f7211	-0.05845839
32	0xbd321fcd	-0.04348736
33	0xbd85f43e	-0.06540726
34	0xbd90211e	-0.070375666
35	0x3e6fe123	0.23425727
36	0x3dbee666	0.09321289
37	0x3dec57b5	0.11540166
38	0xbdcd9059	-0.10037298
39	0x3da90b06	0.08254056
40	0xbe0ac3f4	-0.13551313
41	0xbe78f4a6	-0.24312076
42	0xbd8545a1	-0.06507421
43	0xbdc281af	-0.094973914
44	0xbe241960	-0.16025305
45	0xbd60109d	-0.054703344
46	0xbd841f29	-0.06451256
47	0xbd02233d	-0.031771887
48	0xbdedb6b5	-0.11607114
49	0xbe26a550	-0.16273999
50	0xbdf06f0d	-0.11739931
51	0x3dad1b57	0.0845248
52	0xbe804626	-0.2505352
53	0x3e5c74c4	0.21528918
54	0xbe1eb6ac	-0.15499371
55	0xbe2c34be	-0.16816995
56	0xbe51587c	-0.2044391
57	0xbe07f57e	-0.13277242
58	0xbe7b1f60	-0.24523687
59	0x3e089d51	0.13341261
60	0xbcc889fb	-0.024479857
61	0xbd1baa69	-0.038004313
62	0x3dd7ad2b	0.10531076
63	0xbe0a885d	-0.13528581
64	0xbd858350	-0.065191865
65	0x3d80c651	0.06287826
66	0xbd0c3acc	-0.03423576
67	0x3d4aab93	0.049480032
68	0xbdf8c621	-0.12147165
69	0xbe00fe44	-0.12596995
70	0x3e0eb89f	0.13937615
71	0xbd5d4f5d	-0.054030765
72	0xbdf6b95a	-0.12047072
73	0xbcb5dca6	-0.02219994
74	0xbdd0c03d	-0.101929165
75	0xbdf31528	-0.118692696
76	0x3e03222f	0.12806009
77	0x3e6db01b	0.2321171
78	0x3de289b8	0.11061424
79	0x3e8459e3	0.25849828
80	0x3dd0da7e	0.10197924
81	0x3e0a323a	0.13495722
82	0xbe1e4709	-0.15456785
83	0xbe18b160	-0.14911413
84	0x3dac6f51	0.084196694
85	0x3d874adc	0.06606075
86	0xbdb003fa	-0.085945085
87	0xbd95e46f	-0.07318961
88	0x3dc199d4	0.094531685
89	0x3e008533	0.12550811
90	0xbdc4e1dd	-0.096133925
91	0xbd619642	-0.055074938
92	0x3e2d2e00	0.16912079
93	0xbdde97a1	-0.10868765
94	0xbe035e50	-0.12828946
95	0xbde13d02	-0.109979644
96	0xbd8a9508	-0.06766707
97	0x3d8ab8f3	0.067735575
98	0x3e2ba4c7	0.16762076
99	0x3df82d99	0.12118072
100	0xbda4e0e1	-0.08050705
101	0xbe677a53	-0.22605257
102	0x3d22d7ff	0.03975677
103	0xbd8fdec3	-0.0702491
104	0xbd750c6f	-0.05982631
105	0xbe16c36e	-0.14722988
106	0xbe3e879c	-0.18606418
107	0xbd83b364	-0.064307004
108	0xbcdaf17b	-0.026726475
109	0x3e0abacb	0.13547818
110	0xbe58c9b6	-0.21170697
111	0x3dfa8e9d	0.122342326
112	0xbdd60bc1	-0.10451461
113	0xbcdb2781	-0.026752235
114	0xbdaf22f4	-0.08551589
115	0x3e5509ae	0.20804474
116	0x3e0c23ff	0.13685606
117	0xbd54e66d	-0.051977564
118	0xbe74579d	-0.23861547
119	0xbdcc23b4	-0.09967747
120	0x3cf91c9c	0.03040915
121	0x3dac483f	0.08412217
122	0x3e50d961	0.20395423
123	0x3e2d0bed	0.1689908
124	0x3de956b0	0.113934875
125	0xbd4ad1c3	-0.04951645
126	0xbdda36cf	-0.10654985
127	0xbd32a084	-0.04361011
128	0x3e109dbc	0.14122671
129	0xbd6cf849	-0.05785397
130	0xbe770873	-0.24124317
131	0xbe2cc2f2	-0.1687124
132	0xbdec2565	-0.1153057
133	0xbd4f504c	-0.050613686
134	0xbdfdbadf	-0.123891585
135	0x3e14f5fe	0.14546964
136	0x3dc0850e	0.09400378
137	0xbd25d356	-0.04048475
138	0xbe530232	-0.20606306
139	0xbe38a098	-0.18030012
140	0xbde3b9ff	-0.1111946
141	0xbe09e047	-0.13464461
142	0x3dbd2264	0.09235075
143	0xbd9415ba	-0.072307065
144	0x3e366457	0.17811714
145	0xbdc2fd74	-0.095209986
146	0xbd3bb3cb	-0.04582576
147	0x3dd364f2	0.10321988
148	0xbdca0877	-0.09864896
149	0x3e474c8f	0.19462799
150	0xbdbca8dc	-0.09211895
151	0x3e22322f	0.15839456
152	0xbe39a9a9	-0.18131126
153	0x3e4db066	0.20086822
154	0xbd9ed257	-0.07754963
155	0x3e2a7c5a	0.16648999
156	0xbda6d885	-0.081467666
157	0xbdc0451e	-0.09388183
158	0x3e18d763	0.14925914
159	0x3d75bbd5	0.059993584
160	0xbcddd2cb	-0.027078053
161	0xbdb5a352	-0.088690415
162	0xbe2892d5	-0.16462262
163	0xbdc933ac	-0.09824309
164	0xbe8722d5	-0.26393762
165	0xbccd6bb3	-0.025075769
166	0xbd8c86ce	-0.068616495
167	0xbde6b1ea	-0.11264403
168	0xbdfb0ead	-0.122586586
169	0xbdb1c3ef	-0.086799495
170	0xbdbe054e	-0.092783555
171	0xbe96c7fe	-0.29449457
172	0xbdcb01d8	-0.09912461
173	0x3c78c341	0.015183271
174	0xbe87ad6f	-0.26499507
175	0xbde87036	-0.113495275
176	0xbdeca5a3	-0.1155503
177	0x3e23e940	0.16006947
178	0xbd659882	-0.056053646
179	0xbe00ec04	-0.12590033
180	0x3df46bbf	0.119346134
181	0xbdaf2b15	-0.08553139
182	0xbe5c8fa8	-0.21539176
183	0xbd88506d	-0.06655965
184	0xbdbc5a71	-0.09196938
185	0xbd59c9c2	-0.053170927
186	0xbdb7bc73	-0.08971491
187	0x3d7fd183	0.062455665
188	0xbe079aba	-0.13242617
189	0xbd8acdc8	-0.06777531
190	0xbe5f353d	-0.21797653
191	0x3e6d3b69	0.23167194
192	0xbdab1a47	-0.083546214
193	0x3d663532	0.056203075
194	0x3c36033a	0.011109168
195	0xbd3a600e	-0.04550176
196	0xbc95fb62	-0.018308345
197	0xbd574190	-0.05255276
198	0x3d2a8dfb	0.04163931
199	0xbe069eae	-0.13146469
200	0xbd96ff65	-0.073729314
201	0xbd2302c4	-0.03979756
202	0x3e552a3f	0.20816897
203	0x3d26394e	0.040581994
204	0xbe0b4c5b	-0.13603346
205	0xbddd5356	-0.10806911
206	0xbd9d4c22	-0.07680537
207	0x3daa5b43	0.08318188
208	0xbd6bf5a3	-0.057607304
209	0xbdaf0d95	-0.085475124
210	0x3e12d2e7	0.14338265
211	0xbdb0e3d3	-0.08637204
212	0x3d532513	0.05154903
213	0xbd8df68c	-0.06931791
214	0xbe0c8e90	-0.13726258
215	0xbd410701	-0.04712582
216	0x3daf0fdf	0.08547949
217	0x3e520a6f	0.20511793
218	0xbe3859e3	-0.18003039
219	0xbe11347d	-0.14180179
220	0xbd533dbc	-0.051572546
221	0xbe005cb0	-0.12535357
222	0xbd19cb32	-0.037547298
223	0x3da49013	0.080352925
224	0xbd8d0064	-0.0688484
225	0xbe88fe4e	-0.2675652
226	0xbd4e34be	-0.050343268
227	0x3e03abdb	0.12858526
228	0x3c264b06	0.010149723
229	0xbdcd6b09	-0.10030181
230	0xbde36e43	-0.11105015
231	0x3e99e4b8	0.3005731
232	0x3dce1df5	0.100643076
233	0x3d5c7689	0.05382398
234	0xbd90320c	-0.07040796
235	0x3e288c89	0.1645986
236	0xbd53288a	-0.051552333
237	0xbd3f83d8	-0.046756595
238	0xbdb3f447	-0.087868266
239	0xbdb54a46	-0.08852057
240	0xbdab6a14	-0.08369842
241	0xbe085c92	-0.13316563
242	0xbd207412	-0.039173193
243	0xbdb435c7	-0.0879932
244	0xbe1a7523	-0.15083747
245	0x3db666ff	0.08906364
246	0x3e2036af	0.1564586
247	0x3c79f6bd	0.015256581
248	0x3e85fd09	0.26169613
249	0xbd3f4e3e	-0.046705477
250	0xbde21879	-0.11039824
251	0xbe11c60d	-0.14235707
252	0xbd8f53d6	-0.06998412
253	0xbe020e5d	-0.12700792
254	0x3dda1bc7	0.10649829
255	0xbd87fa14	-0.066394955

action_model._discrete_distribution.branches.0.weight f4 [3, 256]
0	0x3b9a5450	0.004709758
1	0x3be9ad22	0.0071312347
2	0x3bf6a323	0.0075267716
3	0x3b73d160	0.0037203655
4	0xbb1f5c36	-0.0024316437
5	0xbb1fef79	-0.0024404211
6	0x3bce6832	0.006299042
7	0x39b0933f	0.00033679043
8	0xbc3016f5	-0.010747661
9	0x39e36b7d	0.000433769
10	0xbb3d26cd	-0.0028862238
11	0xbc8412a3	-0.016122168
12	0xbc07260c	-0.008248817
13	0x3bc861dd	0.006115182
14	0x3a70cb80	0.00091855973
15	0xbbb52ed5	-0.0055292645
16	0x3c88bc8c	0.016691469
17	0xbbf73168	-0.0075437315
18	0x3b24f311	0.0025169293
19	0x3b188462	0.0023272266
20	0xbb50f47f	-0.0031884012
21	0xbbfa4c48	-0.007638488
22	0xbc2877c9	-0.010282465
23	0xbb7d4d2d	-0.0038650737
24	0x3cb70852	0.022342835
25	0xba866359	-0.0010252997
26	0x39e7d482	0.00044218084
27	0xbc19c212	-0.009384649
28	0xbb59597b	-0.0033164907
29	0xbb5627f8	-0.0032677632
30	0xbaad2e17	-0.0013212588
31	0xbb46cefd	-0.0030335777
32	0xbb8f13cd	-0.004366374
33	0xbb6e7bda	-0.003638974
34	0x3b8da767	0.0043229344
35	0x3be950b8	0.007120218
36	0x3bf6f5d8	0.007536631
37	0xbb303775	-0.0026888524
38	0xbb57d437	-0.0032932886
39	0x3c1b53ab	0.009480397
40	0x393e318c	0.0001813827
41	0x3b390cb6	0.0028236336
42	0x3be6e2b0	0.007046066
43	0xbbfe60c5	-0.0077630007
44	0xb5e47452	-1.7021177e-06
45	0x3ba9aa3e	0.005177765
46	0xbbda8315	-0.006668458
47	0x3b38c74b	0.002819496
48	0xbae5bc63	-0.0017527457
49	0x3b264a19	0.0025373755
50	0xbba579ca	-0.005049919
51	0x3b5925bd	0.0033134066
52	0xbc40481a	-0.01173594
53	0x3b4a4c2c	0.0030868156
54	0xbb4b8607	-0.0031055228
55	0xbbbd8b86	-0.0057844548
56	0x3b4f3b23	0.0031620942
57	0x3bdd72c7	0.0067580673
58	0xb911c24c	-0.00013900659
59	0xb9c1ffc7	-0.00037002398
60	0x3c055d5b	0.008139933
61	0xbb95451b	-0.004555357
62	0xbb560c85	-0.003266127
63	0xbae7091d	-0.0017626617
64	0x3b94a00b	0.00453568
65	0x3c2b5c7b	0.010459061
66	0xbb91283a	-0.004429844
67	0x3b9a6ade	0.0047124466
68	0x3b909fd5	0.0044135847
69	0x3c104035	0.008804371
70	0x3bb386d1	0.005478718
71	0x3aad5485	0.0013224041
72	0x3aa402f3	0.0012513086
73	0xbb657387	-0.0035011487
74	0xbb474989	-0.003040882
75	0x3b106731	0.0022034163
76	0xba59cc13	-0.00083083025
77	0x3acfaa9b	0.0015843691
78	0x3af174ef	0.001842169
79	0x3c1eb598	0.00968685
80	0xbb45b28c	-0.0030166237
81	0xbc194fc3	-0.009357396
82	0x3b190397	0.0023348087
83	0xbaeb3ba2	-0.0017946849
84	0x3a188dc5	0.0005819465
85	0xbbe1cc77	-0.006890829
86	0xbb1a5e42	-0.0023554717
87	0xbbacd832	-0.005274796
88	0x3c9ec291	0.019379886
89	0xbb97a29f	-0.0046275402
90	0x3a5a04cd	0.00083167554
91	0xba96b37d	-0.0011497583
92	0xbb03e917	-0.0020127946
93	0xbaf27920	-0.0018499233
94	0xbb86a05d	-0.0041084723
95	0xbb12408a	-0.00223163
96	0xbb40603c	-0.0029354235
97	0x3c946831	0.018116089
98	0x3c24e4c4	0.010064308
99	0xbc3360a0	-0.01094833
100	0xbc0ca88f	-0.008585109
101	0xbb6fed1f	-0.003660984
102	0x3a13b1b7	0.00056340866
103	0xbb0c05bb	-0.002136572
104	0x3c0f2571	0.008736954
105	0xbb5971ef	-0.0033179482
106	0x3c1798a4	0.009252701
107	0xbadb3eba	-0.0016727068
108	0x3b0daebd	0.0021619045
109	0x3a1f9033	0.0006086856
110	0x3c097446	0.008389538
111	0x3be1ec77	0.006894644
112	0x3c1e88e6	0.009676194
113	0xbb997c9f	-0.0046840454
114	0xbb5ec63b	-0.0033992666
115	0x3bbd31db	0.0057737655
116	0xbb8ed862	-0.004359291
117	0xbb835eab	-0.004009088
118	0x3c08bff2	0.008346545
119	0xbac0c4e1	-0.0014707112
120	0xbbfd6f92	-0.0077342475
121	0xbbb37169	-0.005476166
122	0x3c20e210	0.0098195225
123	0xbad1ca70	-0.0016005766
124	0x3bbcc9dd	0.0057613687
125	0xbb5f9917	-0.0034118348
126	0xbc01901f	-0.007907896
127	0x3c87c29f	0.016572295
128	0xbc67e373	-0.014153349
129	0xba92de4f	-0.0011205169
130	0x3b8b2c55	0.004247228
131	0xbb2ccd2f	-0.0026367416
132	0x3c2edc20	0.010672599
133	0xbc080ca9	-0.0083038
134	0xbbaee4cd	-0.005337334
135	0xbbfca65a	-0.0077102603
136	0xbc208ef7	-0.0097997105
137	0xbb3a8a2e	-0.002846371
138	0x3a9cf816	0.0011975791
139	0x3b4b3628	0.0031007621
140	0x3c2c84d6	0.010529717
141	0x3aea25a7	0.0017864004
142	0xbbe3869b	-0.0069435365
143	0xbba2b6ce	-0.0049656397
144	0xbba26f4a	-0.0049571143
145	0xbb32c69b	-0.0027279023
146	0xb93acd47	-0.00017814814
147	0x3ab2dc13	0.001364591
148	0x3b91be48	0.004447732
149	0xbc5e5e68	-0.013572313
150	0x3b01979c	0.0019774204
151	0xba9bc704	-0.0011884873
152	0xbb884f9c	-0.004159881
153	0x3b6baf10	0.00359625
154	0xbc12d2b7	-0.008961371
155	0xbc51cc88	-0.012805112
156	0xbb61ac6d	-0.003443505
157	0x3ae8eb2a	0.001777028
158	0xbbb64e96	-0.0055635674
159	0x3b7d4a5a	0.0038649053
160	0xbb8de66b	-0.0043304465
161	0xbb3f4da8	-0.0029190574
162	0xba824a38	-0.0009940332
163	0x3ab932ae	0.0014129484
164	0xbb7a3ee8	-0.0038184468
165	0xbb94c723	-0.0045403405
166	0x3c1cfa59	0.009581172
167	0x3b2d6b77	0.002646176
168	0x3c4aa1d7	0.012367687
169	0xbb75dc0f	-0.0037515198
170	0xbaaae59e	-0.0013038402
171	0xbb92e85a	-0.004483265
172	0x3c0005c8	0.007813878
173	0x3c1fd12b	0.009754459
174	0xbbccb613	-0.006247291
175	0xbae22203	-0.0017252568
176	0x3ba888c8	0.0051432587
177	0xbba09543	-0.004900606
178	0xbbaa8f86	-0.0052050976
179	0x3b0654a5	0.002049723
180	0xbb31a213	-0.002710466
181	0xbba62ae9	-0.0050710333
182	0xbb16df6a	-0.0023021349
183	0x3a57c6fa	0.0008231249
184	0xbbe6c303	-0.00704229
185	0x38a1894f	7.702654e-05
186	0xbc24a2a3	-0.010048541
187	0x3c0edca7	0.0087196
188	0x3bab4f67	0.0052279714
189	0xbc4fc548	-0.012681313
190	0xbbe17005	-0.006879809
191	0x3b8b8772	0.0042580897
192	0xbc262a40	-0.010141909
193	0x3c2230a7	0.009899295
194	0xbbd20053	-0.00640873
195	0xbb4ed273	-0.0031558543
196	0xbc390672	-0.011293041
197	0x3bd43f6a	0.006477286
198	0x3bf131cd	0.007360673
199	0x3c24435a	0.0100258235
200	0x3aa2fb07	0.0012434431
201	0xbbac7dd9	-0.0052640256
202	0xbb251411	-0.0025188962
203	0x3c1d6b2c	0.009608071
204	0xbb00896b	-0.0019613157
205	0x3c093327	0.008374012
206	0xbb61a0a2	-0.003442802
207	0xbc173078	-0.009227864
208	0x3c216343	0.009850326
209	0xba0f1272	-0.00054577657
210	0x3b927721	0.0044697677
211	0x3c188d61	0.009311051
212	0x3beebe55	0.007285873
213	0xbb16c80d	-0.0023007423
214	0xbb769e7a	-0.003763108
215	0xbbe16f1b	-0.0068797
216	0xbbe5247a	-0.0069928737
217	0x3a88b119	0.0010428756
218	0xbb90cfa9	-0.0044192863
219	0xbbc3c1e8	-0.005974043
220	0x3bf97342	0.0076126168
221	0xbb7da5b0	-0.0038703494
222	0xb8f64f68	-0.00011744985
223	0x3c5e0977	0.013552061
224	0x3ba5c7e9	0.0050592315
225	0xba9d02de	-0.0011979004
226	0x3bbfd598	0.00585432
227	0xbb5c91a0	-0.0033656135
228	0x3b916abc	0.0044377726
229	0x3bbc4a81	0.0057461862
230	0xbb9e1a73	-0.0048249303
231	0xbc80d554	-0.015726723
232	0xbb3d71e3	-0.0028906993
233	0x3c4b1c5b	0.012396897
234	0x3c1843af	0.009293481
235	0xbb123827	-0.0022311301
236	0x3b9d16eb	0.004793992
237	0xbb44798f	-0.002997968
238	0x3c18042f	0.009278341
239	0x3b9a1fca	0.0047034966
240	0x3b37153f	0.0027936248
241	0x3bdced08	0.0067421235
242	0x3c469acb	0.012121866
243	0xbb79352b	-0.0038026075
244	0x3c520f5b	0.012821044
245	0xbc6c7ae0	-0.014433593
246	0x39ffedd3	0.00048814583
247	0xb96a7973	-0.00022361222
248	0xbb178657	-0.0023120844
249	0xbbb189fb	-0.00541806
250	0x3992017a	0.0002784839
251	0xbc2a9647	-0.0104118055
252	0x3c21e163	0.009880397
253	0x3c0ab4f0	0.00846599
254	0xbc9c0584	-0.019045599
255	0x3ad49e92	0.0016221574

action_model._discrete_distribution.branches.0.bias f4 [3]
0	0x00000000	0.0
1	0xbda12830	-0.07868993
2	0x3da12831	0.07868994
